experiments/classification/toy/gaussian_mixture/pretrained/2025-05-08_11-19-07/CrossEntropy_BatchEnsemble (rank 3).pt (torch, 155280 bytes, 8 tensors)

fc1.r_group f4 [100, 3, 2]
0	0x3f33135a	0.69951403
1	0x3f81ac73	1.0130752
2	0x3f67ec65	0.90595084
3	0x3f497ad2	0.78703034
4	0x3f99bb98	1.2010374
5	0x3ffe7b22	1.9881327
6	0x3fbdd8d4	1.4831796
7	0x4000e0dd	2.0137246
8	0x3f42950c	0.7600868
9	0x3ce691b2	0.028145645
10	0x3f8522eb	1.0401281
11	0x3f08a888	0.5338216
12	0x3f3ffdbf	0.7499656
13	0x3f7d3b68	0.9891877
14	0x3ec9e207	0.39430258
15	0x3f2bdf4a	0.6713759
16	0x3f845b38	1.0340338
17	0x3f87a3ef	1.0596904
18	0x3e987f2e	0.2978453
19	0x3f923546	1.1422508
20	0x3f50c9b9	0.81557804
21	0x3f6d5263	0.9270384
22	0x3f1708fd	0.5899809
23	0x3db4894e	0.08815251
24	0x3dc7a1c3	0.097476505
25	0x3f7b2640	0.9810524
26	0x3e52ff53	0.20605211
27	0x3f688e7a	0.908424
28	0x3fa5d5f8	1.2955923
29	0x3ff6cfbf	1.9282149
30	0x3f0682bd	0.5254324
31	0x3fc4a6cb	1.5363401
32	0x3f725066	0.9465393
33	0x3fb71a18	1.4304838
34	0x3e259c43	0.1617289
35	0x3f178765	0.5919097
36	0x3f3e40dc	0.7431772
37	0x3f88242f	1.0636042
38	0x3fa2dc24	1.2723432
39	0x3f6fed67	0.9372162
40	0x3fe8e5fe	1.8195188
41	0x3f2a0406	0.6641239
42	0x3fbaa5e4	1.4581876
43	0x3f53efcc	0.82787776
44	0x3fb78b03	1.4339298
45	0x3fbf8bbe	1.4964521
46	0x3f03d3bf	0.51494974
47	0x3f6931ed	0.91091806
48	0x3f8f63f6	1.1202381
49	0x3fa811bf	1.3130416
50	0x3f827a07	1.019349
51	0x3f85b45f	1.044567
52	0x3f9ff366	1.2496154
53	0x3f185f20	0.5952015
54	0x3f3e6dea	0.74386466
55	0x3f84f997	1.0388669
56	0x3fcbf242	1.5933306
57	0x3f88fea2	1.0702708
58	0x3f8371f7	1.0269154
59	0x3f8df978	1.1091757
60	0x3f202fa8	0.6257272
61	0x3fb7efd6	1.4370067
62	0x3f3c6883	0.7359697
63	0x3f4b8a09	0.795075
64	0x3f683083	0.90699023
65	0x3f7528ec	0.95765567
66	0x3fa626ea	1.2980626
67	0x3ef744f4	0.48294795
68	0x3f097686	0.5369648
69	0x3f45e396	0.77300394
70	0x3f9780f0	1.1836224
71	0x3f19888e	0.5997399
72	0x3fa2aaa3	1.2708324
73	0x3f9d430c	1.2286086
74	0xbea76b0b	-0.32698855
75	0x3fa836dc	1.3141742
76	0x3fc84507	1.5646065
77	0x3f350261	0.70706755
78	0x3f51e67e	0.8199233
79	0x3ebff274	0.37489665
80	0x3fc2bedb	1.5214494
81	0x3f64e2dd	0.89408666
82	0x3e98e740	0.2986393
83	0x3f81f44b	1.0152677
84	0x3f3cc6e4	0.73740983
85	0x3e1981a8	0.14990866
86	0x3f83d7b6	1.0300205
87	0x3fb56539	1.4171516
88	0x3fbfa5de	1.4972494
89	0x3ee59e0b	0.4484714
90	0x3f7d81a8	0.99025965
91	0x3f600fc8	0.8752408
92	0x3f457d85	0.7714465
93	0x3f0323ce	0.5122651
94	0x3f032e52	0.51242554
95	0x3eb81638	0.35954452
96	0x4001506c	2.0205336
97	0x3f8b2bd0	1.0872746
98	0x3fbdd035	1.4829165
99	0x3f3b857a	0.73250544
100	0x3f513cb6	0.8173326
101	0x3e840d90	0.25791597
102	0xbd11935d	-0.035540927
103	0x3f3711fd	0.7151182
104	0x3ffae578	1.9601278
105	0x3f97f857	1.1872662
106	0x3f8f728e	1.1206834
107	0x3f5b77ad	0.85729486
108	0x3f888d7c	1.0668178
109	0x3f273512	0.65315354
110	0x3e99c3ca	0.30032188
111	0x3fa974c7	1.3238763
112	0x3fbbcca1	1.4671823
113	0x3ebc8943	0.36823472
114	0xbef09e00	-0.46995544
115	0x3f4fa2fc	0.8110807
116	0x3f60d376	0.87822664
117	0x3fb6ae3b	1.4271921
118	0x3f3cd024	0.737551
119	0x3f6326e0	0.88731194
120	0x3ea47ea2	0.32127863
121	0x3fc3cc50	1.5296726
122	0x3f6bf3a7	0.9216866
123	0x3f86f0de	1.0542257
124	0x4016e1fb	2.3575428
125	0x3f2dc647	0.6788067
126	0x3f31c14c	0.6943557
127	0x3f91cb67	1.1390198
128	0x3f5668e2	0.8375379
129	0x3f090035	0.5351594
130	0x3eddbda1	0.43308738
131	0x3f36b1fa	0.7136532
132	0x3f7f0dbd	0.9963034
133	0x3d9816ac	0.07426199
134	0x3f8869da	1.0657303
135	0x3f90c4a9	1.1310016
136	0x3f84d2a7	1.0376786
137	0x3fc8332b	1.5640615
138	0x3f3e97b1	0.7445021
139	0x3fef4469	1.8692752
140	0x3e024424	0.12721306
141	0x3e9cc8cf	0.30621955
142	0x3fd9a4cb	1.7003416
143	0x3ef7eafa	0.4842146
144	0x3e43b751	0.19112898
145	0x3f7b6c6c	0.98212314
146	0x3f3d6fac	0.7399852
147	0x3fa84c09	1.3148204
148	0x3fd2a82b	1.6457571
149	0x3f92b372	1.1461012
150	0x3fd2671e	1.6437719
151	0x3f5101d6	0.81643426
152	0x3f322c5f	0.69598955
153	0x3f6cf892	0.9256679
154	0x3fb4e90d	1.4133621
155	0x3fa7a18a	1.3096173
156	0x3fb5f46b	1.4215215
157	0x3f4c5a85	0.7982562
158	0x4005455f	2.082359
159	0x3f842140	1.0322647
160	0x3f0f96b2	0.5608932
161	0x3f9bf9b5	1.218558
162	0x3fb18085	1.3867346
163	0x3f2668a6	0.6500343
164	0x3fc1f0b5	1.5151583
165	0x3f5c4dd7	0.86056274
166	0x3fb62b1d	1.4231907
167	0x3fae1c47	1.360238
168	0xbe7e218d	-0.24817486
169	0x3fa1cdd5	1.264094
170	0x3f7409b6	0.9532732
171	0x3f54dfe7	0.8315415
172	0x3f84ceaa	1.0375569
173	0x3ef3926e	0.47572654
174	0x3efa5061	0.4888945
175	0x3fcda14f	1.6064852
176	0x3f78faf4	0.97257924
177	0x3fb32954	1.3996987
178	0x3f9c45db	1.2208818
179	0x3fa6ee8b	1.3041548
180	0x3f22a1df	0.63528246
181	0x3f946e87	1.159623
182	0x3fe04ff3	1.7524399
183	0x3f015fb3	0.5053665
184	0x3fa98d78	1.3246298
185	0x3f50aa23	0.8150961
186	0x3d95b9e9	0.0731085
187	0x3f1ab53f	0.6043281
188	0x3ec45a5f	0.38350198
189	0x3f532f90	0.8249445
190	0x3fab6eed	1.3393227
191	0x3f4252ff	0.7590789
192	0x3fd15c92	1.6356375
193	0x3f746c20	0.95477486
194	0x3f843d5c	1.0331225
195	0x3f86b2e8	1.0523348
196	0x3f5b35eb	0.8562915
197	0x3f1f8e39	0.6232639
198	0x3ed54f23	0.4166194
199	0x3d3383e4	0.043826953
200	0x3f964c0a	1.1741955
201	0x3ef7a411	0.4836736
202	0x3f5c8bf4	0.8615105
203	0x3f4a79fd	0.7909239
204	0x3f2f22c8	0.68412447
205	0x3f78b416	0.9714979
206	0x3f85565d	1.0416981
207	0x3f95162a	1.1647389
208	0x3f9325c8	1.1495905
209	0x3fbffbfd	1.4998776
210	0x3f0aa374	0.5415566
211	0x3f4f8e58	0.81076574
212	0x3f5bc5dc	0.85848784
213	0x3f8d6709	1.1047069
214	0x3fb3f612	1.405947
215	0x3f9ec51a	1.2403901
216	0x3f31d0a7	0.69459003
217	0x3f53d345	0.82744247
218	0x3f018445	0.5059245
219	0x3ee971d2	0.4559465
220	0x3fdf0c9c	1.7425723
221	0x3fbee0eb	1.491239
222	0x3fae4ea7	1.3617753
223	0x3f90d531	1.1315061
224	0x3f8d63f7	1.1046132
225	0x3fb83138	1.439002
226	0x3ec82e2f	0.39097735
227	0x3f7b02b3	0.98050994
228	0x3f9e1c78	1.2352438
229	0xbd0f0d80	-0.034924984
230	0x3fabe0fd	1.3428036
231	0x3facedc4	1.351006
232	0x3f930e23	1.1488689
233	0x3f28c805	0.65930206
234	0x3d1fa2ab	0.03897349
235	0x3fcf5a9e	1.6199529
236	0x3f977ebe	1.1835554
237	0x3f3affa8	0.7304635
238	0x3f8560b2	1.0420134
239	0x3f512102	0.8169099
240	0x3fae4ba9	1.361684
241	0x3fda2c37	1.7044743
242	0x3f2627b9	0.6490436
243	0x3fc51a64	1.5398679
244	0x3f906655	1.1281229
245	0x3face5fc	1.3507686
246	0x3e8a85a1	0.27055076
247	0x3f89b1de	1.0757406
248	0x3fdf3cca	1.7440426
249	0x3f9e4e4d	1.2367646
250	0x3f1eb720	0.61998177
251	0x3f06d96a	0.526755
252	0x3f452139	0.7700382
253	0x3f128826	0.57238996
254	0x3f1843cd	0.59478456
255	0xbe95cda4	-0.29258454

fc1.s_group f4 [100, 3, 50]
0	0x3fb97068	1.4487429
1	0x3f70355b	0.93831414
2	0x3fc2e6a7	1.522664
3	0x3fcc560c	1.596376
4	0x3f6fafd8	0.9362769
5	0x3f826b46	1.0188987
6	0x3f2d2953	0.6764118
7	0x3e05d9a2	0.13071302
8	0x3face11f	1.3506202
9	0x3ee8d855	0.45477548
10	0x3f6b7cea	0.9198748
11	0x3f857169	1.0425235
12	0x3fd9411c	1.6972995
13	0x3f946fce	1.159662
14	0x3f79c736	0.97569597
15	0x3f2690bb	0.6506459
16	0x3fc3fc14	1.5311303
17	0x3f1ef4d1	0.6209231
18	0x3f972b6a	1.1810124
19	0x3e53b80d	0.20675679
20	0x3f2bcd39	0.6711002
21	0x3f931c34	1.1492982
22	0x3f865133	1.049353
23	0x3f2341ad	0.6377209
24	0x3f6a6477	0.9155955
25	0x3ffcade1	1.9740564
26	0x3e78376a	0.24239889
27	0x3f8a95b0	1.0826931
28	0x3fa0ad6f	1.2552928
29	0x3fc9711f	1.5737647
30	0x3f570bd2	0.8400241
31	0x3fd79006	1.6840827
32	0x3f540c67	0.82831424
33	0x3fc96f8b	1.5737165
34	0x3ea64aad	0.32478848
35	0x3f14cc0e	0.5812386
36	0x3fe215e6	1.7662933
37	0x3f6ffdeb	0.93746823
38	0x401802c6	2.3751693
39	0x3f88a939	1.0676643
40	0x3f54846b	0.83014554
41	0x3f486068	0.78272104
42	0x3f46fb0f	0.77726835
43	0x3fa88548	1.3165674
44	0xbe2b5ebe	-0.1673536
45	0x3f4917cd	0.7855194
46	0x3f90be2f	1.130804
47	0x3fe73347	1.8062524
48	0x3f39313f	0.7234077
49	0x3f4fb454	0.81134534
50	0x3f88288a	1.0637372
51	0x3fa2961f	1.2702063
52	0x3ec3266c	0.3811525
53	0x3fed069c	1.8517642
54	0x3ee0f741	0.4393864
55	0x3fd7f623	1.687199
56	0x3f9d481d	1.2287632
57	0x3f379a65	0.7171996
58	0x3f8fc022	1.1230509
59	0x3fe194dc	1.7623553
60	0x3f3f7811	0.7479258
61	0xbe893f92	-0.26806313
62	0xbc81dbed	-0.01585194
63	0x3f819807	1.012452
64	0x3ea7133e	0.32631868
65	0x3f1dc410	0.6162729
66	0x3f809988	1.0046854
67	0x3fa8f926	1.3201034
68	0x3f41fd9e	0.75777614
69	0x3f2e3cb2	0.68061364
70	0x3e83b4ef	0.2572398
71	0x3f8de86d	1.1086556
72	0x3eb61d10	0.35569048
73	0x3f853a58	1.040843
74	0x3f73c41f	0.9522113
75	0x3f1c1af0	0.60978603
76	0x3f936507	1.1515206
77	0x3de9a1bd	0.11407802
78	0x3f9012b0	1.1255703
79	0x3faa900f	1.3325213
80	0x3eb27785	0.3485681
81	0x3fa3267e	1.2746122
82	0x3f9a0a46	1.2034385
83	0x3fa48f03	1.2856144
84	0x3f83e760	1.0304985
85	0x3f6eeb0e	0.93327415
86	0x3fa537eb	1.290769
87	0x3f4480e8	0.76759195
88	0x3f282891	0.656869
89	0x3f1a35c3	0.60238284
90	0x3ff52048	1.9150476
91	0x3f43e940	0.76527786
92	0x3f953e2a	1.1659596
93	0x4011ef7e	2.2802424
94	0x3e9746b4	0.2954613
95	0x3ecff7e3	0.4061881
96	0x400de9b5	2.2173893
97	0x3fa7bf7b	1.310531
98	0x3fb711c8	1.4302301
99	0x3f3601db	0.7109658
100	0x3fa0a14d	1.2549225
101	0x3fc68d21	1.5511819
102	0x3f0ccc5c	0.5499933
103	0x3f0e4f9c	0.55590224
104	0x3f847549	1.0348293
105	0x3fdba0dd	1.7158467
106	0x3fa77bcb	1.3084654
107	0x3f954dfa	1.1664422
108	0x3f99dec5	1.2021109
109	0x3fba8c4d	1.4574066
110	0x3ee3962e	0.44450516
111	0x3faa769a	1.3317444
112	0x3ec347b3	0.3814064
113	0x3f0d8b6d	0.5529087
114	0x3fc867ba	1.5656655
115	0x3f4b2195	0.7934812
116	0x3f94d544	1.1627584
117	0x3f88cf12	1.0688193
118	0x3f538256	0.8262075
119	0x3f89075b	1.070537
120	0x3fb3f99c	1.406055
121	0x3f8408d7	1.0315198
122	0x3f2056a7	0.6263222
123	0x3f371fd0	0.7153292
124	0x3ff9eb1f	1.9524878
125	0x3f2edd8d	0.6830681
126	0xbe618495	-0.22023232
127	0x3f486dfe	0.78292835
128	0x3fb8a40e	1.4425066
129	0x3e91f893	0.2850996
130	0x3fcdfab9	1.609214
131	0xbe560a9e	-0.20902488
132	0x3fa0447a	1.2520897
133	0x3f0bd780	0.546257
134	0x3f67b01b	0.9050309
135	0x3fae7dd5	1.3632151
136	0x3f9ed20d	1.2407852
137	0x3fa0aca0	1.2552681
138	0x3f501aa5	0.81290656
139	0x3f6edd0f	0.9330606
140	0x3fa1a246	1.2627647
141	0x3fa09a09	1.2547008
142	0x3f3c847a	0.73639643
143	0x3f07a81b	0.52990884
144	0x3f86646b	1.0499395
145	0x3f211a76	0.62931
146	0x3fb8e2e9	1.4444247
147	0xbe08fdd9	-0.13378085
148	0x40034657	2.0511682
149	0x3f6714c5	0.90266067
150	0x3f883ff2	1.0644515
151	0xbc923247	-0.01784624
152	0x3f4e0a41	0.80484396
153	0x3f0d0063	0.55078715
154	0x3fbe60d7	1.4873303
155	0x3f05c522	0.52253926
156	0x3f8e583a	1.1120675
157	0x3e8485e4	0.258834
158	0x3f710bb2	0.9415847
159	0x3eeabe1f	0.45848176
160	0x3f97cd77	1.1859578
161	0x3fa7a364	1.3096738
162	0x3fedd574	1.8580766
163	0x3f080752	0.5313617
164	0x3fa29e0d	1.2704483
165	0x3f7d47a3	0.98937434
166	0x3fb1b59d	1.3883549
167	0xbe4ca452	-0.19984558
168	0x3fad3058	1.3530378
169	0x3f15626c	0.58353305
170	0xbd6b040b	-0.057376903
171	0x3f5bb1da	0.85818255
172	0x3ed15b07	0.4088976
173	0x3f553707	0.8328709
174	0x3fff6066	1.9951293
175	0x3f82b11e	1.0210302
176	0x4005b859	2.0893767
177	0x3f0cbbe0	0.54974174
178	0x3fb3d415	1.4049097
179	0x40028c5e	2.0398173
180	0x3f5925ad	0.84823114
181	0xbd314be9	-0.043285284
182	0x3f78a2a4	0.9712317
183	0x3f3e11e6	0.7424606
184	0x3fbe9f07	1.4892281
185	0x3f736b49	0.9508558
186	0x3eb159d8	0.34638858
187	0x3f30309b	0.68824166
188	0x3f7a6c78	0.9782176
189	0x3f0feb75	0.56218654
190	0x3fad6e78	1.3549337
191	0x3f884865	1.0647093
192	0x3f25ee13	0.648164
193	0x3f9a798b	1.2068342
194	0x3f9923bd	1.1964031
195	0x3f7f4c20	0.9972553
196	0x3f5430c2	0.828869
197	0x3f71a9ff	0.9440002
198	0x3f95ec21	1.1712686
199	0x3d906b7a	0.070517495
200	0x3f95a207	1.1690072
201	0x3f6d4532	0.9268371
202	0x3fadbe29	1.3573657
203	0x3fbed199	1.4907714
204	0x3e640713	0.22268324
205	0x3fa912f6	1.3208911
206	0x3defa7b4	0.11701909
207	0x3e9f1a0a	0.31074554
208	0x3fb86683	1.4406284
209	0x3f3b8762	0.7325345
210	0x3e05dbd3	0.13072138
211	0x3fb2d4e9	1.3971225
212	0x3ffa2541	1.9542619
213	0x3e2e53e0	0.17024183
214	0x3ead06a6	0.33794135
215	0x3fa04db2	1.2523711
216	0x3f9b92bc	1.2154155
217	0x3f864e16	1.049258
218	0x3f226db6	0.63448656
219	0x3f2b3226	0.66873395
220	0x40027fb0	2.0390434
221	0x3f23032e	0.63676727
222	0x4012cc3f	2.2937162
223	0x3f1c9119	0.611589
224	0x3fc536f0	1.540739
225	0x3faf5fc2	1.3701098
226	0x3f2faaf9	0.6862026
227	0x3e5ab879	0.21359433
228	0x3fb7961d	1.4342686
229	0x3efbc90e	0.4917683
230	0x3f3cf126	0.73805463
231	0x3f9117cc	1.1335387
232	0x4006948d	2.1028168
233	0x3faba29b	1.3408998
234	0x3f9481ad	1.1602074
235	0x3ef3a3ae	0.47585815
236	0x3fbda5a6	1.4816177
237	0x3f2c9f90	0.67430973
238	0x3fd33b60	1.6502495
239	0x3fcb533c	1.5884776
240	0x3f07abc5	0.52996475
241	0x3f413e46	0.75485647
242	0xbdf9ee63	-0.12203672
243	0x3fa8aded	1.3178078
244	0x3f248887	0.64270824
245	0x3f86be87	1.0526894
246	0x3fde36b3	1.7360443
247	0x3fc33599	1.5250732
248	0x3f51406e	0.81738937
249	0x3f9282cc	1.1446166
250	0x3f556cde	0.83369243
251	0x3e473836	0.19455037
252	0x3f620404	0.8828738
253	0x3f23ca07	0.63980144
254	0x3fc6bef5	1.5527025
255	0x3f129a69	0.5726686

fc1.bias f4 [100, 50]
0	0x3f443382	0.76641095
1	0x3ed0e3d7	0.40798828
2	0x3f20c565	0.628012
3	0x3f04d059	0.51880413
4	0x3d40f067	0.047104266
5	0x3ef43435	0.4769608
6	0xbeef68b8	-0.46759582
7	0xbe684784	-0.22683531
8	0xbeabe086	-0.33569735
9	0xbec1b2da	-0.37831765
10	0xbdd8b3f4	-0.10581198
11	0xbe9b2f9e	-0.30309767
12	0xbf19fd37	-0.60152
13	0xbe321ebd	-0.17394538
14	0x3ecdd031	0.401979
15	0x3f0d5d03	0.5522005
16	0x3f22f7d3	0.636594
17	0xbe90b79a	-0.28265077
18	0x3f21625b	0.63040704
19	0xbdbd43d1	-0.092414506
20	0xbebb6d1d	-0.36606684
21	0x3ead05c0	0.3379345
22	0xbf0b1f16	-0.5434431
23	0x3e5dea83	0.2167149
24	0xbf1b4231	-0.60647875
25	0xbc8e206d	-0.017349446
26	0x3ecd946f	0.40152308
27	0x3e107af3	0.14109401
28	0xbe81b492	-0.25333077
29	0x3e31bc8f	0.17357086
30	0x3e6841f5	0.2268141
31	0xbe31d1cd	-0.17365189
32	0x3decf523	0.115701936
33	0xbedfe99e	-0.43732923
34	0xbe8ea15f	-0.2785749
35	0xbed3cb8d	-0.41366234
36	0x3ebbb295	0.36659685
37	0x3ef628ce	0.48078007
38	0xbcb245ca	-0.021761794
39	0x3eb316ed	0.34978428
40	0x3f0ef8b7	0.5584826
41	0x3f08d438	0.5344882
42	0xbf057e1c	-0.5214555
43	0x3e1b1c64	0.15147549
44	0xbebda0f3	-0.37036857
45	0xbe2c5b1a	-0.16831627
46	0x3c665edf	0.014060705
47	0x3e92b26c	0.2865175
48	0x3f303808	0.68835497
49	0xbf154acc	-0.58317256
50	0x3f2189b2	0.6310073
51	0xbdff7f9b	-0.12475511
52	0x3e9cd254	0.30629218
53	0x3eadf616	0.3397681
54	0x3ea87b9d	0.3290681
55	0x3eaf2483	0.34207544
56	0xbe921284	-0.2852975
57	0xbe24bb86	-0.1608716
58	0x3e9d96e1	0.30779174
59	0xbf2a649c	-0.6655977
60	0x3f107577	0.5642924
61	0xbf2da08a	-0.6782309
62	0xbf01adb7	-0.5065569
63	0x3f286e3c	0.65793204
64	0xbe2e09ba	-0.16995898
65	0xbebf8490	-0.37405825
66	0x3e099ec8	0.13439476
67	0x3eae69fa	0.3406523
68	0x3e43e91d	0.19131894
69	0x3e8891d3	0.26673755
70	0x3ee0b801	0.43890384
71	0x3b957c54	0.00456194
72	0xbd78693c	-0.060647234
73	0x3f22e12a	0.63624823
74	0xbe95f1ed	-0.29286137
75	0x3d860e58	0.065457046
76	0xbcabe70a	-0.020984191
77	0xbdb888f3	-0.09010496
78	0xbf242caf	-0.6413068
79	0xbf003643	-0.50082797
80	0xbe30f53e	-0.17281052
81	0x3ee4ca6f	0.44685695
82	0xbee3b13e	-0.44471163
83	0x3e6a1d58	0.22862756
84	0x3e49fe5d	0.19725938
85	0xbea538ce	-0.322699
86	0xbdf1106b	-0.117707096
87	0x3ee7d273	0.45277748
88	0x3f2b4b60	0.6691189
89	0xbf1a0c8e	-0.60175407
90	0xbeec539f	-0.46157548
91	0x3cd6349b	0.026148131
92	0x3d426e5a	0.04746852
93	0x3f066b66	0.52507627
94	0x3f1e8552	0.6192218
95	0xbb4e8c04	-0.0031516561
96	0xbe7080ad	-0.23486586
97	0x3e9bbf7c	0.30419528
98	0xbe0267e9	-0.12734951
99	0xbc9adf58	-0.018905327
100	0xbe81df53	-0.25365695
101	0xbe9ad887	-0.30243322
102	0xbe90b1c7	-0.28260633
103	0x3d81fc18	0.06346911
104	0x3e98022f	0.29689166
105	0x3b376886	0.0027985885
106	0x3e08631f	0.13319062
107	0x3f186766	0.59532773
108	0xbee3b9ca	-0.44477683
109	0x3ed7ea9a	0.42171174
110	0xbe0ac249	-0.13550676
111	0x3f23afea	0.639403
112	0xbe9adac5	-0.30245033
113	0x3f2e5d85	0.6811145
114	0xbce94e71	-0.028479787
115	0xbf218c5a	-0.63104784
116	0x3f1b57a5	0.6068061
117	0xbebd6749	-0.36992863
118	0x3e3fe97f	0.18741415
119	0x3e5c5a5d	0.21518846
120	0xbe4c3b64	-0.1994453
121	0xbe0401a3	-0.1289125
122	0x3e06d27b	0.1316623
123	0x3d63dddb	0.0556315
124	0xbf2b9ac9	-0.6703306
125	0x3ef0385d	0.46918002
126	0xbe5ad36d	-0.21369715
127	0x3e7ab52c	0.24483174
128	0xbf2e4547	-0.6807446
129	0x3e6c0a6b	0.23050849
130	0x3dec2439	0.115303464
131	0xbecd8ed4	-0.40148032
132	0xbe6d0ffa	-0.23150626
133	0x3ef3959f	0.4757509
134	0x3e386a83	0.18009381
135	0xbef7c314	-0.4839102
136	0xbf25fdd2	-0.64840424
137	0x3e072e13	0.1320117
138	0xbe91a7be	-0.2844829
139	0xbe1050cf	-0.14093326
140	0xbbb21416	-0.0054345233
141	0x3f1546a0	0.5831089
142	0x3f01c03f	0.5068397
143	0xbf22c30c	-0.6357887
144	0x3f04436e	0.5166539
145	0x3f143ff4	0.57910085
146	0x3f003181	0.50075537
147	0x3d3846f2	0.044989534
148	0x3ecf9366	0.40542144
149	0xbdc4ee11	-0.0961572
150	0xbecd3413	-0.40078792
151	0x3e74eb2f	0.2391784
152	0xbe7e26a1	-0.24819423
153	0x3d1b687f	0.037941452
154	0xbdc71971	-0.097216494
155	0xbf0cfca6	-0.5507301
156	0xbe77ea6d	-0.2421052
157	0xbeb59353	-0.35463962
158	0x3d8f437c	0.069952935
159	0x3e739a36	0.23789296
160	0x3e075bd1	0.13218619
161	0xbf0a4433	-0.54010314
162	0xbd1d25b0	-0.03836602
163	0x3e09cc06	0.13456735
164	0xbd2c98d9	-0.042137954
165	0x3f1a2d92	0.60225785
166	0xbd5fa64b	-0.05460195
167	0x3c79170c	0.015203249
168	0x3edd201c	0.4318856
169	0xbb966292	-0.004589387
170	0xbf0fcec4	-0.56174874
171	0xbf2adbec	-0.66741824
172	0xbe39df9a	-0.18151703
173	0xbe2547bc	-0.16140646
174	0xbd86f54b	-0.06589755
175	0xbe94fa6f	-0.29097316
176	0xbf16db35	-0.58928233
177	0x3ca6407f	0.020294426
178	0x3b1c54f4	0.0023854347
179	0xbea89c12	-0.32931572
180	0xbed1b07e	-0.40954965
181	0x3e0e0d55	0.13872273
182	0xbf0eec46	-0.55829275
183	0x3f101006	0.5627445
184	0xbf0a39b0	-0.53994274
185	0x3d0c4cde	0.034252994
186	0xbf1ca678	-0.6119151
187	0x3eabca8a	0.33552963
188	0xbf30ba17	-0.6903395
189	0x3d52b96b	0.05144636
190	0xbdd3ac74	-0.10335627
191	0xbebd77bf	-0.37005422
192	0xbf09dda9	-0.5385385
193	0x3e75f4ec	0.24019212
194	0xbd3d7e5d	-0.046263088
195	0x3da85792	0.08219828
196	0xbee4bc6f	-0.44675013
197	0x3ea5b987	0.3236811
198	0x3f10a308	0.56498766
199	0xbf230856	-0.63684595
200	0xbf120be3	-0.5704939
201	0xbdbbb577	-0.09165471
202	0xbdd3b3b4	-0.1033701
203	0x3e69a511	0.22816874
204	0x3d1ee5f0	0.038793504
205	0x3f0bf687	0.54673046
206	0x3ea5bdb3	0.32371292
207	0xbe9d0796	-0.3066985
208	0x3dce7f4e	0.10082875
209	0xbe4d12d0	-0.20026708
210	0x3e3c1f3b	0.18371288
211	0x3ebe2fcf	0.3714585
212	0xbe817b24	-0.2528926
213	0x3f065253	0.52469367
214	0x3ee0c399	0.4389923
215	0xbe23d4ac	-0.15999097
216	0x3e867edb	0.26268658
217	0xbeb953ef	-0.3619685
218	0xbe043974	-0.12912542
219	0xbf03d75e	-0.515005
220	0x3eabc564	0.33549035
221	0xbe6abe38	-0.22924125
222	0x3ea07ac5	0.31343666
223	0x3e7e5a16	0.24839053
224	0x3e9297b6	0.2863137
225	0x3f161ef9	0.5864101
226	0x3e092d66	0.13396224
227	0x3e286504	0.16444784
228	0x3f0d1193	0.5510494
229	0x3eb17728	0.34661222
230	0x3e505f09	0.20348753
231	0x3f0bc6e7	0.54600376
232	0x3f0ed7aa	0.5579783
233	0x3ef75aa9	0.48311356
234	0xbf29ef32	-0.6638061
235	0x3f1a5605	0.60287505
236	0xbec2a325	-0.38015094
237	0x3ce743fa	0.028230656
238	0x3db2ea71	0.087361224
239	0x3f2e6838	0.68127775
240	0xbe815ddf	-0.2526693
241	0x3ebb17c1	0.3654156
242	0x3f50643d	0.8140295
243	0xbee01ec6	-0.43773478
244	0xbda538aa	-0.080674484
245	0xbecd02ff	-0.40041348
246	0xbf2765c4	-0.6538966
247	0xbe8ef789	-0.2792323
248	0xbe9f1ecf	-0.31078193
249	0x3f11c27c	0.56937385
250	0xbe0e56b9	-0.1390027
251	0x3c636935	0.013880064
252	0x3e0b315f	0.13593052
253	0xbdc56d12	-0.09639944
254	0x3e9d41cb	0.3071426
255	0x3ee752da	0.45180398

fc1.linear.weight f4 [50, 2]
0	0x3e9ed5eb	0.3102258
1	0xbf14edbe	-0.58175266
2	0xbdf3e8d6	-0.11909644
3	0x3e03b750	0.12862897
4	0x3e4c4517	0.1994823
5	0xbec3aca7	-0.3821766
6	0xbed6b3b6	-0.41933984
7	0xbf0edb0d	-0.55802995
8	0xbf3bfc08	-0.73431444
9	0x3cca4213	0.02468971
10	0xbed5321c	-0.41639793
11	0x3dda5257	0.10660236
12	0xbf15ec01	-0.5856324
13	0x3dbad75b	0.09123107
14	0xbec43dc5	-0.38328376
15	0x3f19d615	0.6009229
16	0xbeb9ae1d	-0.3626565
17	0x3ee8e4e9	0.45487145
18	0xbee8fa9a	-0.45503694
19	0x3f1ec2cf	0.62016004
20	0x3f003441	0.50079733
21	0x3b85eafd	0.0040868507
22	0x3f1bda83	0.608803
23	0xbf360eef	-0.71116537
24	0xbee6987e	-0.45038217
25	0x3f1edadb	0.62052697
26	0xbf223987	-0.6336903
27	0x3e9f1635	0.3107163
28	0x3e8acf23	0.27111158
29	0x3eec1bf5	0.4611508
30	0x3cd8a150	0.026444107
31	0xbf0ab779	-0.5418621
32	0x3eabfcca	0.335913
33	0x3e6fca34	0.23416978
34	0x3f1fda50	0.62442493
35	0xbea4033f	-0.32033727
36	0x3ec3fbd0	0.38278055
37	0x3ee2c7e4	0.4429313
38	0x3ef0d1ba	0.4703501
39	0x3f2aba97	0.66690964
40	0x3f2235d9	0.63363415
41	0xbf256f84	-0.64623284
42	0x3dde96b1	0.10868586
43	0xbecf0a58	-0.4043758
44	0xbf2ed6d7	-0.6829657
45	0x3ea01157	0.3126323
46	0xbcbca93a	-0.023029912
47	0xbf03cbfc	-0.5148313
48	0x3f0d7fff	0.5527343
49	0xbe5f5ccc	-0.21812743
50	0xbf1d00ff	-0.61329645
51	0xbeb8b262	-0.36073595
52	0xbf0fd88d	-0.56189805
53	0xbece1421	-0.40249732
54	0xbee8cd54	-0.45469153
55	0xbf3a3c03	-0.7274782
56	0xbdf1c805	-0.11805729
57	0x3ed73a49	0.42036656
58	0x3f13e4ae	0.5777081
59	0xbe43d380	-0.1912365
60	0x3f1f7f09	0.62303215
61	0x3f26c466	0.6514343
62	0xbd88cd3a	-0.06679769
63	0x3eabfabd	0.33589736
64	0xbebbb9f0	-0.36665297
65	0x3f1fd30c	0.62431407
66	0x3e089c85	0.13340957
67	0xbf2600ac	-0.64844775
68	0xbf15ffc1	-0.58593374
69	0xbeec29a1	-0.4612551
70	0xbe1095dc	-0.14119667
71	0xbe32b0f1	-0.1745031
72	0x3e4ec1be	0.20191094
73	0x3f2104d6	0.62898004
74	0x3efe8492	0.49710518
75	0x3ef834c8	0.4847777
76	0x3e2f3be0	0.17112684
77	0x3f314cef	0.69258016
78	0x3f219dbe	0.6313132
79	0x3eb19d7a	0.34690458
80	0xbecb27ea	-0.3967889
81	0xbebed242	-0.3726979
82	0x3f226782	0.6343919
83	0x3e08e16c	0.13367242
84	0x3f2b6de0	0.6696453
85	0x3d0a9dbb	0.03384183
86	0x3e768a68	0.24076235
87	0x3f2ba574	0.67049336
88	0x3f17a6dc	0.5923898
89	0xbd084e88	-0.03327802
90	0xbf37c0d5	-0.71778613
91	0xbead68be	-0.33868974
92	0x3dcedd34	0.10100785
93	0xbec159e9	-0.37763909
94	0xbf01b99d	-0.5067385
95	0xbefb8d29	-0.49131134
96	0x3f2143f3	0.6299431
97	0xbe975b43	-0.29561815
98	0xbe2f14af	-0.17097734
99	0x3f3153da	0.6926857

fc2.r_group f4 [100, 3, 50]
0	0x3e5a4ce5	0.21318395
1	0x3fa8e400	1.319458
2	0x3fdcd946	1.7253807
3	0x3f79d30b	0.9758765
4	0x3faea66b	1.3644537
5	0x3f9015de	1.1256673
6	0x3f453754	0.7703755
7	0x3f8299c8	1.020318
8	0x3f910c3c	1.1331859
9	0x3ec6df68	0.3884232
10	0x3f5bab8e	0.85808647
11	0x3f2f0856	0.68372095
12	0x3e805fa2	0.25072962
13	0x3f963148	1.173379
14	0x3f870b46	1.0550315
15	0x3f3f502f	0.74731725
16	0x3f11eff9	0.57006794
17	0xbd2c928b	-0.04213194
18	0x3f1c1224	0.6096518
19	0x3f1fda9b	0.6244294
20	0x3fa7238d	1.3057724
21	0x3f97ee48	1.1869593
22	0x3f0bd98b	0.5462882
23	0x3e0203d1	0.12696768
24	0x3f4aa1c2	0.7915307
25	0x3f1e7e21	0.6191121
26	0x3f63dc7a	0.89008296
27	0x3fa293d4	1.2701364
28	0x3f9c54e5	1.2213408
29	0x3fd355c3	1.6510547
30	0x3e4bc040	0.19897556
31	0x3f7527c1	0.95763785
32	0x3fb94469	1.4474002
33	0x3f6ee739	0.9332157
34	0x3f507791	0.81432444
35	0x3c1354eb	0.008992414
36	0x3f9eb4c5	1.2398916
37	0x3f077e9e	0.5292758
38	0x3fa7b310	1.310152
39	0x3eeec241	0.4663258
40	0x3f3261bc	0.6968038
41	0x3f9e9f50	1.2392368
42	0x3fd8fc1d	1.6951939
43	0x3ff7d309	1.9361278
44	0x3f3af51a	0.73030245
45	0x3f9c6cb1	1.222067
46	0x3f3a834a	0.7285658
47	0x3fd137f1	1.6345197
48	0x3f4f1e3d	0.80905515
49	0x3ea06da3	0.31333646
50	0x3f3317b1	0.69958025
51	0x3ffab167	1.9585389
52	0x3fbf89da	1.4963944
53	0x3fcbe164	1.5928159
54	0x3ec6ebd2	0.38851792
55	0x3f9839b0	1.1892605
56	0x3f90d21b	1.1314119
57	0x3c91fb80	0.01782012
58	0x3f012269	0.5044313
59	0x3f9e070d	1.2345902
60	0xbcd1fdf6	-0.025633793
61	0x3fa9e6da	1.3273575
62	0x3ff62156	1.9228923
63	0x3ff37ecd	1.9023072
64	0x3fc39caf	1.5282191
65	0x3f8b2364	1.0870175
66	0x3fd40462	1.6563838
67	0x3f6bc4d1	0.92097193
68	0x3f2e01c7	0.6797146
69	0x3fa4a3bc	1.2862468
70	0x3f9f2ebd	1.2436138
71	0x3f895459	1.0728866
72	0x3fbd5480	1.4791412
73	0x3ed73f49	0.4204047
74	0x3fead172	1.8345168
75	0x3f3660bd	0.7124136
76	0x3fe45c5f	1.784069
77	0x3ec49440	0.38394356
78	0x3f71f488	0.9451375
79	0x3f09af78	0.5378337
80	0x3f30440a	0.6885382
81	0x3fc66e8b	1.5502485
82	0x3f8e8691	1.1134816
83	0x3f9281a4	1.1445813
84	0x3fc1131e	1.5083959
85	0x3f323faf	0.69628423
86	0x3fa1028e	1.2578905
87	0x3fa361ad	1.2764183
88	0x3fb61075	1.4223772
89	0xbee78720	-0.4522028
90	0x3ee0b6b7	0.438894
91	0x3f86b69f	1.0524482
92	0x3f7cda28	0.9877038
93	0x3f8ab7c4	1.0837331
94	0x3f1db4f6	0.6160425
95	0x3f55685e	0.83362377
96	0x3f05d5da	0.52279437
97	0x3fb4a631	1.4113218
98	0x3f6159df	0.8802776
99	0x3ff13afa	1.8846123
100	0x3f167890	0.58777714
101	0x3fec6c9e	1.8470647
102	0x3ee854c6	0.45377177
103	0x3f980f93	1.1879753
104	0x3fa6a25d	1.3018299
105	0x3f8478b0	1.0349331
106	0x3f00e97b	0.5035626
107	0x3fe5a38f	1.7940539
108	0x3eb26c13	0.3484808
109	0x3f5fb615	0.8738721
110	0x3fb5e967	1.4211854
111	0x3f906579	1.1280967
112	0x3fca6b44	1.5813985
113	0x3f2d4e67	0.6769776
114	0x3fb89b85	1.4422461
115	0x3fd61a28	1.6726732
116	0x3f218d51	0.63106257
117	0x3f8d1790	1.1022816
118	0x3f99fd1d	1.2030369
119	0x3faabdba	1.333915
120	0x3fcffeb6	1.6249607
121	0x3fcac9f9	1.5842887
122	0x3f4029e3	0.75063914
123	0x3f738ddc	0.95138335
124	0x3fb13aec	1.3846107
125	0x3f74fe9a	0.9570099
126	0x3fab64ef	1.3390177
127	0x3f61cbf4	0.8820183
128	0x3f29bdd7	0.663053
129	0x3f26735f	0.6501979
130	0x3f79161d	0.9729937
131	0x3f83f520	1.0309181
132	0x3f1f8a85	0.6232074
133	0x3f960138	1.1719122
134	0x3faa0678	1.3283224
135	0x3fd8f554	1.6949868
136	0x3f3b5d99	0.73189694
137	0x3fc1e555	1.5148112
138	0x3f95a159	1.1689864
139	0x3f9dca84	1.2327428
140	0x3f12dc5a	0.5736748
141	0x3f723d5e	0.9462489
142	0x3f1ecc8e	0.62030876
143	0x3e89b548	0.2689612
144	0x3f83f96c	1.0310493
145	0x3f8976d7	1.0739392
146	0x3eba7033	0.36413726
147	0x3f610208	0.87893724
148	0x3f24097c	0.6407697
149	0x4012cd34	2.2937746
150	0x3fa1bd4e	1.2635896
151	0x3fd9d0fd	1.7016903
152	0x3ef5f326	0.4803707
153	0x3f610a9c	0.87906814
154	0xbe2e26f2	-0.17007044
155	0x3f4ac8df	0.79212755
156	0x3f810779	1.0080405
157	0x3e507d65	0.20360334
158	0x3fccca62	1.5999262
159	0x3f5e34ea	0.8679949
160	0x3f48e6e2	0.784773
161	0x3fd52981	1.6653291
162	0x3f3c7f92	0.73632157
163	0x3fa3065f	1.2736319
164	0x3f8bd43d	1.0924145
165	0x3c0e4756	0.008684
166	0x400949e6	2.1451354
167	0x3fe5db28	1.7957506
168	0x3f7e8cab	0.9943339
169	0x3f9fa8d4	1.2473397
170	0x3f6c4272	0.9228889
171	0x3f30cd00	0.69062805
172	0x3f56d212	0.8391429
173	0x3f5595cf	0.83431715
174	0x3f4e14f6	0.80500734
175	0x3f8d1e22	1.1024821
176	0x3f0cbbbe	0.5497397
177	0x3f96d64a	1.1784146
178	0x3ffee386	1.9913185
179	0x3fbd62e2	1.4795802
180	0x3f411a86	0.75431097
181	0x3e6f27a4	0.23354965
182	0x3f94b51c	1.161777
183	0x3f84e562	1.0382502
184	0x3de9c0b7	0.114137106
185	0x3f74e060	0.9565487
186	0x3f6da1ee	0.9282521
187	0x3f8fa0bc	1.1220927
188	0x3faf5e3a	1.3700631
189	0x3f731e89	0.9496847
190	0x3db55235	0.0885357
191	0x3f084009	0.5322271
192	0x3faf64dc	1.3702655
193	0x3f3bcbae	0.73357666
194	0x3f6448bb	0.8917348
195	0x3f052b3f	0.52019113
196	0x3fe1e7b4	1.7648835
197	0x3f3b3abf	0.73136514
198	0x3f1a2774	0.6021645
199	0x3fd6f08b	1.6792158
200	0x3fc75979	1.557418
201	0x3ff2c92d	1.8967644
202	0x3f842ec5	1.0326773
203	0xbeb3604a	-0.350344
204	0x3fb2571b	1.3932832
205	0x3eeabe93	0.45848522
206	0x3faa45e2	1.3302577
207	0x3fdbdff0	1.7177715
208	0x3f3d480e	0.7393807
209	0x3f93d8cd	1.1550537
210	0x3f846265	1.0342528
211	0x3ecfdd53	0.40598544
212	0x3f70dda2	0.94088185
213	0x3f632c5f	0.8873958
214	0x3fdd00a8	1.7265825
215	0x3f8a4d72	1.0804884
216	0x3eeed15d	0.46644107
217	0x3fccc94c	1.5998931
218	0x3fe7cb68	1.810895
219	0x3f99c478	1.2013083
220	0x3fc738f7	1.5564259
221	0x3f9aa91c	1.2082858
222	0x40262cdb	2.5964878
223	0x3ff0d60c	1.8815322
224	0x3fadb834	1.3571839
225	0x3e5a3c2c	0.21312016
226	0x3fa5280f	1.290285
227	0x3fd47ab2	1.6599944
228	0x3f2d1395	0.67608005
229	0x3f5541af	0.8330335
230	0x3fb57fc2	1.4179614
231	0x3fc1e8fe	1.5149229
232	0x3f6e9d71	0.93208987
233	0x3f526e85	0.8219989
234	0x3f74dcbb	0.9564931
235	0x3eb80941	0.3594456
236	0x3fee1bf8	1.8602285
237	0x3edb9b94	0.42892134
238	0x3f8f6eb7	1.1205662
239	0x3f9c4548	1.2208643
240	0x3f7a0a59	0.9767204
241	0x3f822617	1.0167874
242	0x3f8ff0b0	1.1245327
243	0x3eca04aa	0.39456683
244	0x3fdb63b0	1.7139797
245	0x3f90e2a4	1.1319165
246	0x3f406b4c	0.7516372
247	0x3f58ef76	0.8474039
248	0x3fd51229	1.6646167
249	0x3fba2b09	1.4544383
250	0x3f3fe432	0.74957573
251	0x3f0f9195	0.56081516
252	0x3fc19c7f	1.5125884
253	0x3f81bc58	1.0135603
254	0x3f7c886f	0.9864568
255	0x40199b6f	2.400112

fc2.s_group f4 [100, 3, 5]
0	0x3f57209c	0.8403413
1	0x3f9dd481	1.2330476
2	0x3f779e68	0.96726084
3	0x3f650ca1	0.89472395
4	0x3f0a652a	0.54060614
5	0x3fab4038	1.3378973
6	0x3f35c08d	0.70996934
7	0x3f9a00fd	1.2031552
8	0x3fbf1d6f	1.4930857
9	0x3f17060e	0.58993614
10	0x3eee8381	0.46584705
11	0x3fd5186f	1.6648082
12	0x3fb9063d	1.4455029
13	0x3f995852	1.1980078
14	0x3d81df9c	0.06341478
15	0x3fbcc766	1.4748352
16	0x3f942f72	1.1576979
17	0x3f7e5d4d	0.99361116
18	0x3fc5240d	1.5401627
19	0x3f833fa9	1.0253803
20	0x3f8fe51b	1.1241792
21	0x3f89875d	1.0744435
22	0x3f8c6066	1.0966918
23	0x3f634a6b	0.8878543
24	0x3f9c21b2	1.2197783
25	0x3f6a2208	0.9145818
26	0x3f880363	1.0626034
27	0x3ffb7340	1.9644547
28	0x3f1c4361	0.6104031
29	0x3f9fc514	1.2482018
30	0x3f0758a3	0.52869624
31	0x3f1ed342	0.62041104
32	0x3f787840	0.97058487
33	0x3f807163	1.0034603
34	0x3b753a06	0.0037418618
35	0x3f3d5dda	0.7397133
36	0x3f5ea478	0.8696971
37	0x3f9a62ec	1.2061439
38	0x3f5a9f94	0.85399747
39	0x3f512bca	0.8170744
40	0x3fbd846a	1.4806035
41	0x3ff780e0	1.9336205
42	0x3ef64eb8	0.48106933
43	0x3f34c000	0.7060547
44	0x3f1f90c1	0.6233025
45	0x3f959d20	1.1688576
46	0x3f9fe298	1.2491026
47	0x3f363fa0	0.71190834
48	0x3ec610eb	0.38684782
49	0x3f5bd526	0.85872114
50	0x3eb7d6ef	0.3590617
51	0x3f96f58a	1.1793683
52	0x3f0dceea	0.5539385
53	0x3fbc35ce	1.470392
54	0x3faaa5cd	1.3331848
55	0x3f84ec9f	1.0384711
56	0x3f531760	0.8245754
57	0x3f167b25	0.58781654
58	0x3f41496c	0.7550266
59	0x3f867237	1.0503606
60	0x3f328880	0.6973953
61	0x3f0b0074	0.54297566
62	0x3f09d160	0.53835106
63	0x3f9add10	1.2098713
64	0x3f97770c	1.1833205
65	0x3f8ff2c6	1.1245964
66	0x3ff5eb94	1.9212518
67	0x3fa42514	1.2823815
68	0x3fdfaa24	1.7473798
69	0x3fece64d	1.8507782
70	0x3ee12d6d	0.4397997
71	0x3e5b41bf	0.21411799
72	0x3fac68b5	1.3469454
73	0x3f0b009f	0.5429782
74	0x3eed88c0	0.46393394
75	0x3f86b7e8	1.0524874
76	0x3f5e5fbc	0.8686483
77	0x3fd00e9c	1.6254458
78	0x3f2f7437	0.68536705
79	0x3f4c1b26	0.79728925
80	0x3f910003	1.1328129
81	0x3e899607	0.26872274
82	0x3f01b34d	0.50664216
83	0x3f2c4a85	0.6730121
84	0x3f5991af	0.8498792
85	0x3f701d61	0.9379483
86	0x3f12bcd7	0.57319397
87	0x3f9d1c7f	1.2274321
88	0x3f7b1c29	0.98089844
89	0x3d11dcf5	0.03561111
90	0x3faf2772	1.3683913
91	0x3f856e50	1.042429
92	0x3fd1ead1	1.6399785
93	0x3fd87324	1.6910138
94	0x3f2d9bd7	0.6781592
95	0x3fedc907	1.8576974
96	0x3faf0496	1.3673275
97	0x3f939f8a	1.1533062
98	0x3f5c8685	0.8614276
99	0x3f8e4060	1.1113396
100	0x3f195117	0.5988936
101	0x3eea72d5	0.45790735
102	0x3f9dfe2d	1.2343193
103	0xbda97f75	-0.082762636
104	0x3f249bfe	0.64300525
105	0x3f7d0c92	0.98847306
106	0x3fee22c0	1.8604355
107	0x3f1591c8	0.5842557
108	0x3fe189e9	1.7620212
109	0x3f0ea45d	0.5571955
110	0x3f949e69	1.1610843
111	0x3f80d79a	1.0065796
112	0x3fc4583f	1.533943
113	0x3f906f1e	1.128391
114	0x3f91afba	1.1381752
115	0x3fb2db6c	1.3973212
116	0x3fc5c48e	1.5450609
117	0x3f0341b2	0.5127212
118	0x3f8e0149	1.1094142
119	0x3edb016a	0.42774516
120	0x3f84a678	1.0363302
121	0x3f8a0192	1.0781729
122	0x3f8d2ce1	1.1029321
123	0xbd02d1f1	-0.031938497
124	0x3f79d4ce	0.9759034
125	0x3fd081a3	1.6289562
126	0x3f858b47	1.0433129
127	0x3e594914	0.21219283
128	0x3fad8ca9	1.3558551
129	0x3f955bad	1.1668602
130	0x3f82c932	1.021765
131	0x3f8e5ad3	1.1121467
132	0x3f2c4aba	0.67301524
133	0x3f33c4e6	0.7022232
134	0x3f46bfcc	0.7763641
135	0x3f101112	0.5627605
136	0x3f883dff	1.064392
137	0x3f9d69a4	1.2297864
138	0x3f681cba	0.90668833
139	0x3f138f91	0.5764094
140	0x3cdb34ac	0.026758514
141	0x3f86716c	1.0503364
142	0x3fbd6c46	1.4798667
143	0x3fb05125	1.3774763
144	0x3f0feadc	0.5621774
145	0x3f4fa82f	0.81116
146	0x3f834444	1.0255208
147	0x3f57c62a	0.8428675
148	0x3f5bfb98	0.85930777
149	0x3f5c0600	0.85946655
150	0x3fc4eb26	1.5384262
151	0x3f12696e	0.5719212
152	0x3f9ec095	1.2402521
153	0x3f92dc24	1.1473432
154	0x3f88009a	1.0625184
155	0x3fbc464c	1.4708953
156	0x3eaa1ee6	0.332267
157	0x3fa724e4	1.3058133
158	0x3f8ad77f	1.0847014
159	0x3f8bbdae	1.0917261
160	0x3f3b014e	0.73048866
161	0x3fb79b76	1.4344318
162	0x3f9835ea	1.1891453
163	0x3de4bb7c	0.11168572
164	0x3f8dbcd3	1.107325
165	0x3fa01460	1.2506218
166	0x3f4b38b8	0.7938342
167	0x3faf79a6	1.3708999
168	0x3fb3bac7	1.4041375
169	0x3f964a04	1.1741338
170	0x3edcdf35	0.43139043
171	0x3e9a5a23	0.30146894
172	0x3f18447e	0.5947951
173	0x3f47c957	0.78041595
174	0x3fa5f5cc	1.2965636
175	0x3fcacbfe	1.5843503
176	0x3f806580	1.0030975
177	0x3f7e29d6	0.99282587
178	0x3fa87594	1.3160882
179	0x3f5c8fd3	0.8615696
180	0x3efe7f49	0.49706486
181	0x3f50dca4	0.8158667
182	0x3f7290e5	0.9475234
183	0x3f0d0489	0.55085045
184	0x3fc54bf1	1.54138
185	0x3f93a1aa	1.1533711
186	0x3f1d8568	0.61531687
187	0x3f75435d	0.95805913
188	0x3fae98d6	1.3640392
189	0x3e41803e	0.18896577
190	0x3f7bf997	0.9842772
191	0x3fb3e032	1.4052794
192	0x3f183519	0.5945602
193	0x3f88b971	1.0681592
194	0x3fd1ed7b	1.6400598
195	0x3f929b66	1.1453674
196	0x3f17e889	0.59339195
197	0x3fb67ad4	1.4256234
198	0x4003b54c	2.0579405
199	0xbe0a5d0e	-0.1351206
200	0x3f917ba6	1.136586
201	0x40120359	2.2814543
202	0x3f92cba9	1.1468402
203	0x3f95ff7d	1.1718594
204	0x3f836bcc	1.0267272
205	0x3f55d364	0.8352568
206	0x3f63e90d	0.8902748
207	0xbe04790f	-0.12936805
208	0x3f520d05	0.82051116
209	0x3efa59be	0.48896593
210	0x3f627bac	0.8846996
211	0x3f679be7	0.90472263
212	0x3f4b1d3d	0.7934149
213	0x3fb5f4f2	1.4215376
214	0x3f22fc03	0.6366579
215	0x3fa6b43b	1.3023752
216	0x3ed98d6f	0.42490718
217	0x3fcb4338	1.5879889
218	0x3f093444	0.53595376
219	0x3f959e5b	1.1688951
220	0x3db83a28	0.089954674
221	0x3fad3770	1.3532543
222	0x40083ad1	2.1285899
223	0x3fb7480e	1.4318864
224	0x3e7b271e	0.24526641
225	0x3f710101	0.94142157
226	0x3f8918e4	1.0710721
227	0x3f52feac	0.8241985
228	0x3e815879	0.25262812
229	0x3ca6992a	0.020336706
230	0x3f888aba	1.0667336
231	0x3f4f9371	0.8108435
232	0x3fb6412f	1.4238642
233	0x3fea91cd	1.8325745
234	0x3fc4f3d3	1.5386909
235	0x3fc112b4	1.5083833
236	0x3f8d2f2b	1.103002
237	0x3f866018	1.0498075
238	0x3f75b7cb	0.9598357
239	0x3f2d7f7d	0.67772657
240	0x3f14645b	0.5796563
241	0x3f9259cd	1.1433655
242	0x3ea7d786	0.3278162
243	0x3f99adbd	1.2006146
244	0x3fad3e4c	1.3534636
245	0xbbab9b8b	-0.005237048
246	0x3fbc474d	1.4709259
247	0x3fc90f0a	1.5707715
248	0x3f3e6002	0.74365246
249	0x3f3d8935	0.74037486
250	0x3f2f62e9	0.685103
251	0x3f78e658	0.97226477
252	0x3fa63501	1.2984926
253	0x3e75f097	0.24017559
254	0x3f6ba430	0.92047405
255	0x3fb307c3	1.3986744

fc2.bias f4 [100, 5]
0	0xbd0ab895	-0.033867437
1	0x3d77322d	0.060350586
2	0xbd4dad1f	-0.05021393
3	0xbe0a9b08	-0.13535702
4	0x3c0e6066	0.008689975
5	0xbb97752a	-0.0046221213
6	0x3e116998	0.14200437
7	0xbd84dcf6	-0.064874575
8	0xbe02fa2b	-0.12790744
9	0xbdf4dded	-0.119563915
10	0xbd8840b5	-0.06652967
11	0xbcdc11f6	-0.026864033
12	0x3d06259d	0.032750715
13	0xbd52eca9	-0.051495228
14	0xbd11eaa2	-0.035624154
15	0x3d82e2de	0.06390928
16	0x3a4d7aa6	0.00078384054
17	0xbdcaf338	-0.099096715
18	0x3e327f6c	0.1743142
19	0x3c7d05fb	0.01544332
20	0x3e1114a2	0.14168027
21	0x3d51f975	0.05126329
22	0xba003493	-0.00048906467
23	0xbbc6c846	-0.006066355
24	0xbd32cb30	-0.043650806
25	0xbbb16f49	-0.0054148776
26	0x3c32ef98	0.010921381
27	0xbd0b587f	-0.034019943
28	0x3d2a3314	0.04155262
29	0xbe1e227d	-0.15442844
30	0x3aa5d646	0.001265236
31	0x3d5b1e7a	0.05349586
32	0xbcb81549	-0.022471087
33	0x3d14ab89	0.0362964
34	0x3e444d10	0.19170022
35	0xbe234f77	-0.15948282
36	0x3c3f06fb	0.011659379
37	0xbd5b356b	-0.05351774
38	0x3c6d807a	0.014495963
39	0x3e0313ba	0.12800494
40	0x3d7bcb5f	0.061473247
41	0x3daa45f1	0.083141215
42	0x3d15c462	0.03656424
43	0xbd1d4dfe	-0.038404457
44	0x3d8b7ac9	0.06810529
45	0xbaa410ba	-0.0012517192
46	0x3e142cd5	0.14470227
47	0x3da0aa08	0.07844931
48	0x3d08664c	0.033300683
49	0x3ca83dd8	0.020537302
50	0x3e12246e	0.1427171
51	0x3dd33f8b	0.10314854
52	0xbe24f5b5	-0.16109355
53	0xbd046392	-0.03232152
54	0x3d3a44ea	0.045475878
55	0x3dba619b	0.09100648
56	0xbd922390	-0.07135689
57	0xbd62ebcc	-0.055400655
58	0xbdc6971f	-0.09696793
59	0x3d997d0d	0.07494555
60	0x3d7f33e2	0.06230534
61	0xbd60bf5b	-0.05486999
62	0x3e43b48d	0.19111843
63	0x3cce2c1d	0.02516752
64	0xbc992a52	-0.018696938
65	0x3d7664de	0.06015479
66	0x3e127217	0.14301334
67	0xbd18fe00	-0.03735161
68	0xbe1b49bb	-0.15164845
69	0x3e251bd1	0.16123892
70	0xbc3a7d48	-0.011382408
71	0x3e2adf89	0.16686834
72	0x3dc97f08	0.098386824
73	0xbd7ca8b2	-0.061684318
74	0x3df1b007	0.11801153
75	0xbda0bf6d	-0.078490116
76	0x3d16a945	0.03678252
77	0xbd68f98e	-0.05687862
78	0x3aab1bf9	0.0013054601
79	0x3e0dd928	0.1385237
80	0x3da87681	0.08225728
81	0x3dcebe29	0.10094864
82	0xbdeb61a7	-0.11493235
83	0x3e130343	0.14356713
84	0xbd910c81	-0.07082463
85	0xbce3f554	-0.027826943
86	0xbc5680b8	-0.013092212
87	0xbe33ce6a	-0.1755921
88	0xbb1e43ad	-0.0024149225
89	0xbd528ebe	-0.05140566
90	0xbe5e5442	-0.2171183
91	0x3e49844b	0.19679372
92	0xbe21967a	-0.15780059
93	0xbc816970	-0.015797347
94	0xbd53d583	-0.051717293
95	0x3e2d81b9	0.16944017
96	0x3d359a40	0.044336557
97	0xbcb25dcc	-0.021773241
98	0x3dd63d86	0.104609534
99	0x3da10d37	0.07863849
100	0x3dacbcd2	0.08434452
101	0xbc916280	-0.017747164
102	0x3d8cc5c5	0.06873659
103	0xbd3290b3	-0.043595027
104	0x3d22af77	0.039718118
105	0x3df0cc6a	0.11757739
106	0xbdc2977e	-0.09501551
107	0xbe198427	-0.14991818
108	0x3d9d91c8	0.07693821
109	0x3d38d1a0	0.04512179
110	0xbd86467c	-0.065564126
111	0x3da9efba	0.08297677
112	0xbdbadf2a	-0.091245964
113	0xbde03a15	-0.10948578
114	0xbde64a9d	-0.112447
115	0xbd2ce523	-0.04221071
116	0x3d721974	0.059106305
117	0xbac0e755	-0.001471738
118	0xbda5762e	-0.080791816
119	0x3d090576	0.033452474
120	0xbdd1bb89	-0.102408476
121	0xbdd8cb1c	-0.10585615
122	0xbd17eb60	-0.037089705
123	0x3de74e8f	0.11294281
124	0xbe52fa52	-0.20603302
125	0x3dea5d7c	0.11443612
126	0x3e405e9e	0.18786094
127	0xbdf30b9c	-0.11867449
128	0x3e0f7e7b	0.14013092
129	0x3e16782c	0.1469428
130	0x3e318856	0.17337164
131	0x3df30610	0.11866391
132	0xbc426905	-0.011865859
133	0x3d0afc1e	0.033931844
134	0xbcc77302	-0.024346832
135	0xbd98fd92	-0.0747024
136	0xbcf67f51	-0.030090006
137	0xbc9d799e	-0.01922303
138	0xbde14dc1	-0.110011585
139	0x3c8abe63	0.016936487
140	0x3df56bf5	0.11983482
141	0xbdd1d06d	-0.10244832
142	0xbbc1ad53	-0.0059105544
143	0x3e58eb87	0.21183597
144	0xbc1f5a14	-0.009726066
145	0x3e725159	0.23663844
146	0xbd56c489	-0.052433524
147	0x3dcaa7d2	0.098952904
148	0x3d6a71f2	0.057237573
149	0xbdcecaed	-0.10097299
150	0xbd16a260	-0.036775947
151	0x3db2304d	0.08700619
152	0x3daae5c4	0.083446056
153	0xbc8f72cb	-0.017510792
154	0x3da49a96	0.080372974
155	0x3e4b1689	0.19832815
156	0xbda597f0	-0.080856204
157	0xbdb50886	-0.08839516
158	0x3e2e8289	0.17041983
159	0xbd6b65ee	-0.057470255
160	0x3d72cc93	0.05927713
161	0xbb9fa81b	-0.0048723347
162	0x3db5534a	0.08853777
163	0xbe4fe70a	-0.20302978
164	0x3e52d993	0.2059081
165	0xbd1c1638	-0.038107127
166	0x3df6dc1f	0.120537035
167	0x3de76dd4	0.11300245
168	0xbe2548a4	-0.16140991
169	0x3cce62c5	0.025193581
170	0x3ddfa38b	0.10919865
171	0x3d2a7137	0.041611876
172	0xbe0302fa	-0.12794104
173	0x3c80ea26	0.01573665
174	0x3d64ba13	0.055841517
175	0x3de38e51	0.11111129
176	0xbe3ec817	-0.18631016
177	0x3d3aad7c	0.045575604
178	0xbe3ccf1a	-0.18438378
179	0x3dbf36c9	0.09336621
180	0xbd28a50d	-0.04117303
181	0x3e2acfb3	0.16680793
182	0xbdb474e9	-0.08811361
183	0xbe3c9217	-0.18415104
184	0xbd27e7a0	-0.04099238
185	0xbda6cfda	-0.08145113
186	0x3d0f0571	0.0349173
187	0xbdc1e4d9	-0.09467477
188	0xbdf1bd5a	-0.11803694
189	0x3df60178	0.12011999
190	0x3b4adb77	0.0030953565
191	0x3e56b83f	0.20968722
192	0xbe2a7031	-0.1664436
193	0x3d3ff6ab	0.0468661
194	0x3e197cb3	0.14988975
195	0x3e4c37fc	0.19943231
196	0x3ad78a1f	0.0016444362
197	0xbd0d2e7e	-0.034468167
198	0x3e02cbaa	0.12773004
199	0xbdab7d91	-0.08373559
200	0x3e626b53	0.22111253
201	0x3daf26e0	0.08552337
202	0xbe6619a1	-0.22470714
203	0x3d730350	0.05932933
204	0x3d318112	0.04333598
205	0x3cc4de58	0.024031803
206	0xbd952ae6	-0.07283573
207	0x3e320d43	0.17387871
208	0xbe250cbf	-0.16118143
209	0xbdfdc69e	-0.12391399
210	0xbe772304	-0.24134451
211	0x3db8ae21	0.090175875
212	0x3dda81d3	0.10669293
213	0xbd6954db	-0.05696569
214	0x3dc05063	0.093903325
215	0x3ded81bc	0.115970105
216	0x3c07df76	0.008293023
217	0x3d0a0b71	0.033702318
218	0xbd2c6bba	-0.042094924
219	0xbdf74ee7	-0.12075596
220	0xbe840cfd	-0.2579116
221	0x3e19fafa	0.15037146
222	0x3d34a4fe	0.04410266
223	0xbd9f8b41	-0.077902324
224	0x3e56b081	0.20965768
225	0xbe006915	-0.12540086
226	0xbc7d79f9	-0.015470975
227	0x3d840514	0.06446281
228	0x3d277e0b	0.04089169
229	0x3e48f508	0.19624722
230	0x3da95376	0.08267872
231	0xba4831ec	-0.00076368335
232	0x3e289102	0.16461566
233	0x3c9d20c5	0.019180665
234	0xbd8c7281	-0.068577774
235	0x3ccd422d	0.02505597
236	0x3e6a6148	0.22888672
237	0xbe21ebe9	-0.15812649
238	0x3bb62804	0.0055589695
239	0x3c9ce4c3	0.01915205
240	0x3db9023f	0.090336315
241	0xbda3dbc3	-0.080009006
242	0xbe299c06	-0.16563424
243	0x3a923583	0.0011154864
244	0xbd3386b6	-0.043829642
245	0x3e00e46c	0.12587136
246	0xbd6dcef6	-0.0580587
247	0xbd0e7ad2	-0.0347851
248	0xbdfd0e70	-0.12356269
249	0xbc83bf2e	-0.016082373
250	0xbdb2b127	-0.087251954
251	0x3d0d7e0a	0.03454403
252	0xbdfac413	-0.122444294
253	0xbca739e5	-0.020413348
254	0x3d5d8718	0.054083914
255	0x3e547474	0.20747548

fc2.linear.weight f4 [5, 50]
0	0x3abc9dfa	0.0014390342
1	0xbd0148f6	-0.03156372
2	0x3d7ea4f4	0.06216903
3	0x3da5dba8	0.08098537
4	0x3cb5d2f6	0.02219532
5	0x3dce593d	0.100756146
6	0xbd198ebc	-0.037489638
7	0x3d251d61	0.04031122
8	0x3d99adc3	0.075038455
9	0x3c32e319	0.010918402
10	0x3e0fcc80	0.14042854
11	0x3b4349c5	0.0029798609
12	0xbc80a58b	-0.015703937
13	0xbdfdde89	-0.12395961
14	0xbcecfb25	-0.028928349
15	0x3d70323e	0.058641665
16	0xbbcd85cd	-0.006272054
17	0xbd49b403	-0.04924394
18	0x3d39af1f	0.045333024
19	0xbd10a889	-0.035316978
20	0xbd48a8f3	-0.048989248
21	0x3cc657d7	0.024211807
22	0xbdc54245	-0.096317805
23	0x3c8fa237	0.017533405
24	0x3cecb4b3	0.028894758
25	0xbe19de90	-0.15026307
26	0xbdccac5f	-0.09993815
27	0xbe181370	-0.14851165
28	0x3d410a39	0.04712889
29	0xbdc9a3e7	-0.09845715
30	0x3d0ca463	0.03433646
31	0xbc3724cb	-0.011178206
32	0x3cdc126e	0.026864257
33	0xbdb03c13	-0.08605208
34	0x3dd2ff8c	0.10302648
35	0xbdaf8665	-0.085705556
36	0xbcc87197	-0.024468226
37	0x3e2407b7	0.16018568
38	0xbe07b4c5	-0.13252552
39	0xbdb87483	-0.09006598
40	0xbb1f0cd2	-0.0024269116
41	0x3c74e39a	0.014946843
42	0x3e272416	0.1632236
43	0xbd872665	-0.0659912
44	0xbdbae618	-0.09125918
45	0x3d236892	0.039894648
46	0x3b827e20	0.0039823204
47	0xbdc54e31	-0.096340545
48	0x3e024b78	0.12724102
49	0xbc8a4f44	-0.0168835
50	0xbd4581f2	-0.04821963
51	0xbdc25db8	-0.09490532
52	0xbd9f9c9c	-0.07793543
53	0xbe23a20d	-0.15979786
54	0xbe130451	-0.14357115
55	0xbdf70385	-0.12061218
56	0xbd168420	-0.036747098
57	0xbd7c70c6	-0.061630987
58	0xbda1ab9d	-0.07894061
59	0xbd0429bd	-0.032266367
60	0xbd59b82f	-0.053154167
61	0xbda9b018	-0.0828554
62	0x3d87539f	0.06607746
63	0x3dac06b4	0.08399716
64	0xbd0bcdee	-0.034131937
65	0x3d09cbce	0.03364163
66	0xbdb688be	-0.089128
67	0x3d6fdb0e	0.058558516
68	0x3dbd10fb	0.092317544
69	0xbce5382d	-0.027980888
70	0xbe4a01b9	-0.1972722
71	0xbcff6720	-0.031177104
72	0xbc945394	-0.01810626
73	0x3ccd209b	0.025039962
74	0xbc503ec2	-0.012710275
75	0x3d31f163	0.043443095
76	0xbd425aec	-0.04744999
77	0x3d6c2f8c	0.05766253
78	0xbd1a8658	-0.037725776
79	0xbcb23281	-0.021752598
80	0xbd23c02a	-0.039978184
81	0x3d20d3bb	0.039264422
82	0xbd98fe8b	-0.07470425
83	0xbceaa1a6	-0.028641533
84	0x3d865915	0.0655996
85	0x3d81cf92	0.06338419
86	0xbcaf3186	-0.02138592
87	0x3da873b6	0.08225195
88	0x3e302775	0.17202552
89	0x3d615f17	0.055022325
90	0x3d97763b	0.073955975
91	0xbd347fa0	-0.044067025
92	0xbd212e47	-0.039350774
93	0x3e228892	0.1587241
94	0x3d53e0a1	0.051727895
95	0x3cc75364	0.024331756
96	0xbe126469	-0.14296116
97	0xbe1f7816	-0.15573153
98	0xbe33ecc9	-0.17570795
99	0x3d7a0743	0.06104208
100	0xbdbb026f	-0.091313235
101	0xbddd197d	-0.10795877
102	0xbd88c091	-0.06677354
103	0x3d1ee7ae	0.038795166
104	0x3e154c70	0.1457994
105	0x3d7fb076	0.062424146
106	0xbdc05983	-0.09392073
107	0x3d660fbb	0.056167345
108	0x3c48495b	0.012224521
109	0x3d72afc0	0.05924964
110	0x3cb95ade	0.022626337
111	0xbe15bd84	-0.14623076
112	0x3d80e074	0.06292811
113	0x3e186f29	0.14886154
114	0xbd930ba7	-0.07179957
115	0x3d39c484	0.045353428
116	0x3d8f64a0	0.070016146
117	0xbdd6b4e3	-0.1048372
118	0xbd972e42	-0.0738187
119	0xbd30f17e	-0.043199055
120	0x3dbcf00e	0.09225474
121	0xbdb7cfc4	-0.08975175
122	0x3ddb6a19	0.10713596
123	0xbe13052b	-0.1435744
124	0xbd026ad2	-0.031840153
125	0xbdad2a6d	-0.08455358
126	0xbd4aedd7	-0.049543228
127	0xbd404157	-0.046937313
128	0xbd892b5d	-0.06697724
129	0xbdb8cb72	-0.09023179
130	0x3d9b18d7	0.07573097
131	0xbd567e73	-0.052366685
132	0xbda23f6a	-0.079222515
133	0x3d2a4eef	0.041579183
134	0xbcbcf655	-0.023066679
135	0xbe181acc	-0.14853972
136	0x3cd48b3c	0.025945298
137	0x3d8c13d9	0.06839723
138	0x3dbfc857	0.09364384
139	0xbda4af6a	-0.0804127
140	0xbdf56bd8	-0.1198346
141	0x3dd0351d	0.101663806
142	0xbd92ad89	-0.071620055
143	0xbe21bfd7	-0.15795837
144	0x3db0f9bf	0.08641385
145	0xbc695041	-0.014240325
146	0x3b17ed81	0.0023182335
147	0x3dd7d719	0.105390735
148	0xbe196c07	-0.14982615
149	0xbca7ef07	-0.02049972
150	0xbcfa104a	-0.030525345
151	0xbd3a6313	-0.04550464
152	0x3dafd96f	0.08586394
153	0x3ce60d16	0.028082412
154	0x3e2bab6e	0.16764614
155	0xbdcd42ea	-0.100225285
156	0x3cad0412	0.021120105
157	0xbdb3c6d4	-0.08778158
158	0xbd279786	-0.04091599
159	0xbb4f3a72	-0.003162053
160	0x3d7939cc	0.060846135
161	0xbc34d0da	-0.011036122
162	0xbdbc7066	-0.09201126
163	0x3dff011f	0.12451386
164	0x3cb47832	0.02202997
165	0xbe06ea6d	-0.13175364
166	0x3d6bfdfd	0.05761527
167	0xbdfa105f	-0.12210154
168	0xbe14af45	-0.14519985
169	0xbe1abed0	-0.15111852
170	0x3dce771d	0.10081313
171	0x3c602832	0.013681458
172	0xbd08fe06	-0.03344538
173	0xbe0a04db	-0.13478415
174	0x3da0caaf	0.07851159
175	0xbdd2ea5a	-0.10298605
176	0x3dcd47af	0.10023438
177	0x3dc7355b	0.097269736
178	0xbe35ffbb	-0.17773335
179	0xbd0e9245	-0.034807462
180	0xbe1355a7	-0.14388143
181	0x3d0e01fd	0.034669865
182	0xbdd4ad1a	-0.10384579
183	0xbd711548	-0.058858186
184	0xbd2f2317	-0.042758074
185	0x3ddd1574	0.107951075
186	0xbdfa7390	-0.12229073
187	0xb99f57b8	-0.000303922
188	0x3d0f3dab	0.03497092
189	0xbd81a3ff	-0.06330108
190	0x3e093028	0.13397276
191	0x3c0fa49e	0.008767275
192	0xbd729402	-0.059223182
193	0xbe1a5329	-0.15070786
194	0x3dc263e8	0.09491712
195	0x3da767a6	0.08174066
196	0x3d81fce1	0.06347061
197	0xbc843068	-0.016136363
198	0xbdefaac0	-0.1170249
199	0xbda4923c	-0.080357045
200	0x3d5d7a3b	0.054071646
201	0xbd22e8a8	-0.03977266
202	0x3db36a45	0.08760504
203	0x3e057cad	0.13035841
204	0xbdcbfccd	-0.09960327
205	0xbe292533	-0.16518097
206	0xbe2b317c	-0.16718096
207	0xbd070015	-0.032959063
208	0xbd9e2771	-0.077223666
209	0xbdec3da4	-0.115351945
210	0xbda1a821	-0.07893396
211	0x3d949d83	0.072566055
212	0x3d2f1b5a	0.042750694
213	0xbdfc85b2	-0.12330188
214	0x3dad93e4	0.084754735
215	0xbd8130d1	-0.06308139
216	0x3d8e73ec	0.06955704
217	0xbdb398a2	-0.08769347
218	0xbe24eaf2	-0.1610525
219	0xbe2f281c	-0.17105144
220	0x3dbe1d6d	0.09282956
221	0x3db984ad	0.09058509
222	0xbd71ce95	-0.059034903
223	0xbdb5bb76	-0.08873646
224	0xbdc5ecac	-0.09664282
225	0xbd0e2bbf	-0.03470969
226	0xbd19ae9b	-0.037520032
227	0x3d527880	0.05138445
228	0x3d87b3bb	0.06626078
229	0x3dfb42c5	0.12268595
230	0xbdb33549	-0.08750398
231	0xbda59c89	-0.08086497
232	0x3c8487f6	0.016178112
233	0xbd8aff0f	-0.0678693
234	0x3e01714c	0.12640876
235	0x3db8da1b	0.09025975
236	0xbc68bdec	-0.014205437
237	0x3d67237b	0.05643032
238	0xbd942ecf	-0.072354905
239	0xbdc0af58	-0.09408444
240	0xbd994c54	-0.074852616
241	0x3cd3c26d	0.025849545
242	0x3b093511	0.002093617
243	0xbe1e88dd	-0.15481897
244	0xbc3bb96f	-0.011457785
245	0xbdd64e5e	-0.10464166
246	0xbc15ece7	-0.00915072
247	0xbc546439	-0.012963348
248	0x3d506e6e	0.050886564
249	0x3dcccf62	0.10000493
