experiments/classification/toy/gaussian_mixture/pretrained/2025-05-08_11-19-07/CrossEntropy_BatchEnsemble (rank 2).pt (torch, 112528 bytes, 8 tensors)

fc1.r_group f4 [100, 2, 2]
0.6317059 0.435072 0.78830415 0.34069 0.28430238 0.6103349 1.9659714 0.87823254
0.8332829 0.47089386 2.3058007 1.9778371 1.8531082 1.052322 1.4155959 1.2817537
1.5068578 0.81071717 1.5962645 1.5707873 0.36175346 1.7252257 0.9571332 0.8298236
0.26601234 1.1568694 1.2989218 0.7917779 0.39664942 1.2778671 1.2303163 0.5730465
0.99226224 0.5855163 1.1663132 0.9483019 0.916286 0.6740986 -0.091289565 1.5673132
1.4145031 1.1889693 1.4496225 1.6807114 0.48808843 1.0156194 0.9659946 1.3035051
0.16430545 0.9422277 0.99008304 0.4014471 2.3205433 1.4133587 1.3255285 1.8306302
0.38585353 0.793996 0.7300947 0.94436526 0.15338238 1.106592 0.9692327 0.798261
0.9686798 0.658755 0.7748054 1.3827 1.3763142 1.6092405 0.7346351 1.0424229
1.9784575 1.9324938 0.45257512 0.79605156 0.40585324 1.1290181 0.8376942 0.8912791
1.1069403 0.7876244 1.2575376 0.60358226 1.0114493 0.7531387 0.7631127 0.74977905
0.95958745 0.6091981 0.7284353 1.1717129 0.2524551 1.0337422 1.5633985 0.6423109
1.1446323 0.8374803 1.1077358 1.4621403 0.66704255 0.95453596 1.206821 0.89179707
0.804372 0.9622759 1.5007672 1.2621864 0.67395175 1.7868173 0.8244587 0.4995776
1.7280072 1.2006096 0.87621707 0.27508748 0.55222654 0.47774234 1.347086 1.0335382
1.9070158 1.7414908 0.63794374 0.848372 0.6045843 0.78374934 1.8329337 0.8290489
1.1423678 1.1671114 1.392103 1.0037279 1.3709548 1.5034188 1.1699396 0.83114177
0.93764305 0.9693399 0.7170656 1.7670963 1.6781375 1.0519733 1.5715982 0.9578021
1.1734082 1.887509 1.0962892 0.7103619 1.5677624 0.7520625 0.7998915 1.4940201
1.568637 0.66569614 0.19794403 0.60091466 1.5143722 1.8402053 1.0286571 0.826309
0.95699024 0.87435627 1.3074472 1.2138186 0.6717547 1.3432562 1.2856764 1.7184561
0.7638736 1.0339702 0.5605014 1.2053345 1.218705 1.1186448 0.36267376 1.0269177
1.7588676 1.2316688 0.67756206 0.9343193 0.5447255 1.9845605 1.3882847 0.2937971
1.0821605 1.8154978 1.7391268 0.6670612 0.8668776 -0.02001217 0.64141494 1.0503827
1.2012166 0.8007359 1.1208918 1.5073261 0.9810807 1.3361524 0.7212422 1.5223668
1.3830268 0.71983975 0.7801548 0.40452224 0.15433727 1.1126251 0.7968995 1.2543555
1.1736331 1.2424153 0.60360146 0.31355637 1.4422716 1.3256724 1.4595143 0.5571532
1.3659083 1.1541458 0.6148741 0.48432845 0.5467241 1.4340513 1.5480343 0.45590684
0.7102728 1.3077495 1.0441515 1.1865453 0.70319194 1.3260909 0.8928179 1.3945609
0.9310574 0.927154 1.2485693 0.9130719 1.1138846 1.4952836 1.368306 0.9519536
0.65050983 1.3600606 0.5223039 0.9430738 0.78448707 0.86559737 1.854215 1.2670124
1.2463778 0.9976215 1.4181696 1.2646285 1.4549253 1.1165218 0.95526797 0.87914014
00000000: 7ab7 213f c2c1 de3e 4dce 493f eb6e ae3e
00000010: 1590 913e e83e 1c3f f3a4 fb3f d9d3 603f
00000020: 0752 553f 0019 f13e 3d92 1340 c429 fd3f
00000030: a632 ed3f 7db2 863f 3f32 b53f 8110 a43f
00000040: b7e0 c03f 298b 4f3f 6552 cc3f 8f0f c93f
00000050: c037 b93e 32d4 dc3f ae06 753f 526f 543f
00000060: c532 883e 4c14 943f 1243 a63f f5b1 4a3f
00000070: a215 cb3e 2691 a33f 017b 9d3f 2db3 123f
00000080: e604 7e3f 65e4 153f c049 953f eac3 723f
00000090: b891 6a3f ba91 2c3f 06f6 babd b89d c83f
000000a0: 700e b53f 2530 983f 3b8d b93f 8d21 d73f
000000b0: bae6 f93e d1ff 813f 6c4b 773f 41d9 a63f
000000c0: b03f 283e d635 713f 1576 7d3f 798a cd3e
000000d0: c883 1440 f0e8 b43f ebaa a93f 1752 ea3f
000000e0: 988e c53e 5243 4b3f 7ce7 3a3f ecc1 713f
000000f0: 4510 1d3e cfa4 8d3f a21f 783f d55a 4c3f
00000100: 66fb 773f 2ba4 283f a659 463f 50fc b03f
00000110: 102b b03f 98fb cd3f 0c11 3c3f 1d6e 853f
00000120: 183e fd3f f55b f73f edb7 e73e 09ca 4b3f
00000130: ffcb cf3e aa83 903f 2173 563f de2a 643f
00000140: 38b0 8d3f c1a1 493f fef6 a03f 5e84 1a3f
00000150: 2c77 813f b3cd 403f 5b5b 433f 85f1 3f3f
00000160: 86a7 753f 68f4 1b3f bc7a 3a3f b0fa 953f
00000170: cb41 813e aa51 843f 711d c83f 7d6e 243f
00000180: 5083 923f 1c65 563f 49ca 8d3f 6a27 bb3f
00000190: 4dc3 2a3f 785c 743f 1c79 9a3f d04c 643f
000001a0: 53eb 4d3f b757 763f 2419 c03f 538f a13f
000001b0: 1a88 2c3f 6eb6 e43f ba0f 533f a3c8 ff3e
000001c0: 572f dd3f 93ad 993f c34f 603f 44d8 8c3e
000001d0: b85e 0d3f a59a f43e 506d ac3f fb4a 843f
000001e0: 1819 f43f 2ce9 de3f 4850 233f e82e 593f
000001f0: 09c6 1a3f cca3 483f 929d ea3f 8c3c 543f
00000200: 1c39 923f e863 953f 6e30 b23f 287a 803f
00000210: 727b af3f 0770 c03f 95c0 953f b5c5 543f
00000220: 6009 703f a926 783f 9c91 373f 3630 e23f
00000230: 36cd d63f 10a7 863f 212a c93f 8532 753f
00000240: 3d32 963f e599 f13f 3453 8c3f 47da 353f
00000250: 70ac c83f 2b87 403f b0c5 4c3f 0d3c bf3f
00000260: 19c9 c83f 106b 2a3f d7b1 4a3e 8bd5 193f
00000270: f3d6 c13f d98b eb3f 09ab 833f fd88 533f
00000280: 50fd 743f d0d5 5f3f 6e5a a73f 685e 9b3f
00000290: 1ef8 2b3f d2ef ab3f 0b91 a43f 5ff6 db3f
000002a0: 388d 433f 2359 843f 057d 0f3f 6748 9a3f
000002b0: 87fe 9b3f c12f 8f3f 60b0 b93e 0a72 833f
000002c0: 9322 e13f 53a7 9d3f b574 2d3f 8d2f 6f3f
000002d0: 2173 0b3f 1406 fe3f 50b3 b13f 936c 963e
000002e0: 3c84 8a3f 3b62 e83f b59b de3f 86c4 2a3f
000002f0: b1eb 5d3f 90f0 a3bc c533 243f f172 863f
00000300: 77c1 993f 07fd 4c3f 6279 8f3f 10f0 c03f
00000310: 1b28 7b3f 0b07 ab3f 54a3 383f eadc c23f
00000320: 0607 b13f 6b47 383f 3ab8 473f 8a1d cf3e
00000330: 970a 1e3e 806a 8e3f 9b01 4c3f b98e a03f
00000340: 9c39 963f 7707 9f3f a085 1a3f 768a a03e
00000350: 5b9c b83f a2af a93f 5dd1 ba3f 98a1 0e3f
00000360: 15d6 ae3f 0dbb 933f 6468 1d3f e6f9 f73e
00000370: 1cf6 0b3f fe8e b73f fd25 c63f 9f6c e93e
00000380: 70d4 353f 5664 a73f c2a6 853f b7e0 973f
00000390: 6304 343f 59bd a93f b78f 643f f980 b23f
000003a0: c759 6e3f f759 6d3f 1ed1 9f3f 14bf 693f
000003b0: c593 8e3f 7465 bf3f a724 af3f 3bb3 733f
000003c0: d087 263f 7716 ae3f b5b5 053f 496d 713f
000003d0: 25d4 483f ca97 5d3f eb56 ed3f 762d a23f
000003e0: 4f89 9f3f 1f64 7f3f 9586 b53f 59df a13f
000003f0: fe3a ba3f 30ea 8e3f 718c 743f 540f 613f

fc1.s_group f4 [100, 2, 50]
1.7392942 0.62688917 0.52918017 0.9745368 1.3876729 1.0859939 1.9449638 1.1715972
0.15232441 1.3515246 0.93085045 1.1556139 0.9478387 1.125633 0.47419524 0.9507239
0.22640505 1.3944399 0.8412285 1.212574 1.1202321 1.4741235 1.3346798 0.053738173
1.3991836 1.5503488 1.3256816 0.8848096 2.2334366 1.028379 1.8092663 0.46753335
0.65155315 0.74666023 1.4701829 1.1066345 1.4801142 1.4275403 0.71939856 1.8584716
1.7668376 1.0946352 0.8209903 1.7565783 1.727918 0.9949336 0.9781095 0.16982548
1.4185497 0.7889429 0.071219675 1.329547 0.84910184 0.088399224 2.0160248 0.5626794
0.4433469 1.3056699 0.085246906 0.19573697 0.5761229 0.01574448 0.62843096 1.069735
0.7859297 1.8774868 0.84990954 1.3470926 1.4572549 1.688581 0.8917321 1.0720935
0.5406724 1.7985854 0.3985785 0.39106813 0.6418954 1.0044923 1.7176408 0.62721574
1.3928841 0.8300279 0.9813353 1.4833541 -0.058599267 0.790313 1.0224497 0.59883356
0.8810168 0.5127606 0.6289047 1.4681978 0.5789227 1.2527714 0.3540934 2.4009645
1.7059623 1.3610165 1.5332632 0.3291213 1.4578167 1.0864546 0.720954 0.28457382
0.70982075 0.54529303 0.61183125 1.3527335 0.2411382 0.78761667 0.17611405 0.5520941
1.1791424 1.5671403 -0.034109183 0.698851 0.7262362 0.8050378 1.4998589 1.1293284
0.65127605 1.4847416 0.7031698 0.75665396 1.9837492 0.70147586 1.0843732 0.70845854
1.3579816 1.7758307 1.0138569 0.7831227 0.61369526 0.7153388 0.79507047 0.34763128
0.56961477 1.1133828 1.2060031 1.3850596 1.5162379 0.84566754 1.0081618 1.441166
0.82726294 0.92598414 0.4404476 -0.018580616 1.3914349 1.1802474 1.2497221 0.81531405
0.6618967 0.6843599 0.76506597 0.69040656 1.7561957 0.7616521 1.2548444 1.6545397
1.0439097 1.0491773 1.6665987 1.4077551 0.8526101 0.26249003 1.1696941 1.1059747
0.5867764 0.89744276 0.8628815 0.6525977 0.871875 2.5441225 1.6281073 1.3753116
1.1592525 0.8411283 0.94583875 0.7142232 2.4416354 1.5565908 0.8118522 1.0017729
0.13629116 1.9123697 0.7337612 1.6613569 0.8931693 1.4605441 2.1009643 1.039323
0.71196836 1.4563006 0.93375236 1.1908476 1.3949593 0.7213182 1.8066001 1.674271
0.8398351 1.7169353 0.8804334 1.7196457 0.060815684 1.3330686 0.6713323 0.20304404
1.4884614 1.1883565 0.6280242 1.9297218 1.3205281 0.9227547 2.2016444 1.0141045
1.1498454 1.0705001 1.367041 1.4395641 0.9439753 1.1778516 1.2620144 1.2536376
0.36760497 1.362229 0.35850734 1.2491401 1.3246131 1.3189349 1.7129922 1.0362271
0.66990256 1.0622355 1.1274276 1.6406288 1.5123547 0.3879194 1.4046441 0.8410131
1.6388156 0.6567518 1.0625085 0.5522416 0.9463743 1.127233 0.3841508 0.9149037
1.405014 1.0704356 1.1852463 0.47978833 0.4089718 0.43822953 1.5340906 1.1525699
00000000: 31a1 de3f cf7b 203f 5a78 073f 3e7b 793f
00000010: 449f b13f d901 8b3f 93f4 f83f e6f6 953f
00000020: eefa 1b3e c2fe ac3f 374c 6e3f 28eb 933f
00000030: 8fa5 723f be14 903f b8c9 f23e a462 733f
00000040: bad6 673e 027d b23f c05a 573f a035 9b3f
00000050: c463 8f3f 14b0 bc3f cad6 aa3f 8f1c 5c3d
00000060: 7318 b33f d471 c63f efaf a93f e282 623f
00000070: a0f0 0e40 eca1 833f 0a96 e73f 8860 ef3e
00000080: 30cc 263f 2025 3f3f f42e bc3f 33a6 8d3f
00000090: 6274 bd3f a4b9 b63f 812a 383f 66e2 ed3f
000000a0: bc27 e23f 021d 8c3f 6c2c 523f 8fd7 e03f
000000b0: 6b2c dd3f f8b3 7e3f 6265 7a3f bbe6 2d3e
000000c0: 0993 b53f 29f8 493f 9fdb 913d 992e aa3f
000000d0: bd5e 593f a70a b53d 8d06 0140 c20b 103f
000000e0: 5dfe e23e 3120 a73f ee95 ae3d 466f 483e
000000f0: ca7c 133f 91fa 803c dae0 203f 14ed 883f
00000100: b032 493f 7d51 f03f ac93 593f 886d ac3f
00000110: 5487 ba3f 6c23 d83f 8e48 643f 5c3a 893f
00000120: 8269 0a3f 0c38 e63f 7b12 cc3e 153a c83e
00000130: 4253 243f 3493 803f a7db db3f 3691 203f
00000140: 074a b23f b57c 543f ca38 7b3f 8cde bd3f
00000150: c905 70bd f451 4a3f a2df 823f 284d 193f
00000160: 518a 613f 4744 033f e6ff 203f e8ed bb3f
00000170: 4734 143f d05a a03f bb4b b53e 67a9 1940
00000180: f95c da3f ca35 ae3f f841 c43f 9682 a83e
00000190: bd99 ba3f f210 8b3f 7190 383f a9b3 913e
000001a0: d0b6 353f 5398 0b3f f9a0 1c3f 5f26 ad3f
000001b0: efec 763e 3fa1 493f 3e57 343e 0a56 0d3f
000001c0: 23ee 963f 0e98 c83f 12b6 0bbd e6e7 323f
000001d0: 9eea 393f f516 4e3f 60fb bf3f d58d 903f
000001e0: 07ba 263f 030c be3f f002 343f 13b4 413f
000001f0: 7eeb fd3f ec93 333f becc 8a3f 8a5d 353f
00000200: 57d2 ad3f 6c4e e33f 10c6 813f bb7a 483f
00000210: 221b 1d3f 7220 373f bd89 4b3f bafc b13e
00000220: 46d2 113f 5483 8e3f 4f5e 9a3f a249 b13f
00000230: 1514 c23f ab7d 583f 720b 813f 2178 b83f
00000240: 81c7 533f 4c0d 6d3f 5982 e13e 6036 98bc
00000250: 8a1a b23f 5912 973f e5f6 9f3f 6cb8 503f
00000260: 1072 293f 3632 2f3f 5ddb 433f 7cbe 303f
00000270: 05cb e03f a2fb 423f be9e a03f f5c7 d33f
00000280: d59e 853f 714b 863f 1b53 d53f 5231 b43f
00000290: a844 5a3f 1865 863e 89b8 953f 9490 8d3f
000002a0: fa36 163f cfbe 653f cde5 5c3f a510 273f
000002b0: 3333 5f3f e7d2 2240 d265 d03f 360a b03f
000002c0: 6362 943f 2f54 573f 7d22 723f 55d7 363f
000002d0: c143 1c40 5e3e c73f 8cd5 4f3f 183a 803f
000002e0: e98f 0b3e 88c8 f43f c6d7 3b3f 58a7 d43f
000002f0: bea6 643f 1cf3 ba3f 3376 0640 8908 853f
00000300: 8f43 363f 0f68 ba3f 650a 6f3f b26d 983f
00000310: 078e b23f 4fa8 383f ac3e e73f 834e d63f
00000320: 6fff 563f 89c4 db3f 1564 613f 5a1d dc3f
00000330: de19 793d fea1 aa3f 6fdc 2b3f c7ea 4f3e
00000340: e785 be3f 111c 983f 32c6 203f 2001 f73f
00000350: 1107 a93f a739 6c3f bee7 0c40 2dce 813f
00000360: 222e 933f 2606 893f 33fb ae3f a343 b83f
00000370: 5ea8 713f d7c3 963f b089 a13f 3277 a03f
00000380: b836 bc3e 855d ae3f 468e b73e d3e3 9f3f
00000390: ec8c a93f dcd2 a83f 5443 db3f 17a3 843f
000003a0: bc7e 2b3f 55f7 873f 8c4f 903f 2000 d23f
000003b0: d794 c13f 5f9d c63e 61cb b33f a24c 573f
000003c0: b6c4 d13f e320 283f 4700 883f b55f 0d3f
000003d0: 9645 723f 2c49 903f 6aaf c43e 2137 6a3f
000003e0: 80d7 b33f 0904 893f 27b6 973f d1a6 f53e
000003f0: c064 d13e 9f5f e03e 155d c43f 6987 933f

fc1.bias f4 [100, 50]
-0.705343 -0.017786406 0.25053185 0.14248598 -0.18508998 -0.35479024 0.17635258 0.33962303
0.3208478 -0.2199977 -0.61590743 -0.6063492 0.87270594 0.52420723 0.5230673 0.3591036
0.6671818 0.65015477 -0.4424748 0.6328726 0.69585854 0.056893956 0.37298885 -0.40506825
-0.06303542 0.016035244 -0.07966159 -0.42973372 0.50243235 -0.25313255 -0.34231243 -0.2425887
-0.3876061 -0.49305838 0.48774442 0.6887409 0.6132553 -0.39547333 -0.38733944 0.27370003
-0.46759635 -0.036454268 0.5144904 -0.14673302 -0.11501655 0.70538706 -0.2514261 -0.030462246
-0.2172233 0.7148877 -0.7526509 0.18502977 0.401945 0.6545553 0.49838266 0.25004956
-0.52108604 0.3369981 -0.18017145 0.6207391 -0.17138016 0.41714633 -0.63102967 -0.4485003
-0.62233824 0.09721391 0.42147037 0.3054909 0.060870383 0.011421718 -0.47446218 0.3288303
-0.46302173 -0.678984 0.10341025 -0.013637578 -0.16868147 0.67328453 0.1979233 0.049440283
-0.0711752 -0.3047534 -0.386313 0.5322192 -0.10334087 -0.6595446 0.36424756 -0.67671114
-0.23421554 0.080599904 -0.58281696 -0.29584467 -0.2651225 -0.54804564 0.41462243 -0.49381146
0.14870138 0.17103124 0.23730014 -0.28209162 -0.24828532 0.29322463 -0.3954903 0.15899795
0.34627405 0.053840477 0.48416904 0.52466464 0.43237373 -0.29156452 -0.73432183 0.70477015
-0.6137324 -0.06668714 0.15444478 -0.48001248 0.33356386 0.07962152 -0.2805895 0.42653754
0.008506797 -0.6613301 0.7109769 0.49918807 0.395982 -0.48500273 -0.6594538 0.48707062
-0.040305376 -0.6297129 0.66219616 0.38021678 0.056164656 -0.72068053 0.15380895 -0.053672656
0.6135858 0.54778004 -0.635085 0.47581506 -0.15964398 0.5768574 -0.5793649 0.5162475
-0.21245232 0.5232376 0.21536788 0.39021772 -0.48515415 0.4644056 0.39112318 -0.4922689
0.3788907 -0.5990069 -0.64104086 0.16688827 -0.38499564 0.012885873 0.024267662 -0.168452
0.3917104 -0.3883783 0.33506265 -0.5690418 0.5930688 0.62591773 -0.34127635 -0.32446578
0.057709683 0.32527998 0.5579641 0.06726134 0.045856044 -0.2361267 -0.4112386 -0.5595418
-0.54171884 0.2635994 -0.5538699 0.39283335 0.3063052 0.23955573 0.64540416 0.044466197
0.56024575 -0.5769229 0.23003745 -0.2238498 0.49488154 0.15632086 0.18415837 0.21165837
0.3956422 -0.29330337 -0.6166165 -0.5784021 0.09283139 -0.48023525 -0.007993559 0.28384823
-0.46132624 0.12979695 -0.4164354 -0.012333209 -0.44200346 -0.28127837 -0.6346895 0.47792274
-0.3327991 0.3408955 -0.19743012 -0.5468219 0.63126373 -0.071338624 -0.61191404 0.036097802
-0.22387624 0.528 -0.20852049 0.41299874 -0.5787115 -0.4707861 0.047529534 -0.5679742
0.712841 0.2876879 -0.4571434 0.5993165 -0.5794394 0.2592963 -0.06333431 -0.057109926
-0.6328207 0.3004786 -0.4554805 -0.27935472 -0.16819546 -0.205176 -0.42684662 0.21937199
0.65108424 -0.6105805 -0.02864873 -0.39638817 -0.4269129 -0.6242629 -0.21306598 0.16343199
-0.28748643 0.43129072 -0.30868897 0.39945847 0.23700953 0.088060744 -0.41249806 0.4037986
00000000: 5c91 34bf ccb4 91bc b645 803e d8e7 113e
00000010: 3a88 3dbe 11a7 b5be c595 343e 12e3 ad3e
00000020: 2a46 a43e 1447 61be 1cac 1dbf b339 1bbf
00000030: a869 5f3f 7232 063f bde7 053f 6ddc b73e
00000040: 6dcc 2a3f 8b70 263f 0f8c e2be f003 223f
00000050: c923 323f a309 693d 65f8 be3e 1b65 cfbe
00000060: b718 81bd 585c 833c 9e25 a3bd 0f06 dcbe
00000070: 689f 003f 979a 81be 9343 afbe 2c69 78be
00000080: 4f74 c6be 2672 fcbe a3b9 f93e 5351 303f
00000090: 4dfe 1c3f 7b7b cabe 5b51 c6be 6922 8c3e
000000a0: ca68 efbe 1251 15bd a5b5 033f 2e41 16be
000000b0: cc8d ebbd 3f94 343f ecba 80be f68b f9bc
000000c0: c96f 5ebe e102 373f bbad 40bf 7278 3d3e
000000d0: bccb cd3e f090 273f 032c ff3e 7f06 803e
000000e0: e565 05bf 048b ac3e dd7e 38be c2e8 1e3f
000000f0: 487e 2fbe 3494 d53e 298b 21bf d5a1 e5be
00000100: 8f51 1fbf 1618 c73d f7ca d73e 4e69 9c3e
00000110: 3953 793d 2822 3b3c b5ec f2be 725c a83e
00000120: 2f11 edbe e5d1 2dbf c1c8 d33d 2670 5fbc
00000130: d6ba 2cbe 605c 2c3f 68ac 4a3e e581 4a3d
00000140: 4ec4 91bd a308 9cbe d1ca c5be 843f 083f
00000150: 61a4 d3bd ead7 28bf a87e ba3e f13c 2dbf
00000160: 33d6 6fbe 9011 a53d 7e33 15bf f478 97be
00000170: 23be 87be b84c 0cbf 6449 d43e dbd4 fcbe
00000180: 2d45 183e d022 2f3e cffe 723e 506e 90be
00000190: 823e 7ebe 8a21 963e b47d cabe 5cd0 223e
000001a0: d54a b13e d587 5c3d 01e5 f73e 6c50 063f
000001b0: 1760 dd3e f247 95be 84fc 3bbf d16b 343f
000001c0: 911d 1dbf 4493 88bd c626 1e3e 32c4 f5be
000001d0: e2c8 aa3e 9c10 a33d 6da9 8fbe 2163 da3e
000001e0: 1860 0b3c ee4c 29bf 9502 363f 9495 ff3e
000001f0: 27be ca3e 4752 f8be f7d1 28bf 5261 f93e
00000200: 4017 25bd dd34 21bf b085 293f c6ab c23e
00000210: e90c 663d 857e 38bf 1880 1d3e dcd7 5bbd
00000220: f613 1d3f 503b 0c3f ee94 22bf 089e f33e
00000230: b679 23be edac 133f 4251 14bf cc28 043f
00000240: 1a8d 59be e6f2 053f 6689 5c3e 9eca c73e
00000250: 2066 f8be 92c6 ed3e 4c41 c83e ab0a fcbe
00000260: f6fd c13e 8458 19bf 411b 24bf c2e4 2a3e
00000270: 261e c5be 451f 533c facc c63c ae7e 2cbe
00000280: 448e c83e 85d9 c6be 558d ab3e b9ac 11bf
00000290: 5bd3 173f 253c 203f c6bb aebe 6120 a6be
000002a0: fd60 6c3d 198b a63e bcd6 0e3f 50c0 893d
000002b0: 8cd3 3b3d 33cb 71be de8d d2be 223e 0fbf
000002c0: 16ae 0abf 80f6 863e 6bca 0dbf 7421 c93e
000002d0: 09d4 9c3e 194e 753e 3539 253f 3022 363d
000002e0: 446c 0f3f 38b1 13bf f08e 6b3e e238 65be
000002f0: 1d61 fd3e 9312 203e 0394 3c3e f9bc 583e
00000300: 9d91 ca3e dc2b 96be 94da 1dbf 2912 14bf
00000310: 621e be3d 65e1 f5be 6bf7 02bc 8e54 913e
00000320: f432 ecbe 7ee9 043e 0537 d5be 3a11 4abc
00000330: 474e e2be b803 90be 037b 22bf 4ab2 f43e
00000340: a564 aabe db89 ae3e 1f2b 4abe 85fc 0bbf
00000350: 809a 213f fc19 92bd 66a6 1cbf 4adb 133d
00000360: d03f 65be 022b 073f 6586 55be 9274 d33e
00000370: 7026 14bf e00a f1be 54ae 423d c266 11bf
00000380: bf7c 363f d44b 933e b30e eabe ce6c 193f
00000390: 2456 14bf 7cc2 843e 6bb5 81bd 19ec 69bd
000003a0: 8a00 22bf 55d8 993e bd34 e9be 9507 8fbe
000003b0: 6e3b 2cbe a819 52be a48b dabe 0da3 603e
000003c0: 75ad 263f 014f 1cbf beb0 eabc 64f3 cabe
000003d0: 5494 dabe b2cf 1fbf f82d 5abe b75a 273e
000003e0: 6c31 93be 23d2 dc3e 7b0c 9ebe d285 cc3e
000003f0: a0b2 723e 3159 b43d f232 d3be b1be ce3e

fc1.linear.weight f4 [50, 2]
-0.07952961 -0.2812502 -0.012731006 -0.27189967 0.02916807 -0.020324426 0.23121744 -0.3710471
-0.019470567 -0.2954288 -0.1272695 -0.70144683 -0.4411184 -0.14700092 0.6157229 0.20177399
-0.5994885 -0.23257877 0.70127434 -0.23582853 -0.6275913 0.6088851 0.38535443 0.07336816
0.16925724 0.35693908 0.24361788 0.48082933 -0.31331 0.6321578 -0.13846317 -0.2638412
-0.3401597 -0.53553694 -0.20396774 0.5830529 -0.14928526 0.31713635 -0.06483165 -0.40535045
-0.59502083 -0.3467953 -0.07659394 -0.17073505 -0.30695757 0.046988036 -0.6220252 -0.03125186
-0.5360328 0.15396208 -0.19520688 -0.10981014 -0.5903404 -0.17153797 -0.6232248 0.5295848
-0.34814048 0.2151638 -0.32548508 -0.16136198 -0.25192085 0.7153352 -0.36656958 0.026193984
-0.33555904 0.5196538 0.06892149 0.18782808 -0.41072276 0.10997457 0.28014705 -0.3723476
0.014794709 -0.25622186 -0.0070237005 0.56439346 0.41200307 -0.32118475 -0.14893503 -0.02463377
-0.61118543 0.5560051 0.27117768 -0.6534099 0.26087734 -0.3593169 0.3643059 0.18274532
-0.17900974 -0.5887977 0.5431287 -0.17152965 -0.47083116 -0.5332754 0.08337809 -0.18930732
0.28832778 0.6908438 -0.66884774 0.0061203623
00000000: 6ce0 a2bd 0700 90be b695 50bc 6f36 8bbe
00000010: e0f1 ee3c 697f a6bc 44c4 6c3e e3f9 bdbe
00000020: bd80 9fbc 7242 97be f052 02be 0592 33bf
00000030: 45da e1be 6987 16be 04a0 1d3f d79d 4e3e
00000040: 1478 19bf 2129 6ebe b786 333f 097d 71be
00000050: d3a9 20bf e5df 1b3f 2d4d c53e 0c42 963d
00000060: c551 2d3e b8c0 b63e f776 793e 432f f63e
00000070: 2b6a a0be 18d5 213f 4ac9 0dbe 3216 87be
00000080: 6a29 aebe f318 09bf ebdc 50be f442 153f
00000090: 3cde 18be b25f a23e 75c6 84bd 188a cfbe
000000a0: 4953 18bf 278f b1be 49dd 9cbd 2bd5 2ebe
000000b0: 8b29 9dbe 8776 403d 0b3d 1fbf f301 00bd
000000c0: 7239 09bf 3ca8 1d3e 50e4 47be 24e4 e0bd
000000d0: 8c20 17bf a6a7 2fbe a98b 1fbf df92 073f
000000e0: 783f b2be e653 5c3e fba5 a6be 133c 25be
000000f0: c5fb 80be 3520 373f 02af bbbe c494 d63c
00000100: 65ce abbe 0808 053f b626 8d3d 0156 403e
00000110: 414a d2be 593a e13d 6f6f 8f3e 58a4 bebe
00000120: 8265 723c 832f 83be 1227 e6bb 177c 103f
00000130: 11f2 d23e 5472 a4be 6d82 18be c3cc c9bc
00000140: a676 1cbf 5a56 0e3f cdd7 8a3e df45 27bf
00000150: b791 853e 62f8 b7be 4e86 ba3e 9721 3b3e
00000160: 544e 37be 72bb 16bf 7c0a 0b3f 78a5 2fbe
00000170: c810 f1be bd84 08bf 22c2 aa3d c7d9 41be
00000180: b39f 933e 24db 303f 9b39 2bbf 528d c83b

fc2.r_group f4 [100, 2, 50]
1.1025949 0.50631195 1.0757016 0.8492708 1.0098569 0.35056865 1.234844 -0.11153073
1.3691013 0.42506823 0.9283575 1.2227892 1.4246211 0.61896974 1.0970998 0.46099672
1.1851925 0.2996499 0.9665148 0.48648557 0.37036833 1.815766 1.104288 1.0887033
0.9071139 0.42970204 0.87089866 1.4493608 0.98072124 1.1785952 0.44030985 0.60773
0.9236311 0.430641 0.30340618 0.3858458 1.7917879 0.3158153 1.384106 0.47124544
1.6769606 1.0666791 0.8417116 1.0136925 0.4760512 0.7054993 0.43424577 1.1884621
0.6823108 0.44931096 -5.626748e-05 2.0549715 1.353356 1.2930441 0.33020735 2.353323
1.8278669 0.9840546 1.4625154 1.175368 0.551371 0.76147366 1.761923 1.7184366
1.5315307 0.995465 1.0011734 0.48118114 1.7710124 1.7620344 1.2659897 2.5296912
-0.04813741 0.83331573 0.29669723 0.8856314 2.298925 1.0815178 1.5492045 1.5308065
0.92379254 0.7462232 0.69029146 0.83019686 1.7671643 1.7315319 0.43558574 0.7355685
1.303778 1.4064828 0.9202691 0.24126437 0.8964952 2.1471872 1.4753928 2.1732545
0.96450925 1.9541892 0.13230763 1.3937752 0.39465165 0.79830676 1.5583678 -0.034951635
1.3243566 1.5420126 1.2485751 1.2870629 0.6541304 0.91207397 0.67894644 0.85095733
0.33115333 1.160091 1.248006 1.1569128 0.66438377 0.18725148 0.8087922 1.8228105
1.7181375 0.79173267 1.0214571 1.5329555 0.539041 0.7059994 0.8227126 1.6886361
-0.03654161 1.9444301 1.2043455 0.92207515 1.1364938 1.0205501 1.2602302 1.2798187
1.366206 -0.05203011 -0.5877768 1.200118 1.3288183 0.57892567 0.6971955 1.047803
0.79052025 2.0332878 0.63269424 0.72779244 1.7112997 1.1844283 0.99511987 1.5069025
1.0497768 0.63366675 1.1467184 1.4330275 0.6267945 0.4878504 0.5612901 1.0111365
0.14338861 1.2213421 0.29655796 1.1149385 1.0135808 0.77081347 0.675219 0.15616806
0.7157769 1.6874087 0.17027034 1.0919303 1.4647788 0.42075714 0.31051177 1.4468673
1.221726 1.2492071 0.23582818 -0.020017222 1.2762123 1.4316301 1.2993677 0.8068876
1.3900805 1.4932547 0.34996203 1.414835 0.8296166 1.0906584 0.6110576 0.25215307
0.791261 1.0771918 0.43811613 0.8828233 1.4581921 0.641199 0.77301955 0.5241176
1.7623668 1.3059198 0.85540307 -0.14597635 0.5319449 1.4252946 1.4244342 0.9249547
0.83404803 1.2039162 1.3475394 1.7328537 0.96106887 1.608183 0.9675464 0.963318
0.27771568 0.692688 1.3621893 1.0103816 1.246766 0.61658484 0.07869796 0.33533013
1.8787531 1.0982366 0.8742874 0.659361 1.1598238 0.6477888 -0.26259273 1.0022736
0.006717582 1.1820537 0.49094388 1.128987 0.28406247 1.2002347 1.9377817 1.0401957
1.4900565 1.3779608 1.2044666 0.9920113 1.2219224 0.9174819 1.1986314 0.59216666
1.5737171 0.7747014 0.32595664 0.9536839 1.057629 0.7905037 0.09991989 1.5697982
00000000: d421 8d3f a99d 013f 97b0 893f d069 593f
00000010: fe42 813f bc7d b33e 5e0f 9e3f 396a e4bd
00000020: b63e af3f 8ba2 d93e d6a8 6d3f 5b84 9c3f
00000030: fc59 b63f cd74 1e3f c46d 8c3f c307 ec3e
00000040: 63b4 973f b66b 993e 846d 773f a314 f93e
00000050: eba0 bd3e 056b e83f 4f59 8d3f a15a 8b3f
00000060: 9e38 683f e801 dc3e 37f3 5e3f a884 b93f
00000070: 8c10 7b3f 35dc 963f 4b70 e13e 3194 1b3f
00000080: 1673 6c3f fa7c dc3e 0e58 9b3e 958d c53e
00000090: 4e59 e53f 8bb2 a13e 632a b13f 1547 f13e
000000a0: a5a6 d63f f188 883f 697a 573f adc0 813f
000000b0: fcbc f33e 9a9b 343f 7655 de3e 871f 983f
000000c0: ecab 2e3f 160c e63e bf00 6cb8 a784 0340
000000d0: c53a ad3f 7882 a53f f010 a93e d89c 1640
000000e0: 8bf7 e93f 01eb 7b3f b433 bb3f 7572 963f
000000f0: a626 0d3f f0ef 423f b186 e13f bbf5 db3f
00000100: 3309 c43f cbd6 7e3f 7326 803f 605d f63e
00000110: 89b0 e23f 588a e13f f30b a23f 76e6 2140
00000120: bc2b 45bd 2e54 553f b3e8 973e bdb8 623f
00000130: 9621 1340 2d6f 8a3f 554c c63f 78f1 c33f
00000140: ab7d 6c3f 7c08 3f3f f1b6 303f c887 543f
00000150: 7132 e23f d6a2 dd3f 1805 df3e 384e 3c3f
00000160: 33e2 a63f a107 b43f c196 6b3f 020e 773e
00000170: b680 653f 846b 0940 acd9 bc3f 9a16 0b40
00000180: 14ea 763f df22 fa3f a77b 073e 3a67 b23f
00000190: c80f ca3e d55d 4c3f 9978 c73f 7229 0fbd
000001a0: 8484 a93f ab60 c53f 4fd1 9f3f 7abe a43f
000001b0: 1775 273f ae7d 693f 6fcf 2d3f 57d8 593f
000001c0: ee8c a93e dd7d 943f a9be 9f3f b815 943f
000001d0: 0e15 2a3f dabe 3f3e 010d 4f3f db51 e93f
000001e0: eeeb db3f feae 4a3f 1bbf 823f e337 c43f
000001f0: 97fe 093f 60bc 343f 4b9d 523f 3a25 d83f
00000200: a8ac 15bd 16e3 f83f fe27 9a3f 1e0d 6c3f
00000210: a178 913f 63a1 823f 394f a13f 19d1 a33f
00000220: d7df ae3f 861d 55bd 8a78 16bf 779d 993f
00000230: b816 aa3f 7934 143f 677b 323f 691e 863f
00000240: 895f 4a3f 6321 0240 40f8 213f 9b50 3a3f
00000250: de0b db3f 599b 973f 2dc0 7e3f 2ee2 c03f
00000260: 165f 863f fc37 223f abc7 923f 726d b73f
00000270: 9b75 203f 87c7 f93e b5b0 0f3f ec6c 813f
00000280: 77d4 123e f054 9c3f 72d6 973e 4eb6 8e3f
00000290: 04bd 813f 0854 453f 27db 2c3f 85ea 1f3e
000002a0: 283d 373f 02fd d73f 595b 2e3e 5fc4 8b3f
000002b0: df7d bb3f 7b6d d73e 66fb 9e3e f332 b93f
000002c0: 8461 9c3f 05e6 9f3f f17c 713e 28fb a3bc
000002d0: ed5a a33f a83f b73f ae51 a63f 3090 4e3f
000002e0: 28ee b13f f822 bf3f 392e b33e 5019 b53f
000002f0: c161 543f b29a 8b3f 456e 1c3f 351a 813e
00000300: 1590 4a3f 6ce1 893f c250 e03e b500 623f
00000310: 0aa6 ba3f 9e25 243f 9ce4 453f 922c 063f
00000320: 3c95 e13f 6128 a73f b2fb 5a3f d37a 15be
00000330: 8a2d 083f 0e70 b63f dc53 b63f d5c9 6c3f
00000340: 2c84 553f ed19 9a3f 2c7c ac3f 26ce dd3f
00000350: 9c08 763f f1d8 cd3f 1fb1 773f 029c 763f
00000360: c030 8e3e 0054 313f 385c ae3f 2f54 813f
00000370: 0796 9f3f 81d8 1d3f 652c a13d 64b0 ab3e
00000380: fb7a f03f 0493 8c3f 4dd1 5f3f e2cb 283f
00000390: 1b75 943f 7dd5 253f 8e72 86be 804a 803f
000003a0: 291f dc3b 894d 973f ff5c fb3e a582 903f
000003b0: a370 913e 4aa1 993f 3b09 f83f 2225 853f
000003c0: 2cba be3f 0561 b03f f62b 9a3f 74f4 7d3f
000003d0: f467 9c3f 18e0 6a3f c16c 993f 3c98 173f
000003e0: 906f c93f d552 463f cae3 a63e a124 743f
000003f0: 6360 873f 735e 4a3f cda2 cc3d 26ef c83f

fc2.s_group f4 [100, 2, 5]
1.8354199 1.1898307 2.021724 1.0302213 0.5907608 0.73147637 1.0792013 1.8041271
0.14134294 0.5498895 0.57343173 0.88872814 0.96006286 1.6379905 0.67094266 0.569552
1.4086034 0.6093157 0.6046959 1.0777476 1.0835847 1.406735 1.1734583 1.8964642
1.4533185 0.5678972 1.0646718 1.5272063 0.46605942 -0.32709885 0.97593224 1.1102986
0.35951042 0.82144135 0.16619116 1.723814 0.011702928 0.61451256 1.2784846 1.6384845
1.3625143 1.5110438 1.5614014 1.0694993 0.7383942 0.8801136 1.1189151 0.43101186
1.0949641 1.4693165 0.18334569 1.541371 1.4448119 1.5659374 1.0268548 1.3894624
0.75895125 0.7070752 1.7238268 1.892294 0.80634904 1.6082776 1.2790272 1.6180044
1.4721361 1.8241626 1.1603955 0.76942116 0.9631222 1.3199035 0.9446438 1.5867568
0.96399355 1.8331212 1.1903437 0.8579553 0.11312143 0.9099346 0.71789724 1.2032708
0.56580144 1.3104091 0.6252868 1.2939968 1.1991596 1.7913201 2.0516505 0.8081056
1.014869 1.1677908 1.9766508 1.9967202 1.1667565 0.49791142 0.7793711 1.2139724
0.55385846 0.5460167 0.9952995 2.024173 0.9183718 0.8706942 1.2823064 0.7088715
2.1648242 0.48247975 0.96851695 1.3199482 0.98165274 0.038341496 0.4859395 0.5085148
1.0257944 1.4839563 0.91775316 0.15060166 1.687339 -0.00029795239 0.8928137 0.5836145
1.6614006 0.6190931 0.7344902 1.1092975 1.6057634 1.2003226 1.6642616 0.58761305
0.5756469 1.0831636 0.49463224 1.3400953 1.2787708 1.1136522 0.77773273 0.82283366
1.1842327 0.7542597 1.319606 2.09629 0.676877 1.0671743 0.8863737 0.8444583
1.2107139 1.1219553 1.057079 0.60047907 1.2286979 1.5078553 1.2619754 0.8630661
1.9059337 0.72234 1.4006658 1.2514459 0.30943006 1.0063319 0.54513896 1.227144
0.88275284 1.1311638 1.4926372 0.31890717 1.0463623 1.2717245 0.72972524 0.3547561
1.5035557 0.5259645 1.1557494 0.6871965 1.7782042 0.93542886 0.5801594 0.37389937
0.8455669 0.5913403 0.4075342 1.3497733 0.8583057 1.1370758 1.5166998 1.8029
0.73324275 1.0645672 0.69766617 1.325528 1.6811055 1.7733611 0.4070449 0.6207677
1.4531431 0.66476834 0.9073248 1.2159615 1.1601614 0.8406485 0.9649259 1.1285075
0.85331327 0.5851241 1.3691097 0.78188366 1.075666 0.727603 1.6093558 0.82168496
0.61572015 1.5616161 0.44063175 1.361296 1.2727807 0.4591087 1.2210497 1.3780407
1.351385 0.95847946 0.8639661 1.0590954 0.54688853 1.5371559 0.86245066 1.3085456
0.9832152 1.1053901 1.0703248 0.93373626 -0.123683505 0.018693794 1.0205619 1.9626129
1.5434854 0.114969514 1.1272372 1.1895423 1.2141306 0.6004066 1.6339331 0.5458642
1.3292189 1.1069623 1.142523 0.69734406 0.822406 0.8939481 1.1737727 0.9708662
0.77547926 0.81607395 1.0839224 0.26517656 0.9393346 0.67223805 1.7452166 1.5059382
00000000: 0aef ea3f 5f4c 983f ed63 0140 4bde 833f
00000010: 1a3c 173f 0942 3b3f 4523 8a3f a3ed e63f
00000020: 34bc 103e 8fc5 0c3f 6ccc 123f b083 633f
00000030: aec6 753f aca9 d13f e6c2 2b3f 29ce 113f
00000040: 1e4d b43f 1dfc 1b3f 5acd 1a3f a2f3 893f
00000050: e7b2 8a3f e40f b43f e233 963f 57bf f23f
00000060: 5706 ba3f b661 113f 2a47 883f 7f7b c33f
00000070: 579f ee3e 8079 a7be b2d6 793f 441e 8e3f
00000080: c011 b83e fb49 523f 042e 2a3e f0a5 dc3f
00000090: a3bd 3f3c b250 1d3f 62a5 a33f dcb9 d13f
000000a0: de66 ae3f e269 c13f 00dc c73f 5ae5 883f
000000b0: 6707 3d3f 204f 613f 9c38 8f3f 96ad dc3e
000000c0: c927 8c3f 9012 bc3f f9be 3b3e a54b c53f
000000d0: 99ef b83f a370 c83f fa6f 833f e7d9 b13f
000000e0: a14a 423f e102 353f 5ba6 dc3f b136 f23f
000000f0: e46c 4e3f 0adc cd3f 2ab7 a33f c51a cf3f
00000100: f56e bc3f 297e e93f d787 943f c9f8 443f
00000110: 2d8f 763f 99f2 a83f 2dd4 713f d91a cb3f
00000120: 48c8 763f b7a3 ea3f 2f5d 983f f5a2 5b3f
00000130: 35ac e73d 79f1 683f 1dc8 373f c704 9a3f
00000140: 5dd8 103f 7cbb a73f cc12 203f b0a1 a53f
00000150: 107e 993f fa49 e53f 3e4e 0340 02e0 4e3f
00000160: 3ae7 813f 2b7a 953f e502 fd3f 8794 ff3f
00000170: 4758 953f 3fee fe3e dd84 473f 7363 9b3f
00000180: abc9 0d3f c0c7 0b3f f3cb 7e3f 0d8c 0140
00000190: 6a1a 6b3f d1e5 5e3f 9e22 a43f 9a78 353f
000001a0: 7b8c 0a40 9607 f73e baf0 773f 10f4 a83f
000001b0: 984d 7b3f f90b 1d3d 10cd f83e 072e 023f
000001c0: 3b4d 833f 48f2 bd3f dff1 6a3f 5237 1a3e
000001d0: b9fa d73f 7e36 9cb9 708f 643f c367 153f
000001e0: c6a8 d43f e37c 1e3f 8d07 3c3f 76fd 8d3f
000001f0: a889 cd3f 2ca4 993f 8606 d53f cf6d 163f
00000200: 985d 133f 1ba5 8a3f 7040 fd3e 3e88 ab3f
00000210: c3ae a33f 288c 8e3f 7e19 473f 3aa5 523f
00000220: f094 973f 2a17 413f d9e8 a83f 9e29 0640
00000230: d047 2d3f 2b99 883f 63e9 623f 6b2e 583f
00000240: acf8 9a3f 3b9c 8f3f 5d4e 873f ffb8 193f
00000250: f945 9d3f 6701 c13f 6988 a13f e6f1 5c3f
00000260: a3f5 f33f 46eb 383f 0449 b33f 612f a03f
00000270: 9e6d 9e3e 7ccf 803f 3a8e 0b3f 0e13 9d3f
00000280: 17fc 613f fac9 903f bc0e bf3f cd47 a33e
00000290: 33ef 853f dec7 a23f 46cf 3a3f 97a2 b53e
000002a0: 8374 c03f 9ca5 063f 99ef 933f 1cec 2f3f
000002b0: 329c e33f 4478 6f3f 5485 143f bd6f bf3e
000002c0: 1377 583f 1462 173f 53a8 d03e 5fc5 ac3f
000002d0: ecb9 5b3f b38b 913f 3823 c23f 6dc5 e63f
000002e0: ccb5 3b3f bd43 883f 409a 323f e7aa a93f
000002f0: 772e d73f 7ffd e23f 3068 d03e a2ea 1e3f
00000300: 9800 ba3f 422e 2a3f 7046 683f a0a4 9b3f
00000310: 2b80 943f bd34 573f 6205 773f ef72 903f
00000320: bd72 5a3f b1ca 153f fd3e af3f 8729 483f
00000330: 6caf 893f 3144 3a3f 5fff cd3f f259 523f
00000340: d69f 1d3f 09e3 c73f 7c9a e13e f33e ae3f
00000350: 7aea a23f 4c10 eb3e 5b4b 9c3f a363 b03f
00000360: 2ffa ac3f e95e 753f e22c 5d3f 7090 873f
00000370: e300 0c3f 86c1 c43f 91c9 5c3f 6c7e a73f
00000380: feb3 7b3f 6c7d 8d3f 6700 893f 5709 6f3f
00000390: c74d fdbd ba23 993c c6a1 823f e636 fb3f
000003a0: ee90 c53f 2375 eb3d 4f49 903f ec42 983f
000003b0: a268 9b3f 3fb4 193f b824 d13f c2bd 0b3f
000003c0: d823 aa3f f1b0 8d3f 323e 923f 2485 323f
000003d0: 3389 523f c8d9 643f 2f3e 963f b08a 783f
000003e0: cf85 463f 39ea 503f f8bd 8a3f 39c5 873e
000003f0: 3b78 703f cb17 2c3f 4263 df3f 95c2 c03f

fc2.bias f4 [100, 5]
-0.07252419 0.09076282 -0.052724842 -0.02630503 -0.038035166 -0.0063316952 0.0422287 0.073028415
0.0035589717 0.23573442 -0.06455074 -0.07525537 -0.023710566 0.029637977 -0.059277613 0.03098358
-0.07007466 0.06704848 0.042995576 0.1208566 -0.08855554 -0.15332606 0.11547008 0.085109726
-0.04623217 -0.04244345 -0.12257709 0.1984932 -0.0015722911 -0.17292309 0.033120867 -0.14446084
0.11071267 -0.12785864 -0.091593415 0.1936989 -0.044780906 -0.096615046 -0.045041 -0.09611968
-0.16292961 -0.011454263 -0.046020642 -0.16290078 0.11557467 0.17812654 -0.0086147925 -0.0160799
0.01568262 -0.16405119 0.18303822 -0.10169699 0.035661086 -0.08459612 -0.1534994 0.21492094
-0.08730082 -0.15708824 0.080790795 -0.07750096 0.06285031 -0.21663673 0.15352552 -0.028766258
-0.099293835 0.050550498 0.13851042 0.08215983 0.036783636 -0.055074506 0.02948398 -0.25019783
0.0064535416 -0.27796102 0.011815019 0.036695164 -0.044759925 -0.040110186 0.026328644 -0.2083155
0.049872946 0.100905135 -0.0043979385 -0.05042112 -0.09744819 0.15366131 -0.032028932 -0.07850359
0.023987502 0.044190485 -0.101274684 0.05540673 0.042907834 -0.08331094 -0.15518658 0.17489524
0.08190119 0.034451634 0.044437557 -0.23725335 -0.07147318 0.19103502 -0.113857895 0.063497946
0.27120632 0.15512164 -0.21638846 -0.19895239 -0.12829617 0.15099604 0.11145878 0.016527275
-0.10264214 -0.0658295 0.07610422 0.021094555 -0.0018821652 -0.060292084 0.060458187 -0.0493403
-0.06502882 -0.046089638 0.0677852 -0.1146288 -0.1387132 0.12185983 0.14307758 -0.18209347
0.009586579 -0.14448284 -0.018886125 -0.06499843 -0.17262644 0.044392504 -0.22644915 0.07877192
0.01767472 -0.083052926 -0.18906942 0.19463177 -0.12316587 0.16311173 -0.1992171 -0.07915382
0.01837565 0.05649213 0.040125653 -0.10886793 -0.05123635 0.024605637 -0.03636232 -0.17579076
-0.08567325 0.049998686 -0.034518644 0.08766265 -0.0826659 0.09357311 -0.06929324 0.02082354
0.10466333 0.09076658 -0.11446565 -0.14359502 -0.05084733 0.101207726 -0.028410394 -0.16355817
-0.07784358 0.04101834 0.2159955 -0.19910546 -0.010104152 0.016932074 -0.095030196 0.11762494
-0.15834968 0.06876437 -0.049354784 -0.09909482 0.18117964 0.008703699 -0.02154312 -0.022331394
-0.13193935 0.099241085 -0.025648497 0.12361099 -0.005458417 -0.000934965 0.13352908 0.018419268
0.0043775365 0.017090056 0.008547708 -0.03086436 -0.10959804 -0.011533197 0.18557882 -0.14719455
0.039370097 -0.021049757 -0.11228379 -0.011628984 -0.15158093 0.050396327 -0.012361594 -0.070491925
-0.043390814 0.029816702 0.22579423 -0.052312136 0.020922594 0.077372395 -0.12950256 -0.040098842
0.18707159 -0.03836234 -0.034939054 -0.05225837 0.06778893 0.00017518035 0.069702476 0.004725808
0.012314762 0.07128936 -0.23558077 0.022116138 -0.1211567 -0.053330515 -0.018968321 0.17912881
-0.18292017 -0.013589586 -0.17456552 -0.2235791 -0.18366352 -0.052188326 -0.07159827 0.095740944
0.05922843 0.23217382 -0.15677309 0.045749944 -0.12663832 -0.04953988 0.011487926 0.04678267
-0.0046346826 -0.116696775 -0.01725058 0.19764742 0.13314041 -0.029722862 0.15641636 0.19266987
00000000: 9087 94bd dbe1 b93d 01f6 57bd a57d d7bc
00000010: c3ca 1bbd 1c7a cfbb 00f8 2c3d ec8f 953d
00000020: a33d 693b 5d64 713e 2e33 84bd 7d1f 9abd
00000030: a93c c2bc 58cb f23c 15cd 72bd 47d1 fd3c
00000040: 4e83 8fbd b750 893d 211c 303d aa83 f73d
00000050: 9b5c b5bd 8201 1dbe 947b ec3d 024e ae3d
00000060: f25d 3dbd 2fd9 2dbd b309 fbbd cd41 4b3e
00000070: 5615 ceba c012 31be bfa9 073d 8bed 13be
00000080: 53bd e23d 60ed 02be 5495 bbbd 0159 463e
00000090: 2f6c 37bd 1cde c5bd e97c 38bd 65da c4bd
000000a0: 05d7 26be a9aa 3bbc 2480 3cbd 76cf 26be
000000b0: 6ab2 ec3d ce66 363e 0f25 0dbc ffb9 83bc
000000c0: d778 803c 09fd 27be 5f6e 3b3e 8346 d0bd
000000d0: 5c11 123d bb40 adbd f22e 1dbe 3c14 5c3e
000000e0: c6ca b2bd bddb 20be a575 a53d d3b8 9ebd
000000f0: aab7 803d 05d6 5dbe cb35 1d3e 37a7 ebbc
00000100: 915a cbbd 0a0e 4f3d add5 0d3e 6a43 a83d
00000110: 70aa 163d ce95 61bd 6388 f13c ee19 80be
00000120: 3b78 d33b e850 8ebe c893 413c ab4d 163d
00000130: 2f56 37bd 944a 24bd 2baf d73c a950 55be
00000140: 9347 4c3d 5aa7 ce3d 951c 90bb 6086 4ebd
00000150: eb92 c7bd 6459 1d3e c530 03bd 7dc6 a0bd
00000160: 7081 c43c 1501 353d 1a69 cfbd 2bf2 623d
00000170: 20c0 2f3d ed9e aabd 3be9 1ebe bd17 333e
00000180: d0bb a73d 281d 0d3d 2804 363d 8bf2 72be
00000190: 8860 92bd af9e 433e 542e e9bd 360b 823d
000001a0: 8edb 8a3e 35d8 1e3e f094 5dbe 2dba 4bbe
000001b0: 1260 03be b59e 1a3e 8044 e43d 3564 873c
000001c0: 0b36 d2bd 9ed1 86bd 87dc 9b3d 7dce ac3c
000001d0: fcb2 f6ba d5f4 76bd 01a3 773d 0e19 4abd
000001e0: d42d 85bd 7dc8 3cbd f8d2 8a3d 81c2 eabd
000001f0: d50a 0ebe a691 f93d ee82 123e b676 3abe
00000200: 0711 1d3c 4ff3 13be 13b7 9abc e61d 85bd
00000210: fcc4 30be ead4 353d 49e2 67be 2c53 a13d
00000220: 93ca 903c a717 aabd 6a9b 41be 8d4d 473e
00000230: 633e fcbd c306 273e 91ff 4bbe 661b a2bd
00000240: 8888 963c 4b64 673d cc5a 243d 26f6 debd
00000250: 35dd 51bd c391 c93c a8f0 14bd 7e02 34be
00000260: 7575 afbd 6ccb 4c3d 6c63 0dbd 7a88 b33d
00000270: bd4c a9bd 42a3 bf3d 9de9 8dbd 2196 aa3c
00000280: ba59 d63d d4e3 b93d f76c eabd 930a 13be
00000290: 4a45 50bd ff45 cf3d eabc e8bc cb7b 27be
000002a0: 746c 9fbd d902 283d ed2d 5d3e 4de2 4bbe
000002b0: e38b 25bc 22b5 8a3c 319f c2bd 58e5 f03d
000002c0: 6b26 22be 56d4 8c3d 3e28 4abd 3af2 cabd
000002d0: 2887 393e f699 0e3c 327b b0bc 54f0 b6bc
000002e0: 1c1b 07be e93e cb3d cc1c d2bc c227 fd3d
000002f0: 85dc b2bb 7018 75ba d9bb 083e 01e4 963c
00000300: 7071 8f3b 7200 8c3c b00b 0c3c 41d7 fcbc
00000310: f074 e0bd bcf5 3cbc 6008 3e3e 2bba 16be
00000320: 8a42 213d 8a70 acbc 0bf5 e5bd 7e87 3ebc
00000330: 0838 1bbe 616c 4e3d 4888 4abc 125e 90bd
00000340: 91ba 31bd 2842 f43c 9a36 673e 4045 56bd
00000350: dc65 ab3c 6b75 9e3d 529c 04be af3e 24bd
00000360: b28f 3f3e d421 1dbd 411c 0fbd df0c 56bd
00000370: ecd4 8a3d 9eb0 3739 2cc0 8e3d f3da 9a3b
00000380: dbc3 493c 2800 923d 163c 71be e72c b53c
00000390: 0121 f8bd 1971 5abd 7463 9bbc 8b6d 373e
000003a0: 6d4f 3bbe dba6 5ebc 4ec1 32be ebf1 64be
000003b0: 4a12 3cbe 6dc3 55bd 1da2 92bd d413 c43d
000003c0: 8399 723d f9be 6d3e 2089 20be 4b64 3b3d
000003d0: 7aad 01be 54ea 4abd db37 3c3c 2f9f 3f3d
000003e0: 89de 97bb b8fe eebd 1751 8dbc 1664 4a3e
000003f0: f655 083e 5c7d f3bc 9c2b 203e 404b 453e

fc2.linear.weight f4 [5, 50]
0.024567718 -0.069984674 -0.0627755 0.03955939 0.06770423 -0.101345666 -0.18175124 0.055440303
-0.20028189 0.06396721 -0.06762278 -0.0034844235 -0.05862669 0.16883714 -0.24811251 -0.12588352
-0.08557751 -0.0006613261 0.015847724 -0.09929162 -0.104821846 -0.07080108 -0.16019765 -0.053827386
-0.06904195 -0.0068436814 -0.108879566 -0.15227447 -0.050325073 -0.16611639 -0.17884953 0.04079856
-0.09153847 -0.028140586 0.035793267 0.0140267275 -0.101056255 -0.11403456 0.14618036 0.05873837
-0.10733507 0.010522412 -0.059318393 0.03487746 -0.0015535159 0.03446218 -0.22048433 0.04676172
0.12589233 -0.064425394 0.047889173 0.051442575 0.047596138 -0.117860146 -0.11743857 -0.10790797
-0.17696619 0.050965875 -0.047927976 -0.091051444 0.055759944 0.0059692403 0.12750696 0.086603306
-0.069468506 0.11318349 -0.19603582 0.10683764 0.17043489 0.06451363 -0.09686915 -0.18299393
-0.06758571 -0.20002982 -0.008989866 -0.16987687 -0.15978432 -0.03401155 -0.08039947 -0.03622571
0.14473729 -0.21463993 0.0038440172 -0.08485864 -0.20166111 -0.028593067 -0.11426608 -0.053402465
-0.22850007 -0.066811755 0.0090538515 -0.12173654 -0.096797846 -0.071594924 -0.13543977 -0.022063069
-0.10249495 0.025253177 0.14436974 0.053850308 0.028450845 -0.1128869 0.020372402 0.08122826
-0.18087487 -0.16279757 0.08496599 0.0139219705 -0.15063903 0.072416544 0.08590145 -0.1485762
-0.11460785 0.044180658 -0.116132006 -0.09086968 0.056321718 -0.07643807 0.13040489 -0.14410643
-0.07758484 -0.16445744 -0.0004829927 -0.035488985 0.17412104 0.08376823 -0.14205204 -0.09241215
0.007194953 0.047947496 0.12615678 0.014028387 0.14413433 0.0685453 0.1254446 -0.16624129
-0.04336362 -0.024269847 -0.06364872 0.05629795 0.13709722 0.015656337 0.01590791 -0.11448266
0.081627086 -0.08297141 -0.004646802 -0.07420782 -0.09823069 0.057559524 0.0007409093 0.103953294
-0.19108619 -0.13721472 0.15067549 -0.017130198 -0.096119165 0.04717699 0.079299964 -0.09689098
-0.16495648 -0.18184637 -0.09382299 -0.12828377 0.060624156 0.02104718 -0.05580528 0.051132545
0.03041014 0.052747592 -0.062539615 0.0993129 0.04037753 0.004286313 0.12116778 0.15336446
0.13251802 -0.11352372 -0.042300656 0.11957558 -0.0021121907 0.0780481 -0.05500193 -0.003596464
-0.12868562 0.059333786 0.003456567 0.07717295 -0.07832591 0.08679389 -0.044728372 -0.028904201
0.019389683 0.093115374 0.003185839 -0.18989983 -0.08394094 -0.07782221 -0.14927681 0.116297215
-0.04495561 -0.053756695 0.1638016 -0.029413762 0.10398211 0.15822633 0.01867751 -0.20747225
-0.17113973 -0.0015821516 -0.15538348 -0.015939975 -0.013819015 -0.10210262 -0.07862532 -0.07205945
0.09986847 -0.022290105 -0.07595145 -0.064843684 -0.16094312 0.108337075 -0.19877979 -0.03306189
-0.012860363 -0.025361525 -0.12290733 -0.021742838 -0.15794685 -0.12981002 -0.06049429 -0.16127285
-0.06667385 -0.13042748 -0.12772165 0.04858401 0.120257586 -0.05455396 0.055180427 -0.048021786
0.05039838 -0.013569172 -0.014570873 -0.01211163 0.15309225 0.08078769 0.082918584 0.07487618
-0.15460493 -0.14441805
00000000: 3d42 c93c 2054 8fbd 7190 80bd 0709 223d
00000010: 84a8 8a3d 518e cfbd ff1c 3abe 5f15 633d
00000020: b216 4dbe 3e01 833d d07d 8abd ed5a 64bb
00000030: 8a22 70bd a5e3 2c3e 3511 7ebe 9ce7 00be
00000040: 4343 afbd d85c 2dba 16d3 813c 6859 cbbd
00000050: d6ac d6bd 2800 91bd da0a 24be 1b7a 5cbd
00000060: de65 8dbd f640 e0bb 40fc debd d7ed 1bbe
00000070: aa21 4ebd 6a1a 2abe 5524 37be 641c 273d
00000080: 8578 bbbd 1687 e6bc f69b 123d 5cd0 653c
00000090: 95f6 cebd f48a e9bd 4eb0 153e a597 703d
000000a0: 7dd2 dbbd 3266 2c3c d8f7 72bd abdb 0e3d
000000b0: 589f cbba 3728 0d3d a5c6 61be 3889 3f3d
000000c0: ebe9 003e 76f1 83bd 7027 443d 73b5 523d
000000d0: 2bf4 423d a960 f1bd a283 f0bd dbfe dcbd
000000e0: a036 35be 98c1 503d 2050 44bd 2e79 babd
000000f0: 8a64 643d 9e99 c33b 2f91 023e 135d b13d
00000100: 8145 8ebd bfcc e73d 9dbd 48be b1cd da3d
00000110: 7c86 2e3e b91f 843d 5563 c6bd c362 3bbe
00000120: 606a 8abd 9ed4 4cbe 3b4a 13bc 34f4 2dbe
00000130: 809e 23be b24f 0bbd 7aa8 a4bd 6961 14bd
00000140: 0336 143e 92ca 5bbe e8eb 7b3b 5eca adbd
00000150: 4080 4ebe 023c eabc 5604 eabd 8bbc 5abd
00000160: ecfb 69be 9ad4 88bd 9b56 143c 0251 f9bd
00000170: f33d c6bd 5ca0 92bd b9b0 0abe 9cbd b4bc
00000180: dfe8 d1bd c0df ce3c a9d5 133e 2492 5c3d
00000190: bf11 e93c 3f31 e7bd 06e4 a63c 015b a63d
000001a0: 4337 39be 68b4 26be a602 ae3d fa18 643c
000001b0: 1e41 1abe 204f 943d 19ed af3d 5c24 18be
000001c0: 85b7 eabd c7f6 343d 9ed6 edbd e219 babd
000001d0: 9ab1 663d 908b 9cbd dc88 053e a390 13be
000001e0: cde4 9ebd 8867 28be 2f3a fdb9 e65c 11bd
000001f0: c94c 323e ae8e ab3d 1776 11be 9542 bdbd
00000200: a4c3 eb3b 9864 443d 3e2f 013e 52d7 653c
00000210: f397 133e 7a61 8c3d 8d74 003e 283b 2abe
00000220: 0d9e 31bd 8fd1 c6bc 435a 82bd ae98 663d
00000230: 3763 0c3e b841 803c 4e51 823c e375 eabd
00000240: 1a2c a73d eaec a9bd 3344 98bb 45fa 97bd
00000250: 2c2d c9bd 89c3 6b3d 9539 423a 77e5 d43d
00000260: 19ac 43be 0482 0cbe ad4a 1a3e a154 8cbc
00000270: 20da c4bd a93c 413d 0568 a23d c76e c6bd
00000280: 5aea 28be ef35 3abe 4526 c0bd d25c 03be
00000290: 0951 783d 236b ac3c 1494 64bd 5c70 513d
000002a0: b01e f93c dc0d 583d c514 80bd 9064 cb3d
000002b0: e962 253d 3374 8c3b d026 f83d 930b 1d3e
000002c0: ceb2 073e 207f e8bd 7443 2dbd 0be4 f43d
000002d0: ae6c 0abb afd7 9f3d b449 61bd a7b2 6bbb
000002e0: 2ac6 03be fc07 733d 9287 623b da0c 9e3d
000002f0: 5669 a0bd ffc0 b13d 1935 37bd 81c8 ecbc
00000300: 1dd7 9e3c 46b3 be3d 82c9 503b 1a75 42be
00000310: 3ae9 abbd 4061 9fbd 05dc 18be 3c2d ee3d
00000320: 6023 38bd fb2f 5cbd 9bbb 273e 21f5 f0bc
00000330: 93f4 d43d 1506 223e 9401 993c 9b73 54be
00000340: 413f 2fbe 3360 cfba d91c 1fbe 8d94 82bc
00000350: 2669 62bc 2e1b d1bd 5006 a1bd e893 93bd
00000360: d787 cc3d bd99 b6bc 6f8c 9bbd c4cc 84bd
00000370: 46ce 24be d4df dd3d ee8c 4bbe e86b 07bd
00000380: 46b4 52bc f9c2 cfbc d7b6 fbbd 091e b2bc
00000390: d2bc 21be ebec 04be dcc8 77bd b624 25be
000003a0: 4d8c 88bd c88e 05be 77c9 02be 0700 473d
000003b0: 9c49 f63d f973 5fbd df04 623d 7eb2 44bd
000003c0: 886e 4e3d 3b51 5ebc acba 6ebc dc6f 46bc
000003d0: 37c4 1c3e 0474 a53d 38d1 a93d af58 993d
000003e0: c150 1ebe 53e2 13be
