experiments/classification/toy/gaussian_mixture/pretrained/2025-05-08_11-19-07/CrossEntropy_Deep Ensemble.pt (torch, 289294 bytes, 400 tensors)

models.0.fc1.weight f4 [50, 2]
000000 bc ee 36 bf d8 75 94 3e 97 6f 0e be 15 b4 d0 be
       -0.7145803 0.28996158 -0.13909756 -0.40762392
000010 47 c9 ad bd 2a 77 24 bf 20 82 3d bf 95 b4 4c 3f
       -0.08485656 -0.6424433 -0.7402668 0.79963046
000020 f6 ab f8 3e 9f 71 1b 3f c6 1d 2c 3f ea 7e 71 be
       0.48568696 0.6072025 0.6723293 -0.2358357
000030 cf 37 0f bf 71 93 c0 bd 64 02 0e bf c1 bc 23 bf
       -0.5594453 -0.09403122 -0.554724 -0.6395989
000040 28 7b 50 3f ff b3 ae be 33 ad 76 be f9 b3 11 bf
       0.8143792 -0.341217 -0.24089508 -0.5691524
000050 81 d4 04 bf 77 21 08 3f 49 e9 d1 3b 54 c5 3d bd
       -0.51886755 0.53176063 0.0064059836 -0.046330765
000060 ec 59 10 3f 7e aa 37 be d7 50 28 3f 99 31 20 3f
       0.5638721 -0.17936131 0.6574835 0.6257568
000070 12 25 97 3e 8f 5b 1c 3f 6f 37 45 be a2 42 a8 be
       0.2952047 0.6107721 -0.19259427 -0.32863337
000080 d0 29 05 3f ad 39 ab 3e 8f d7 45 bf 91 6b 63 3e
       0.52016926 0.3344244 -0.7728204 0.22209002
000090 b0 4c 3f be 43 7c 7b 3e 29 2b 3e 3f df 32 1c 3f
       -0.18681598 0.24559121 0.7428461 0.61015123
0000a0 7a 0c d1 be 9f 6c e2 3e a4 52 73 3e 47 a3 41 3f
       -0.4082983 0.44223496 0.23761994 0.75639766
0000b0 94 8f 8f 3e 40 2c 59 be 62 d6 13 be e1 63 3f 3f
       0.2803923 -0.21208286 -0.1443725 0.7476178
0000c0 60 d5 e9 3b cb 1f f4 3e ab 4e 35 bf 06 65 cf 3d
       0.007136032 0.47680506 -0.7082316 0.101266906
0000d0 78 bc 28 3f 87 2c be be 3d 56 21 bf 51 2c 2a 3e
       0.6591258 -0.37143347 -0.63022214 0.16618468
0000e0 1a f0 1c bf de 16 32 3f d8 09 0d 3f 6b 89 f7 3e
       -0.61303866 0.6956614 0.55093145 0.4834703
0000f0 26 2d 89 3d 04 6c 10 3e b9 01 75 be 7e c8 1d bf
       0.066980645 0.14103705 -0.23926438 -0.6163405
000100 eb 78 95 3e 2c 3c cd be 0b 33 04 bd 48 dd a1 3e
       0.29193816 -0.4008497 -0.03227524 0.31614137
000110 65 eb aa be 4d d3 45 3f 3c a3 ce 3e 3b 64 0e 3f
       -0.33382717 0.77275544 0.40358913 0.5562169
000120 ce fb b4 be 85 9f d8 3c 1c 5f e3 bd dd a1 86 3e
       -0.35348362 0.026443252 -0.11102125 0.26295367
000130 44 5d 76 be a6 04 eb be 2b 99 1f bd 23 12 2a 3f
       -0.24059016 -0.45901984 -0.03896443 0.66433924
000140 4b 96 ae 3e a0 5f 1b bf 13 e6 20 bf 0d 7e c1 3d
       0.3409904 -0.6069279 -0.62851065 0.094478704
000150 f8 30 16 bf 06 cd 55 3e 28 13 a8 be 9e f5 75 be
       -0.5866847 0.20878991 -0.32827115 -0.24019477
000160 3a c4 18 bf 74 f6 97 be cf 36 e5 be 10 59 ab be
       -0.5967442 -0.29680216 -0.44768378 -0.33466387
000170 6f 25 46 3e 31 17 1c 3f 0b 37 d3 be 08 09 7e 3e
       0.19350217 0.6097289 -0.41252932 0.24808133
000180 90 78 27 3f f3 cf 4d bf 87 ed fc bd 3b 5e ac 3e
       0.6541834 -0.8039543 -0.12349992 0.33665642

models.0.fc1.bias f4 [50]
000000 48 0c b1 3e dd 35 70 3e cf 77 8d 3e 83 80 cc 3e
       0.34579682 0.23458047 0.2763047 0.39941797
000010 ff 14 05 3f 61 9f 0b 3e c9 0a 15 be f9 b0 94 3e
       0.5198516 0.13635017 -0.14554895 0.2904127
000020 66 d6 0c bf 4c 3b b7 3d 36 41 90 3e 32 b8 cf be
       -0.55014646 0.08946857 0.28174752 -0.40570217
000030 70 a1 3f 3d e5 1f 18 3f 06 08 32 be 2c 0a 0a 3f
       0.04678482 0.5942367 -0.17385873 0.5392177
000040 eb 1d 1a 3b 0e ba 1c bd 8e e1 1c 3f 02 98 1c 3f
       0.0023516368 -0.038263373 0.6128167 0.61169446
000050 55 a1 19 3f fd f3 4b 3f 4a b9 1f 3f b2 e4 bc be
       0.600118 0.7966917 0.62392104 -0.3689323
000060 99 42 f9 be b0 ef b0 be 6b 3d 0f be 11 f5 32 3f
       -0.48683622 -0.34557867 -0.13988273 0.6990519
000070 33 0c e2 be e3 8b fe be 16 f7 05 3f 0c 18 3c be
       -0.44149932 -0.497161 0.5233015 -0.18368548
000080 ca 90 42 bf 03 af c3 be 37 0a 18 3f 79 1b ce be
       -0.7600218 -0.3821946 0.59390587 -0.40255335
000090 08 d0 8e 3e 74 c4 a6 be 13 8e 53 be 39 99 4c 3f
       0.2789309 -0.32571757 -0.20659666 0.799213
0000a0 c2 13 13 bf 4f 11 d4 3e 00 26 80 3e f4 7c 04 bf
       -0.57452023 0.41419455 0.25028992 -0.51753163
0000b0 87 e5 1d bd b7 75 2a 3f dc 00 23 3f 09 5e 3c bf
       -0.038548972 0.6658587 0.63673186 -0.73580986
0000c0 ab 73 92 be ac 93 09 bf
       -0.28603873 -0.53740954

models.0.fc2.weight f4 [5, 50]
000000 58 f0 5b be ce 33 72 be c8 0f 8a bd 5b 90 55 be
       -0.21478403 -0.23652574 -0.06741291 -0.20855848
000010 6c ef 07 3d c5 72 44 3e dc bb 9a bd 49 33 65 be
       0.033187315 0.19184406 -0.075553626 -0.22382845
000020 69 99 5c 3e 45 0e 32 be 71 cb 52 be a4 6d a7 3d
       0.21542896 -0.17388256 -0.20585419 0.08175209
000030 ec e0 5e 3e f9 a8 2d 3d 82 40 29 3e f6 a4 2b be
       0.21765488 0.042397473 0.16528514 -0.16762146
000040 21 de a7 3c 53 06 32 be 4f aa 83 be 1f 90 19 3e
       0.020491662 -0.17385225 -0.25715873 0.14996384
000050 4a d7 65 be 84 8d 93 3d 93 5a f0 3d 6d 19 8d be
       -0.22445408 0.07204726 0.11736026 -0.2755846
000060 24 c7 12 be b6 b5 ab bc c4 50 11 3e 0b 41 78 bd
       -0.14333779 -0.02096067 0.14190966 -0.060608905
000070 86 a3 00 be e6 89 8f 3c 2e 04 86 3d 76 dc 48 be
       -0.12562379 0.01752181 0.06543766 -0.19615349
000080 ba dd 6a bd 2c 4d a0 be 75 f1 87 be 85 98 43 3e
       -0.05734036 -0.31308877 -0.26551405 0.1910115
000090 d2 7c 3d bd e2 53 82 be a6 0e 90 be 0d b9 37 3e
       -0.046261616 -0.25454623 -0.28136176 0.17941685
0000a0 c8 e7 70 3c 6a 46 85 bc f8 88 9b 3c a6 82 25 3d
       0.014703698 -0.016268928 0.01898621 0.0404078
0000b0 63 42 46 be 1a b2 a1 bc 09 47 3c bd d5 93 18 be
       -0.19361262 -0.019738246 -0.045966182 -0.14900143
0000c0 fe cb c4 3d 11 5a b0 be 8b a5 2c be 5f 13 a5 bd
       0.09609221 -0.34443715 -0.16860025 -0.08060335
0000d0 13 e1 c8 bd c3 38 a1 3d fc 6e c9 3d 50 85 1c bd
       -0.098085545 0.078721546 0.09835622 -0.038213074
0000e0 26 17 11 be af 83 e8 3c e7 7f d7 bd 1e 0c 05 3d
       -0.14168987 0.028383104 -0.10522442 0.03248226
0000f0 3f f0 16 be ee e2 00 3e 42 a6 3f bd 65 8c 96 3d
       -0.14740084 0.12586567 -0.046789415 0.07350997
000100 e3 24 05 3e 08 86 55 be c7 3f d4 bd 82 7c 55 be
       0.13002352 -0.2085191 -0.10363727 -0.20848277
000110 28 a8 54 3c 5b 79 02 3e 29 5f 57 bd 27 2e c3 3d
       0.012979545 0.12741606 -0.052580986 0.09530287
000120 ff c2 dc bb 2b 92 e1 3d 8c 27 00 bc b3 66 57 be
       -0.0067371125 0.110142075 -0.007821929 -0.2103527
000130 fb 72 75 be d6 90 a2 38 da 0e 10 be d6 1f fe 3d
       -0.23969643 7.75174e-05 -0.14068165 0.12408416
000140 72 23 71 bd 8f df 82 bd 37 6a f4 3c 64 2b b4 3d
       -0.058871694 -0.06390297 0.029835803 0.087973386
000150 8d 6a b4 3d 1d 5e 00 3e 8e 83 ec bd 77 28 c1 3c
       0.088093854 0.12535901 -0.115485296 0.023578865
000160 46 fd ef bd 0e c0 0d 3e bb 71 9b bd c4 e8 8e 3c
       -0.1171823 0.13842794 -0.07590052 0.017444976
000170 16 d3 a1 bd 29 f6 4e be 88 9d 32 be 2b 7a 33 bc
       -0.079015896 -0.2021109 -0.17442906 -0.01095442
000180 21 f5 f7 3d bb 96 07 be 26 f7 27 be c8 d5 bb 3d
       0.121073015 -0.13241093 -0.16402873 0.09171635
000190 f9 37 56 bd 56 74 80 bc 4f 25 d2 bc 90 53 1f 3e
       -0.052299473 -0.015680473 -0.025652556 0.1555922
0001a0 c8 1c 81 bd 3b 05 40 bd 28 24 5e 3d f0 c3 44 be
       -0.06304318 -0.04687999 0.0542337 -0.19215369
0001b0 12 e8 da bc 79 8a 40 be 74 4a f7 bc f5 82 e4 3d
       -0.026721988 -0.18802823 -0.03018687 0.111577906
0001c0 72 81 f6 3c 81 be 1a be 61 39 08 bd c3 18 b9 bd
       0.030091021 -0.15111734 -0.033257846 -0.09037926
0001d0 ac d2 82 bd ec d8 cd 3d ac 6a 24 bd 88 13 61 be
       -0.06387839 0.1005114 -0.040140793 -0.21980107
0001e0 4a 1d 8b 3d a3 e9 2f bb 9f 7b 10 be 09 9a 09 3e
       0.06792696 -0.002684214 -0.14109658 0.13437666
0001f0 09 7b ca bc cc f8 f0 3d bc 97 fb bd 70 13 a4 3c
       -0.02471687 0.11766204 -0.122848004 0.0200288
000200 ca 7b 62 3d bb d5 7f bd 3a 3c 1a 3c 71 d4 12 bd
       0.055293836 -0.06245969 0.009413773 -0.03584713
000210 b2 19 90 bd 64 2c 16 3e 06 37 cb 3d 4e cd 2e be
       -0.07036151 0.14665371 0.09922604 -0.17070505
000220 43 65 ee 3d dd 45 65 bd 13 29 80 be 90 f5 71 3d
       0.11640408 -0.05597483 -0.25031337 0.059072077
000230 c9 21 23 be 2b ef ae bb ae 52 ae 3c 0f e6 93 be
       -0.15930857 -0.0053385696 0.02127966 -0.28886458
000240 47 71 0b 3d af 64 15 3d 84 3b 25 bd 8e 5e 4b bd
       0.034043577 0.036472972 -0.04033996 -0.04965072
000250 2b 28 03 be 52 1c 13 3e 87 3b ff 3c 1a f7 1f 3e
       -0.12808292 0.14366272 0.031156315 0.15621606
000260 a6 33 3c bd ec ef 10 bd c5 50 dd bd 18 3f 9e bd
       -0.045947693 -0.035385057 -0.10806421 -0.07726878
000270 0d 0a 02 bd 98 4a 60 3e 6d ed 69 be 42 f0 d6 3d
       -0.031747866 0.21903455 -0.22844477 0.10495044
000280 57 f1 6e bd a7 c8 ad bd 62 2e 40 be 41 43 f3 3c
       -0.05833563 -0.08485537 -0.18767694 0.029695155
000290 dd 67 7f 3d 6c f1 4c 3e 6c 57 77 3b 3f 0a 03 be
       0.06235491 0.2001397 0.0037741316 -0.12796877
0002a0 7c f1 92 3d 86 30 12 be 71 56 3f 3d e8 a6 5e be
       0.07174966 -0.14276323 0.046713296 -0.21743357
0002b0 a9 52 79 be fa c6 0f be 97 1a 0b 3d 34 78 93 bd
       -0.24347939 -0.14040747 0.033960905 -0.07200661
0002c0 d4 c7 81 be 52 5a f3 3d ce ec 34 be 20 3b 1d be
       -0.2534777 0.118824616 -0.17668459 -0.15354586
0002d0 88 9c dd bd a2 af 2b 3e 9b 99 93 bd e4 2f 8b bd
       -0.108208716 0.16766217 -0.07207032 -0.06796244
0002e0 bb af 3b be 25 e9 89 3d 5c 3c 29 bd 5d 8d 75 3d
       -0.18328755 0.06733922 -0.04131733 0.059949268
0002f0 a2 9d b6 3d 78 05 25 bd b1 41 b4 bd c1 98 a0 3d
       0.08916785 -0.04028842 -0.08801592 0.078416355
000300 ba 00 44 3d 14 03 82 3d 4f 8b 82 3d 00 8e 46 3e
       0.047852255 0.06348243 0.06374227 0.19390106
000310 84 74 28 bd a9 aa 7a 3c 1b cf 92 bd 76 af 39 be
       -0.041126743 0.015299478 -0.071684085 -0.1813334
000320 21 8f 9c bd f9 85 80 3e 59 f7 66 bc 9c 3f 4a be
       -0.07644487 0.25102213 -0.014097058 -0.19750828
000330 f8 4d fe 3b b5 bd cf 3d 62 09 cf bd da 1f 3a 3e
       0.0077607594 0.101436056 -0.101092115 0.18176213
000340 98 26 e5 bc 06 c8 d9 3d fc 59 14 3d 61 da 08 3e
       -0.027972504 0.106338546 0.03621863 0.13364555
000350 30 9a 27 3c 9c 64 41 bb 8e 78 74 be d7 5b 4c 3e
       0.010229632 -0.002950943 -0.23874113 0.19956909
000360 cc 8e 22 be b3 27 53 be c4 be 4d bb da 73 0e be
       -0.15874785 -0.20620613 -0.0031394223 -0.13911381
000370 ce d2 e4 bd 27 ee e2 bc 24 2a 1d 3e bf 0d 3d be
       -0.1117302 -0.02770145 0.15348107 -0.18462275
000380 93 e6 ac bd c1 76 8e be cc 25 5a 3e 5f 93 87 be
       -0.08442416 -0.27824977 0.21303481 -0.26479623
000390 5e 8f a5 ba 70 ea 2e bd 54 6a 8a bc 6b f8 86 3d
       -0.0012631228 -0.042704046 -0.016896404 0.06590351
0003a0 d1 7b d6 bb a7 2c e6 bd 8c 6b 37 be 58 b0 2d bd
       -0.006545522 -0.112389855 -0.1791212 -0.042404503
0003b0 b3 0e 97 be 8c e6 33 3c 10 80 95 3c bf 19 1b bd
       -0.29503402 0.01098026 0.018249542 -0.03786635
0003c0 d9 d4 5a 3d 04 11 4f be aa 13 31 bd e1 96 5d be
       0.053425644 -0.20221335 -0.043231644 -0.21639587
0003d0 6f 16 07 be 5f 83 57 3d 7d 2b ec bd af cf b7 3b
       -0.13192151 0.05261552 -0.11531732 0.0056094746
0003e0 f5 b5 29 3e e0 63 36 be
       0.16573317 -0.17811537

models.0.fc2.bias f4 [5]
000000 2a 74 74 3d c7 aa b4 3c 59 f6 44 3d 8c b0 fd bd
       0.059681095 0.02205409 0.048086498 -0.12387189
000010 25 f7 0a 3e
       0.1357084

models.1.fc1.weight f4 [50, 2]
000000 33 91 44 bf 98 ce 4c 3e f2 06 2e 3f 83 09 f2 3e
       -0.76784056 0.20000684 0.6797935 0.47272882
000010 5f 66 d4 3c 57 b9 51 3f b8 8e df 3d 29 50 a1 be
       0.02592772 0.8192343 0.10915893 -0.3150647
000020 fe 34 f7 3e 66 9b cd 3e d6 5d 56 bf ac 52 6b 3e
       0.48282617 0.40157622 -0.8373693 0.22980756
000030 51 a1 50 bf 64 67 13 bf a7 33 6e 3e e9 1c 2c bf
       -0.8149615 -0.57579637 0.23261891 -0.67231613
000040 51 34 37 3f 7d 03 1a 3f f2 01 a9 3d ff d0 a4 3e
       0.71564204 0.6016157 0.08252324 0.321907
000050 56 2a 19 3f d7 25 18 3f 9d 0c c2 3e f6 8f a3 be
       0.59830225 0.5943274 0.37900248 -0.3194577
000060 4b ce ea be 3f cd ed be f9 9c 11 3f f9 76 dc 3e
       -0.45860514 -0.46445653 0.56880146 0.4305952
000070 7d 2d 51 3f b4 5e c8 3e d2 23 00 3f 0c 23 f8 3b
       0.81710035 0.39134753 0.5005466 0.0075725373
000080 e3 8f 28 3f 0d 6e 02 3e d8 37 2a be 93 c8 10 bf
       0.65844554 0.12737294 -0.16622865 -0.5655605
000090 ab 52 b7 be 0b 06 52 3d e0 de a8 be 3b aa 60 3f
       -0.35805258 0.051275294 -0.3298254 0.8775975
0000a0 24 fa 3a bf 44 f5 c2 3d 0b f9 dd be 1c 10 af 3e
       -0.73037934 0.09519437 -0.43354067 0.34191978
0000b0 05 e9 2e bf fb 71 15 3f 13 df 1e bf b5 d3 4d 3d
       -0.6832431 0.58377045 -0.62059134 0.050250728
0000c0 dd c6 b6 be 85 3a e4 bd b3 f3 5d bd 8b 53 34 bf
       -0.35698596 -0.11143974 -0.054187488 -0.70439976
0000d0 5f b4 2c 3f 46 45 23 be 7a 7e c6 be 19 07 23 3f
       0.67462724 -0.15944394 -0.3876837 0.63682705
0000e0 6c 09 11 3f 70 a0 2f be 81 66 2d 3f 4f c8 e8 3e
       0.56655 -0.17151046 0.67734534 0.45465323
0000f0 cd dd 2d bc 1e 2a 34 3f ce 9d bb be ac 86 fe 3e
       -0.010611963 0.70376766 -0.36643833 0.4971212
000100 26 ad 17 bf f8 00 59 be 5e fc 91 be 9e 92 3d bf
       -0.5924858 -0.21191776 -0.28512853 -0.74051845
000110 cc 60 4a 3e bb cf bd 3e 8c 6d 41 be cb c3 13 3e
       0.19763488 0.37072548 -0.18889445 0.14430158
000120 87 c6 1c 3e e4 24 03 3f 46 e9 8c bd f3 95 25 bf
       0.15310107 0.51228166 -0.06880431 -0.6468193
000130 51 0e 0f bf bc b4 1d 3f 2d f7 08 3e ec f6 44 bf
       -0.5588122 0.61603904 0.1337554 -0.7693927
000140 47 7a 93 be 2f dc 09 bf b1 91 30 bf 44 4c c0 be
       -0.28804228 -0.538516 -0.6897231 -0.37558186
000150 1a 2a 0e bf 6a 52 94 3e 6a 4f ec be c8 44 90 bd
       -0.5553299 0.28969127 -0.46154338 -0.07044369
000160 9a 45 1d bf a1 41 e3 be c4 6a 10 bf 80 56 85 3e
       -0.6143433 -0.44386008 -0.5641291 0.26042557
000170 17 b5 14 bf f6 b1 59 be 72 43 07 bf b9 26 3f bf
       -0.5808882 -0.21259293 -0.5283729 -0.7466846
000180 e5 a0 e2 be d4 52 da be ce 0b 1f 3e a9 55 8b be
       -0.44263378 -0.42641318 0.15531847 -0.2721379

models.1.fc1.bias f4 [50]
000000 3d 66 c3 be b0 3b 63 3e b6 71 6e bc a1 a9 62 3f
       -0.3816394 0.22190738 -0.014553478 0.88540083
000010 33 c2 d5 3d 4b 5c 86 be 41 f1 0f 3f 28 4c 46 3f
       0.10437431 -0.2624229 0.562275 0.77459955
000020 88 11 de 3e 6d 5e 2c 3f ec 7c 76 bc 88 0e ca be
       0.4337275 0.6733158 -0.015044432 -0.3946421
000030 2b 39 0e bf 82 57 20 3e b8 b1 0b bf 26 8d 02 bf
       -0.5555598 0.15658382 -0.5456805 -0.50996625
000040 5d 4a 1a 3f 23 71 87 bd 14 40 06 3f 72 57 39 3f
       0.6026972 -0.06613376 0.52441525 0.72399056
000050 5e 03 f7 3e fc 29 bd bd af f8 d9 3e de 88 45 3d
       0.48244756 -0.092365235 0.42572543 0.04822623
000060 80 37 8c 3e 21 5c ba be 67 0e 00 bf e7 59 08 3f
       0.27386093 -0.36398414 -0.50021976 0.5326218
000070 87 af f9 be 9e 0c 94 3d df eb 86 3e 25 28 04 bf
       -0.4876673 0.07228969 0.2635183 -0.51623756
000080 f0 df 21 3c 00 6d 6d 3e cb de 0f be 06 f9 22 3f
       0.009880051 0.23186111 -0.14049833 0.6366123
000090 5a 4f b7 be db 20 bc be 9e ad 98 3e 71 28 6c be
       -0.35802728 -0.36743817 0.2981996 -0.23062302
0000a0 44 d0 42 be c6 83 33 3f 6a 38 d3 3e d1 6a a7 bd
       -0.1902476 0.70122945 0.41253978 -0.081746705
0000b0 e8 f1 0b 3f e9 c4 91 3e 95 aa ee be 9d 12 1c 3e
       0.54665995 0.28470543 -0.4661452 0.15241475
0000c0 aa b7 1c bf d1 f2 61 be
       -0.6121775 -0.22065283

models.1.fc2.weight f4 [5, 50]
000000 3e 48 10 3c 4c 9a 11 bd 83 25 80 be aa e6 63 3c
       0.008806286 -0.03554754 -0.2502862 0.013909975
000010 ef b1 a4 3c a6 c0 66 3d cf f9 8d bd 25 13 1c 3e
       0.020104377 0.056336068 -0.06932413 0.15241678
000020 f5 4c 11 3e 8d 89 cf 3d a8 f2 2e 3e bb d8 cb 3d
       0.14189513 0.101336576 0.17084754 0.099534474
000030 a3 6b 9d 3c e8 2d 58 3d fe e0 14 3e 36 a6 fe bc
       0.019216364 0.052778155 0.14538953 -0.031085115
000040 9f e7 6e 3e f7 58 38 be 0e 7f 76 bd 37 0c 63 be
       0.23330544 -0.18002687 -0.060179763 -0.22172628
000050 72 f9 42 be 88 51 86 bd 25 8c 24 be 70 62 a9 bd
       -0.19040468 -0.065585196 -0.16069086 -0.082707286
000060 6a d2 97 3d f2 38 39 be cd 9e 14 3d c2 2a 2e be
       0.0741318 -0.18088129 0.036284257 -0.17008498
000070 c7 44 95 3c 96 0c 4b 3d ac 50 13 be 72 28 c1 bc
       0.018221272 0.04957255 -0.14386243 -0.023578856
000080 87 c4 0e be 51 80 3d be 9c 23 3a 3d 47 c6 fb bd
       -0.13942157 -0.1850598 0.045444116 -0.12293678
000090 98 db 04 3d a4 65 71 be 67 36 1e 3d 35 14 be bc
       0.032435983 -0.23573929 0.0386261 -0.023202995
0000a0 b3 4a b1 bc 04 96 a8 3b 39 72 bb bd 2c ec 94 bb
       -0.021642065 0.0051448364 -0.091526456 -0.0045447554
0000b0 df 30 48 3d d1 bb 7c bd 4c e7 97 bd 25 91 06 be
       0.048874732 -0.061702553 -0.07417163 -0.13141306
0000c0 f3 ad 49 bd 4d a0 86 bd 69 d1 67 be f4 31 53 bc
       -0.049238157 -0.06573544 -0.22638477 -0.012890328
0000d0 20 d5 52 3e 0e f1 32 be 00 a5 99 3d a4 e5 c7 bd
       0.20589113 -0.17474768 0.075021744 -0.09760597
0000e0 41 d1 73 bd 71 19 bd bc d1 1f 1d bd dc ab 5a 3e
       -0.059525732 -0.02308342 -0.03836042 0.21354622
0000f0 ad e4 4c 3e 49 81 ce be 2d c5 58 bd f0 de 84 bb
       0.20009108 -0.40333012 -0.052922416 -0.0040548965
000100 b5 11 8c bd 67 fc cd bd 87 3d 23 3d 74 dc 26 bd
       -0.06839315 -0.100579076 0.0398536 -0.040737584
000110 37 cb 38 3d a6 a2 31 3e 06 4b 5d be eb 92 a6 bd
       0.045115676 0.17347202 -0.2161065 -0.08133491
000120 86 a3 7f bd 50 87 12 be d1 7a f2 3c be f3 45 bd
       -0.062411807 -0.1430943 0.029599579 -0.048328154
000130 6f 75 2b be 6c 5c ab bc b9 cb 3f be cc 6d 98 3c
       -0.16744016 -0.020918094 -0.18730058 0.018607043
000140 4c 48 93 bc 6f 64 6b bd f0 91 2e bd 1f 77 18 be
       -0.01797881 -0.057468828 -0.042619646 -0.14889191
000150 5e 48 62 3e 5d 3d 11 3e ea 04 73 3e c5 21 61 bd
       0.22097918 0.14183564 0.23732343 -0.054963846
000160 70 a4 53 3e e1 1b d6 3b 48 be c2 3c d9 57 29 be
       0.20668197 0.006534085 0.023772374 -0.16537417
000170 d5 b9 af bd 4f 94 2e bd 9a 2e 9f bc ce 23 70 bd
       -0.085803665 -0.042621907 -0.019431401 -0.058627896
000180 d3 3a 23 be 22 a7 5c bd 97 31 34 bd 58 e0 ff bd
       -0.15940408 -0.053870328 -0.043992605 -0.12493962
000190 e1 a7 d1 3d 37 14 13 be 2f 2b 74 bd 12 58 48 be
       0.102370985 -0.1436318 -0.059611496 -0.19564846
0001a0 2e 96 29 be 9d ff ef 3d 19 6b 0a 3c 52 66 47 be
       -0.16561195 0.11718676 0.008448386 -0.19472626
0001b0 6a b3 1e be 9f 22 b0 3b bc 42 01 be 04 05 8e be
       -0.15498129 0.005375221 -0.12623113 -0.27738202
0001c0 a0 dd 13 3d f2 f8 00 be 1a 03 03 be af 38 7b 3d
       0.03610003 -0.12594965 -0.12794152 0.061333355
0001d0 fd 46 69 bd 20 32 99 bc d8 05 60 bd b9 e0 5c 3e
       -0.056952465 -0.01870066 -0.054693073 0.215701
0001e0 e9 17 b4 3d 18 5e 64 3e b9 a1 10 3e 42 53 ae bc
       0.08793623 0.22301519 0.14124192 -0.021279935
0001f0 cf 9c 53 3d d0 16 38 be d1 aa 4a 3d f9 80 b4 3d
       0.051663216 -0.17977452 0.04947931 0.08813662
000200 f7 fd 44 be 15 1f d8 bd cd 04 a0 3d df aa 38 3c
       -0.19237505 -0.105528034 0.07813416 0.011271208
000210 20 7a 9e bd b5 b8 0d 3c 0c 6d 4c be 55 3e 73 bd
       -0.07738137 0.008649995 -0.19963473 -0.059385616
000220 fb bb 13 3d 49 7a b1 bd ae ab c4 3d 61 42 11 be
       0.036067944 -0.08665902 0.09603058 -0.14185478
000230 fa b9 e2 bc 15 be 4e 3d 98 80 a3 3d ac 10 81 bd
       -0.027676571 0.050474245 0.07983512 -0.06302008
000240 1d c2 cf 3c 51 9e 4d bd cd de 55 3c ad 90 66 bc
       0.025361115 -0.05019981 0.013053608 -0.014072579
000250 0e 62 4e be d0 7b 79 3d 19 8f 02 bc b8 56 12 be
       -0.20154592 0.060909092 -0.007968687 -0.14290893
000260 cf 7d 87 3d 3c 39 ee bd 14 5c 5a 3d df 6a f6 3c
       0.06615793 -0.1163201 0.05331047 0.030080257
000270 0d 80 3f 3e 5d ec 67 be 9d 45 fd 3c 4c d7 c3 bc
       0.18701191 -0.22648759 0.030916983 -0.023906372
000280 78 55 29 be 4e f7 bc be a1 31 08 3e ab b0 a0 3c
       -0.1653651 -0.36907429 0.13300182 0.019615492
000290 b7 19 2d 3d cf db 1e bd 4c 0c 29 be a7 4e 62 3d
       0.04226085 -0.038783845 -0.16508597 0.05525079
0002a0 c1 5d 17 3e 2a 18 3c 3c 85 7e e6 bc ba dc d1 bd
       0.14781858 0.011480371 -0.028136501 -0.102471784
0002b0 f1 bf 5a be 82 7d d6 3d b2 87 4f 3e e3 49 86 3c
       -0.21362282 0.104731575 0.20266607 0.016392654
0002c0 0c 15 ed bd 8f cb b5 3c 7a 17 9f bd 32 d2 7c bd
       -0.1157628 0.02219179 -0.0776815 -0.061723895
0002d0 14 b5 1f be 69 6b 34 be c7 50 71 bc b6 df 33 3e
       -0.1559642 -0.17619099 -0.0147287315 0.17565808
0002e0 52 d3 44 bd 8c ac 92 bd b5 0c 3f be d9 8e fd bc
       -0.048053093 -0.07161817 -0.18657191 -0.030951904
0002f0 a7 e0 ba bd f1 9e 17 bd b8 fd bd 3d 95 35 8a 3d
       -0.0912488 -0.037016813 0.09276909 0.06748501
000300 ce 54 26 bd f1 16 f1 3d 09 1d 14 3e 54 af 91 bd
       -0.04060822 0.11771954 0.14464201 -0.07113519
000310 75 75 0e 3e 12 87 15 3e 98 25 db 3b e2 36 3e be
       0.13911994 0.14602306 0.006687831 -0.18575624
000320 f4 e8 77 bd 5a 95 81 be 0b a1 28 be fb 6b f0 3c
       -0.060524896 -0.2530926 -0.16467683 0.029348364
000330 b9 a8 29 bc 75 b8 a5 bd f4 76 b4 bd 65 75 dd 3d
       -0.010355168 -0.08091823 -0.08811751 0.10813407
000340 b3 43 51 be 62 41 1a be 83 49 36 be 68 8b 0f 3e
       -0.20435981 -0.15064004 -0.1780148 0.14018023
000350 87 61 aa bd 66 49 e8 bc 41 a3 67 bd 40 0a 63 bd
       -0.08319383 -0.028355312 -0.056552175 -0.055429697
000360 b3 ac 30 3d db 9d 37 3e 6b c7 d2 bd 6e 6d ef bc
       0.04313345 0.17931311 -0.10291942 -0.029226985
000370 f6 70 49 be 11 17 4c be 91 42 e2 bd 33 99 ec bd
       -0.19671997 -0.19930674 -0.11047853 -0.11552658
000380 4e ec d9 bd c8 67 15 3e df 05 af 3c 91 22 1c be
       -0.10640775 0.1459037 0.021365104 -0.15247561
000390 ee 10 2a bd 33 c1 84 be a3 23 4a be 3d 4d 83 bd
       -0.04152005 -0.2592865 -0.19740157 -0.064112164
0003a0 10 77 07 be e8 97 56 3e c0 c7 c1 bd 8a b9 97 bd
       -0.13229012 0.20956385 -0.094619274 -0.07408436
0003b0 b6 bd c4 bb 2d 5c 26 3e ed bf ca bc b6 73 13 3e
       -0.0060040606 0.162461 -0.02474972 0.14399609
0003c0 59 d8 1f 3e 80 cc e9 bc c5 96 6a be be 52 94 bd
       0.15609874 -0.028539896 -0.22909077 -0.07242344
0003d0 6f 9c 71 bd 24 9c 1e be 27 1d c1 bd 07 97 2c 3e
       -0.058987077 -0.1548925 -0.094293885 0.16854487
0003e0 86 e5 9b bd 7d 21 12 3e
       -0.076121375 0.14270587

models.1.fc2.bias f4 [5]
000000 ec fe 42 bd 59 bf 41 be 79 59 4a bd 91 0b a0 3c
       -0.047606394 -0.1892065 -0.049401734 0.019536765
000010 fb 2d 23 3e
       0.15935509

models.2.fc1.weight f4 [50, 2]
000000 63 ae 4b 3e 68 6d aa 3e 3e 07 35 bf f5 af 24 3f
       0.19890742 0.33286595 -0.70714176 0.6433099
000010 8f df 3d 3f 40 46 f1 be 6a 98 06 bf 18 20 dd bc
       0.7416925 -0.4712391 -0.52576315 -0.026992843
000020 c8 8c 3b 3e 21 7e 3a bf e2 5f 3c bf 8c b3 b2 3d
       0.18315423 -0.7284871 -0.73583806 0.08725652
000030 eb e4 a9 be 3b bb e3 3e 12 e7 2e bf 9d d8 ad 3e
       -0.33182463 0.44478783 -0.68321335 0.33954325
000040 1f f6 47 3f af aa 1a bf 74 7a 33 3e 24 90 35 bf
       0.78109926 -0.6041669 0.17527181 -0.70923066
000050 e1 38 d7 be d5 c0 2d bd 7c 1b 08 bf 11 52 f9 3e
       -0.42035583 -0.042420227 -0.5316694 0.48695424
000060 2d 38 c8 3d 55 2a cf 3e 0e b4 75 3d 8f c2 04 bf
       0.0977634 0.40461984 0.059986167 -0.5185937
000070 24 24 25 bf a1 91 33 3e c3 ac ff bd 8c f7 47 3f
       -0.6450827 0.17536022 -0.124841236 0.781121
000080 da d6 a0 bd 04 e9 14 3f ac 73 34 be d5 7d d8 be
       -0.0785348 0.58168054 -0.1762225 -0.42283502
000090 29 05 95 3e 1c 79 b2 be f1 a9 2f bf cd 28 5a 3d
       0.291055 -0.34858024 -0.68618685 0.053261567
0000a0 83 40 2d be c6 3c 04 bd 6d 48 1b bf 19 b8 1f be
       -0.1691914 -0.03228452 -0.6065739 -0.15597571
0000b0 9b fe 04 bf e5 09 30 3f 72 08 2c bf 61 c8 b5 3d
       -0.51951 0.687651 -0.67200387 0.0887611
0000c0 3e bf a4 be f0 f8 f9 be bb 16 21 3f f8 e6 4e bf
       -0.32177156 -0.48822737 0.6292531 -0.8082118
0000d0 6a f2 47 bf 65 75 3f be db 0f e8 be 60 78 fd be
       -0.7810427 -0.18697126 -0.45324597 -0.495059
0000e0 90 4f e2 3b 8a 9c 45 bf d1 71 32 bd 46 50 d3 be
       0.0069064572 -0.77191985 -0.043565575 -0.4127218
0000f0 05 2c a4 bd 96 a7 8d be 75 94 29 bf 73 93 80 3e
       -0.080162086 -0.2766692 -0.6624215 0.25112495
000100 b3 a3 04 bf 04 1c 8a be 5a cd 3e 3d 1f 60 f7 be
       -0.51812285 -0.269745 0.046582557 -0.48315522
000110 7e 7b 4b 3f 82 75 52 3e cf 4f 95 3e 81 6a 99 3e
       0.7948531 0.20552638 0.29162452 0.2996407
000120 8c 86 2a 3e f1 1a 1c 3f e5 62 15 3f 87 32 16 3f
       0.16652888 0.6097861 0.58354026 0.5867085
000130 b0 f1 06 3f a9 98 11 3f 0d b6 07 3f b3 e2 a9 be
       0.52712536 0.56873566 0.5301216 -0.3318077
000140 db 81 30 bf 77 5e c8 3e 68 e2 34 bf dd 66 74 be
       -0.68948144 0.3913457 -0.7065797 -0.23867364
000150 8b b8 15 3f 98 d3 d6 be 2c ec 96 be 71 ac 37 3e
       0.58484715 -0.41958308 -0.2947706 0.17936875
000160 7d ec c7 3e ed b7 96 3e c9 6e 10 3f da 11 58 3f
       0.39047614 0.294372 0.56419045 0.8440224
000170 da b8 17 bf b2 27 09 bf c6 6b dc bd df f9 92 be
       -0.59266436 -0.53576195 -0.10762744 -0.28706262
000180 c9 cb 47 3f e3 f3 18 bf 2c 91 cd 3e 3f 68 8e 3e
       0.78045326 -0.5974714 0.4014982 0.27813908

models.2.fc1.bias f4 [50]
000000 17 bb 7f 3e 5d 0b 0c bd 51 73 0f 3f 16 ea 5c 3d
       0.24973713 -0.034190524 0.56035334 0.05393418
000010 bd b1 40 3f f8 41 2c 3f 18 d5 20 3f f0 64 d2 be
       0.7527121 0.6728816 0.62825155 -0.41092634
000020 de 12 d4 be 55 6c b1 be af 86 17 bf 5f a4 1a bf
       -0.41420645 -0.34652963 -0.59189886 -0.6040706
000030 14 7f 0e bf fc 3a 22 3f 36 17 44 3e 93 54 0f 3f
       -0.55662656 0.63371253 0.1914948 0.55988425
000040 5b e3 18 3f c5 9d b7 3e 7a 86 2f 3f d0 fe e1 3d
       0.59721917 0.35862556 0.6856457 0.1103493
000050 e0 32 87 3e 20 36 b3 be a0 b9 52 3e a4 b4 10 3e
       0.26406002 -0.35002232 0.20578623 0.14131409
000060 96 ea 90 be 4b 65 1c bf c0 d4 ef be 5d 36 88 be
       -0.28303975 -0.6109206 -0.46842003 -0.26603976
000070 fb eb 26 3f 7a 00 4c 3f ad f2 aa 3e 4d c9 69 be
       0.6520383 0.7968823 0.33388272 -0.22830696
000080 70 4d 26 3f b3 2c c1 bd 20 b1 9a 3e 5e a4 92 be
       0.6496191 -0.09432354 0.3021326 -0.28641027
000090 3c 8c f9 bd 32 dd 20 3f 3d be 22 3f bc f9 c6 3e
       -0.12184951 0.6283752 0.6357153 0.38862407
0000a0 31 cc 97 3e 7e 6f 09 bf 60 e9 8a 3e d6 f3 02 bf
       0.29647973 -0.5368575 0.27131176 -0.51153314
0000b0 ac 55 0f 3e 1c 02 0b bf 42 2b c9 3d 19 a5 bb bb
       0.13997525 -0.54300094 0.09822704 -0.0057264683
0000c0 0c 27 d2 3e c1 20 20 3f
       0.41045415 0.6254998

models.2.fc2.weight f4 [5, 50]
000000 44 d9 90 bd ff e3 36 be 0d 4e fd 3d 5c 96 3e be
       -0.0707269 -0.17860411 0.12368403 -0.18612045
000010 c3 cf 47 bd 7b 53 95 bb 8e de 01 be ea 5f 68 3c
       -0.04878212 -0.004557071 -0.12682554 0.014183024
000020 5e 88 04 3e 8f 16 ed bd f4 36 20 be d6 32 52 bc
       0.12942645 -0.11576568 -0.15645963 -0.012829503
000030 1b 7b 1d be e0 af 16 bd 37 b2 bb bd 6a fb a1 bd
       -0.15378992 -0.03678882 -0.09164851 -0.079092816
000040 5e 72 f6 bd 06 6b 77 be ff ad 66 3d 88 01 f2 3c
       -0.120335326 -0.2416192 0.05631828 0.029541746
000050 e9 70 6e 3d 12 a8 10 be ce ad 5c be b4 f9 26 be
       0.05821315 -0.14126614 -0.21550676 -0.16306192
000060 9f 27 e6 3c 24 37 c8 bd 56 9e c3 bd fa 14 e1 bc
       0.028095065 -0.09776142 -0.095516846 -0.027475823
000070 e5 8e dc bd 1a dd 37 3d ce 83 bb bd 69 41 70 3d
       -0.107694425 0.044888593 -0.09155999 0.05865613
000080 84 05 8d bd 9e 88 38 be c0 ca 7c 3e 12 c8 7a bd
       -0.06885818 -0.18020865 0.24686718 -0.06122596
000090 79 63 0d be bd de 07 3e d4 69 89 bc 0a 64 1b 3e
       -0.13807477 0.13268562 -0.016774096 0.1517488
0000a0 a2 3d ef bd 89 f8 54 3d 82 4c 3a 3e ee f3 14 be
       -0.116816774 0.051994834 0.18193248 -0.14546177
0000b0 b4 fc 54 3e 7e 33 9f 3d 38 74 33 3d f6 2c f1 bd
       0.20799524 0.07773493 0.043812007 -0.11776154
0000c0 d2 0e c1 3d c6 80 5d 3e ff b9 e4 3d 71 fb a4 3d
       0.09426655 0.21631154 0.111682884 0.08055771
0000d0 06 08 6c bd 09 71 72 bd 99 ae 15 be 57 29 b0 bd
       -0.05762484 -0.05918983 -0.14617385 -0.08601635
0000e0 e0 07 dc 3d 7b 65 58 bd 40 e6 c1 bd fa 89 6a bd
       0.107436895 -0.052831154 -0.09467745 -0.05726049
0000f0 99 d1 6c bd 61 26 1e be fa d7 2c 3e fa ef 0f 3c
       -0.057817075 -0.15444328 0.16879264 0.008785242
000100 23 da 58 3c 67 e1 57 3e 14 ca 82 bc bc af 80 bb
       0.013235602 0.21082078 -0.015965499 -0.003927199
000110 2c 86 a3 bd 60 69 a8 bb 16 ec 34 be db a7 59 be
       -0.07984576 -0.005139515 -0.17668185 -0.21255438
000120 be 8c 05 3e c7 cc 1b 3d f4 88 84 3d 36 6f 55 3d
       0.1304197 0.038037088 0.06471434 0.052108012
000130 3c a0 48 3d 9c 79 94 3d 79 62 2c be d4 6d 96 bd
       0.048980936 0.07249758 -0.1683444 -0.07345167
000140 09 65 a1 3d 0e c2 9b 3b 1e 24 53 be a2 75 47 be
       0.07880599 0.0047533577 -0.20619246 -0.19478467
000150 9e fc bf bc 17 fc ed 3d 4f a5 43 3e 75 ab b7 3d
       -0.023435887 0.11620348 0.19106029 0.0896825
000160 3d 0c 46 3d b3 4c 25 be 6f a0 fb bd 33 ed 23 be
       0.048351515 -0.1614254 -0.1228646 -0.16008453
000170 29 33 95 bc 96 78 82 be 2c ce b9 3c df fd 38 3e
       -0.018212872 -0.25482625 0.022681318 0.18065594
000180 ec ef 11 bd cd c1 0a be 6b ec f4 3c 3e c0 31 bd
       -0.035629198 -0.13550492 0.02989789 -0.043396227
000190 aa 16 35 be 55 78 22 3e 02 15 11 be f3 8b 04 3e
       -0.17684427 0.15866216 -0.1416817 0.12944011
0001a0 30 d5 f5 bd ea a3 46 3e 82 d4 a2 3c 2c 6f 90 3c
       -0.12003553 0.19398466 0.019876722 0.017631136
0001b0 a0 36 6b bd ac cc c0 bd 2e da 9d bd 3e f3 ea 3d
       -0.05742514 -0.09414038 -0.0770763 0.11472176
0001c0 a8 40 fd bc ea 3d 5d be 03 b9 18 bd 53 95 f2 3d
       -0.03091462 -0.2160565 -0.037285816 0.118448876
0001d0 c9 ff 2d 3e cc 92 01 bd 52 4a 02 be bd 59 e3 3c
       0.16992106 -0.031634137 -0.12723663 0.027752751
0001e0 c4 e6 33 bd bb ee 33 3e 52 93 62 3c 32 ec 64 3e
       -0.043921247 0.17571537 0.013829069 0.22355726
0001f0 35 df 9b bd 7d 15 80 3d 0b 45 0b 3e 22 e8 c1 bd
       -0.07610933 0.062540986 0.13600557 -0.09468104
000200 7f 1b 5d bd a1 18 1a be 36 f6 d1 bd fd 23 49 3e
       -0.0539813 -0.15048458 -0.10252039 0.19642635
000210 a9 8a bc bd 11 30 90 bd 82 86 c9 bd 8d ba 6e be
       -0.09206135 -0.07040418 -0.098401085 -0.23313351
000220 c8 a6 c1 3c dd 18 36 be ed 73 7f bd d1 18 11 be
       0.023639098 -0.17782922 -0.062366415 -0.14169623
000230 46 7a bc 3d eb 2c fa 3d 92 6d 2f be 8b ea 20 3e
       0.09203009 0.12215599 -0.17131642 0.15714471
000240 63 26 43 be d7 c7 7f 3c f4 18 22 be bb 2d 5a be
       -0.19057612 0.01561161 -0.15829831 -0.21306507
000250 a6 c3 2e be 82 42 2f be 3f 08 fe 3c ef d4 32 3d
       -0.17066821 -0.17115214 0.031009791 0.0436601
000260 66 5d ca bd ce c3 17 bd f3 82 0e 3e 01 90 58 3e
       -0.098810956 -0.03705197 0.1391714 0.21148683
000270 56 4d 48 be ef 5a 17 3c d5 0b 4c be 00 d7 26 3d
       -0.19560751 0.009237989 -0.19926389 0.040732384
000280 17 38 34 3e 30 b2 5e be f9 45 a0 3c 26 32 15 3e
       0.17599522 -0.2174766 0.019564616 0.14569911
000290 1e 58 32 3e 6a f1 a1 bd 23 0d 4a be 19 82 b8 3d
       0.17416427 -0.07907374 -0.19731574 0.09009189
0002a0 b0 5b c3 bd 10 df d1 3d 79 97 10 ba 2b 5f 58 3e
       -0.095389724 0.10247624 -0.0005515735 0.21130054
0002b0 1a e7 e8 bd e0 1c de 3d ce 99 cf 3d c1 82 40 be
       -0.11372204 0.10845351 0.10136758 -0.18799879
0002c0 2c 89 c7 3d 1b 97 6e 3b 2c 7d 31 3e 41 8d 4a 3e
       0.0974296 0.0036405984 0.17332906 0.19780447
0002d0 c1 15 05 3e cd c4 8a 3d 6e 98 ac 3d fc d1 e2 3d
       0.1299658 0.06775818 0.08427511 0.110752076
0002e0 cd 2b 5f bc 47 6e 16 3d 20 01 45 3b 84 ab 19 be
       -0.013621283 0.036726262 0.0030060485 -0.15006834
0002f0 37 5f f5 bd d2 79 6b be 96 59 1c be a1 fa 05 bc
       -0.119810514 -0.2299569 -0.1526855 -0.00817743
000300 7d a7 99 bc 29 a2 d5 bd 84 49 10 be 7a 5a 3a 3d
       -0.018756622 -0.1043132 -0.14090544 0.04549644
000310 b0 8c 50 3d 5b 96 28 3e 96 11 83 be f0 d8 46 be
       0.05091542 0.16463606 -0.25599355 -0.19418693
000320 df 28 6c bd 74 29 99 bd f6 25 80 3b d7 70 e6 bc
       -0.057656165 -0.0747861 0.0039107753 -0.028129978
000330 b8 1e dc 3d a8 42 8b bd 81 10 20 be 75 6e 35 be
       0.10748047 -0.06799823 -0.15631296 -0.17717917
000340 75 76 4b bc 00 9b 43 3e 04 a4 f0 3b e1 6d eb 3c
       -0.012418379 0.19102097 0.007343771 0.028738918
000350 2a 90 b8 bc 41 94 5d 3e c9 41 92 3b 0d ed 8a bd
       -0.02252968 0.21638586 0.0044634086 -0.06783495
000360 67 af 11 3d f6 0e 3a 3c a8 22 64 bc b7 81 f9 bd
       0.035567667 0.011356106 -0.013924278 -0.12182944
000370 fc fc ea bc 29 10 56 be 43 1b 0e 3d 7b f6 89 bd
       -0.028685085 -0.20904602 0.034693968 -0.067364655
000380 e1 1d 88 3d 36 b3 2e 3e aa 5b 17 be 77 34 24 3c
       0.06646324 0.17060551 -0.14781061 0.010022274
000390 d1 f0 31 3e da 9c 32 3e f0 6c 52 3e a5 5e 04 be
       0.1737702 0.17442647 0.20549369 -0.12926729
0003a0 ec 2e 35 3d f4 8a 12 3e 1b 90 a9 bd 6e 88 65 bd
       0.0442342 0.14310819 -0.08279439 -0.056038313
0003b0 13 c7 01 be 8e d8 72 be a1 45 7f be 80 15 39 bd
       -0.12673597 -0.23715422 -0.24928905 -0.04518652
0003c0 2b f8 43 be 08 15 4d be f2 3a 04 3e c1 3e fe bd
       -0.19137637 -0.20027554 0.12913111 -0.12414313
0003d0 a5 6b 58 be 03 55 36 be a4 34 87 3c c7 a6 0b 3e
       -0.21134813 -0.17805867 0.016504593 0.1363784
0003e0 04 2d a4 bc 2f cd e0 bd
       -0.020040996 -0.10976636

models.2.fc2.bias f4 [5]
000000 b4 d0 9e bd dd 06 92 3d 53 17 9d bd 77 b6 1d 3d
       -0.07754651 0.07130215 -0.07670464 0.03850409
000010 cf 8e 67 bd
       -0.056532677

models.3.fc1.weight f4 [50, 2]
000000 29 89 0e bf a2 25 3d 3f 9f 13 0a bf 0c bc 36 bf
       -0.5567804 0.7388555 -0.5393619 -0.71380687
000010 a0 95 af 3e 2a 48 2f be 0c c7 bf 3e cc 89 e2 bd
       0.34293842 -0.17117372 0.37456548 -0.11061439
000020 e2 e4 ab 3e 6a 3f 65 be 1a 7e c5 3e 8b a4 f4 be
       0.3357306 -0.22387472 0.3857277 -0.47781786
000030 c5 9a 40 3e f2 0e b2 3e 57 27 2d bf a4 89 3a be
       0.1880904 0.34777027 -0.6763815 -0.18216568
000040 e9 2e ba be 0d ae 5b 3e e2 47 f1 3e ca 46 2a bf
       -0.36363915 0.21453114 0.47125155 -0.66514266
000050 2c ac c2 bd ac 14 f5 3e d3 6b 42 bd 4f 7e 11 3f
       -0.095054954 0.47867334 -0.04746611 0.56833357
000060 7a ce 7c 3d ea cd 82 be 7b 90 12 3f d7 ea 17 3f
       0.06172035 -0.25547725 0.5725171 0.5934271
000070 16 90 38 3f ed 37 b3 bd 32 07 83 3e ca 9f fa 3e
       0.7209486 -0.08750901 0.25591427 0.48950034
000080 b9 0d 5e be 6e 72 3c bf 93 94 64 be e6 61 db 3e
       -0.21684922 -0.73612106 -0.22322302 0.42848128
000090 f0 50 15 bf 57 91 08 bf c8 d2 1d 3f 5c b1 5a 3e
       -0.58326626 -0.5334677 0.6164975 0.2135672
0000a0 23 e9 28 3f e7 14 f7 be 79 55 bd be 1c 3a 3b bf
       0.6598074 -0.48258135 -0.36979273 -0.7313554
0000b0 cd 04 1d bf a8 18 c7 3e 9b 54 1d 3f 31 33 02 3f
       -0.6133545 0.38886 0.6145722 0.5085936
0000c0 1a 57 7d be 66 a7 f4 be b5 60 3f 3f 53 19 ae 3e
       -0.24740258 -0.47783965 0.7475694 0.34003696
0000d0 b2 fb 34 bf 99 60 7d 3d 92 81 f2 be 0d 6f 1e 3f
       -0.70696557 0.0618597 -0.4736448 0.618882
0000e0 82 43 32 3f 05 cb 9b 3e a6 20 0a bf ef 94 89 3e
       0.6963426 0.3042833 -0.5395607 0.2687144
0000f0 6e fa f7 3e 03 6f 28 be 9c 6c 02 bf 4e 82 8e be
       0.4843325 -0.16448598 -0.50946975 -0.2783379
000100 99 ec 00 3f 4a 18 03 bf 88 99 93 3d b5 6c 43 3f
       0.5036102 -0.5120894 0.07207018 0.7633775
000110 3b 98 34 3f 82 85 8c be a1 ed a1 bd 98 ed 07 bf
       0.70544785 -0.27445608 -0.07906652 -0.53096914
000120 ff 85 0a 3f 54 a0 c9 3e a2 b2 15 3f c9 52 76 3e
       0.5411071 0.39380133 0.584757 0.24055018
000130 53 69 19 be ae 49 0b 3f 1f d4 2f bf 92 61 47 bf
       -0.14981584 0.544093 -0.68683046 -0.77883255
000140 08 1f 9d 3e 7c 36 d6 be 54 4f 16 3f de 45 ed be
       0.30687737 -0.41838443 0.58714795 -0.46342367
000150 e1 7c 00 3f 71 e7 e5 3e 39 11 c3 be 00 04 bd 3e
       0.5019055 0.44903138 -0.38099077 0.36917114
000160 dd 49 3f 3f 3d 54 f0 3e 6d cd 03 3f fa fb 3d 3e
       0.7472208 0.4693927 0.5148533 0.18553153
000170 1b a5 63 be 3f 78 00 3f 2b ec 1d 3f 6b 9a 40 bf
       -0.22230951 0.5018348 0.6168849 -0.75235623
000180 b8 02 fd be 2d 70 1f bf 99 d8 7a bd ed f0 4d bf
       -0.49416137 -0.6228054 -0.06124172 -0.8044575

models.3.fc1.bias f4 [50]
000000 99 5c 00 bf c3 f9 85 be cb 1c 78 3e 07 26 fe be
       -0.5014129 -0.26167116 0.24229734 -0.49638388
000010 5c 8c 4d be 54 5e fa 3e 82 ae dc 3e d1 57 50 be
       -0.20073074 0.48900092 0.4310189 -0.20346
000020 d4 f8 d1 bc 84 95 d6 be 45 b5 46 be dc c7 83 be
       -0.025631346 -0.41910946 -0.19405086 -0.25738418
000030 66 d8 8d 3e 0f 80 2e bf a0 a0 ed 3b ab 49 f2 3d
       0.2770416 -0.6816415 0.007251814 0.11830457
000040 1a 77 30 3f e0 5b 25 3e f6 4f 17 3f 23 ce c0 be
       0.68931735 0.16148329 0.59106386 -0.3765727
000050 4e 91 cd 3d 0e f9 23 3e 3c 55 4c 3f 1c e3 01 3f
       0.1003748 0.16012976 0.7981756 0.50737166
000060 55 52 19 3f ab f0 28 3f 95 1c d3 be e7 da c3 3e
       0.59891254 0.6599223 -0.41232744 0.38252947
000070 3c 9c 28 3f 9c ab 9f 3e 29 09 27 3d a4 be d8 3e
       0.65863395 0.31185615 0.04078022 0.42332947
000080 c4 a1 2b be ec 4e 5c 3d 34 d3 8e bd 0f fc 25 3f
       -0.16760927 0.053786203 -0.069738775 0.64837736
000090 70 6d 28 bf 4a 30 49 be c5 45 f9 3d 89 49 9c be
       -0.6579199 -0.19647327 0.121715106 -0.30524853
0000a0 38 b9 cb 3e cc 35 ad be 57 4c 0a be 33 0c 23 bf
       0.39789748 -0.33830106 -0.13505684 -0.6369049
0000b0 7b a5 ab 3e db 25 32 bf 6a 02 09 3f bb e2 48 bd
       0.3352469 -0.6958901 0.5351931 -0.049044352
0000c0 d9 d0 94 3c 7e f9 c9 3e
       0.018165993 0.3944816

models.3.fc2.weight f4 [5, 50]
000000 f6 90 2c bd 3e 98 67 be d9 a7 2b 3e 6e 6f 5d 3e
       -0.042130433 -0.2261667 0.16763248 0.21624538
000010 5d f8 2c bd 74 76 06 3d db ce 08 be c9 66 30 3d
       -0.042229045 0.03282781 -0.13360159 0.043066774
000020 18 4b 0c 3d 9a b4 4b bd c3 45 e0 3c 5c 5f c2 bd
       0.034251302 -0.049732782 0.027377015 -0.094908446
000030 ee cb aa bd f2 8d 78 bc b3 4e 50 3e 17 f3 db bb
       -0.08339678 -0.015170561 0.20342521 -0.006712328
000040 84 74 67 bd 45 ca 83 bd a4 a6 d7 bd 0c 92 37 bd
       -0.056507602 -0.06435064 -0.10529831 -0.044817016
000050 92 f2 70 3d e5 0f f0 bd 8a 13 3d be a2 c5 58 3d
       0.058825083 -0.11721782 -0.18464485 0.052922852
000060 78 0b 42 be 8c 11 1d 3e 74 60 36 be 7f 9b 84 3c
       -0.18949687 0.15338725 -0.17810231 0.016187428
000070 19 1d 4d 3d 1a 18 97 bc 2b c0 4e 3e f7 29 48 be
       0.050076578 -0.01844411 0.20190494 -0.19547258
000080 39 26 c8 3d 62 88 98 bd b2 e6 11 3e d0 0c 4d be
       0.097729154 -0.07447888 0.1424816 -0.20024419
000090 10 af d2 3d 0a 0f 88 bc 4b 46 56 be 5e 81 4c be
       0.10287297 -0.016608734 -0.20925252 -0.19971225
0000a0 2a e8 fb 3c 36 dc de 3d 11 ed f3 3c 42 ce 59 bd
       0.030750353 0.10881846 0.029776128 -0.05317522
0000b0 32 33 b1 3d 8c 6d 11 3e b0 8c 2f be 34 a8 57 bd
       0.08652343 0.14201945 -0.17143512 -0.052650645
0000c0 93 40 65 3c 4c b2 b0 bd 49 2d 08 3d 16 1c be bd
       0.0139924465 -0.086277574 0.033246312 -0.09282701
0000d0 78 d8 6d bd 9e 80 e8 bd 45 c4 35 be 01 3c b5 bd
       -0.05806777 -0.11352657 -0.17750652 -0.088493355
0000e0 86 9b 5c 3d 77 0e 5f be 1b 5f 0b be 5a 71 2b be
       0.053859256 -0.21782862 -0.13610499 -0.16742459
0000f0 b1 e0 a7 3d dc 0e bd 3c a0 f8 be bd d1 3c 34 bc
       0.08197153 0.023078375 -0.09324765 -0.011000828
000100 8e b2 b8 3d 6b d4 7e 3e d1 d2 ad bd 47 54 0a 3e
       0.090184316 0.24885719 -0.08487476 0.13508712
000110 94 61 d1 bd 2c df 25 3e 75 74 2b be a9 49 53 be
       -0.1022369 0.16198415 -0.16743644 -0.20633568
000120 06 b9 f0 3c 05 a8 9b bc f9 4b 83 bd f2 0e 39 3d
       0.029385101 -0.019001016 -0.06410975 0.04518027
000130 be a5 81 bd e7 28 39 bd 73 53 46 3e c5 5a 8a bd
       -0.06330441 -0.045205023 0.19367771 -0.06755594
000140 5d 6f 0a be 22 d9 6e be 5d 0b 80 bd f6 9a 4b 3e
       -0.13519044 -0.23325017 -0.062521674 0.19883332
000150 60 cb 00 be 2b 29 4b bd c1 4b 06 bd 26 9f cb 3d
       -0.12577581 -0.049599808 -0.03278709 0.099424645
000160 32 9f d7 3d 69 f5 11 be c0 e8 b0 bd a9 58 91 be
       0.10528411 -0.14253773 -0.086381435 -0.28387955
000170 47 1e cb bc b0 70 84 bd 3c f4 95 3d 6e 13 34 bd
       -0.02479471 -0.06466806 0.07321975 -0.043963842
000180 a7 ed 07 bd 98 f7 63 be 20 ac 2c 3d 53 35 08 be
       -0.033185627 -0.22262418 0.04215634 -0.13301592
000190 c3 2c 24 3e 07 cb 34 be c1 9f a1 3d 77 de b4 3c
       0.160327 -0.17655574 0.07891799 0.022078736
0001a0 60 0f 28 be 2a 0e 31 3d 60 6f 8f bc 4c 58 2a 3d
       -0.16412115 0.0432264 -0.017509162 0.041588113
0001b0 b2 9e df bc 3d 1c a3 bd de 7b 13 3d 26 c7 83 bd
       -0.027297352 -0.079643704 0.0360068 -0.06434469
0001c0 ed a6 41 be c9 43 7e be ff 3f 3f 3d d4 30 90 bc
       -0.18911333 -0.24830545 0.04669189 -0.017601408
0001d0 b3 89 65 3d ec 1a 7a 3e 61 4b de 3c 9a d4 86 bc
       0.056039523 0.24424332 0.027135553 -0.016458798
0001e0 55 7f 09 3d fc 4e 62 bd b8 15 18 3e 4b b2 e5 bd
       0.0335687 -0.055251107 0.14852035 -0.11215647
0001f0 a6 3e 48 be c9 ad bf bd fc 35 19 3e 13 f8 c6 3d
       -0.19555148 -0.09359319 0.14962 0.09715285
000200 90 07 71 be 83 9a 92 3d e1 20 47 be a9 40 1a 3e
       -0.23538041 0.07158377 -0.19446136 0.15063728
000210 b2 45 47 be 74 97 10 3e ed b6 46 3d 6c 1f 3d be
       -0.1946018 0.14120275 0.048514295 -0.18469018
000220 f4 9d 5c bd 03 56 6d be 84 d9 3a 3a 23 b2 d0 3c
       -0.053861573 -0.23177342 0.0007127749 0.025475567
000230 bd 52 0b 3d ce 1c 42 be 55 27 ea bb b4 9f ea bc
       0.034014452 -0.189563 -0.007145802 -0.028640606
000240 b1 2a 01 be 8e f4 20 be 0e 4b ab 3d 98 e0 d6 ba
       -0.12613942 -0.1571829 0.08363925 -0.0016393838
000250 fb e7 5e be 3b 35 5b be 5d e5 6a be b2 53 da bc
       -0.21768181 -0.21407025 -0.22939058 -0.026651237
000260 44 62 3a be 46 01 6b bd 00 6b e5 bd 16 fd 31 bd
       -0.18201548 -0.05737426 -0.11202049 -0.043454252
000270 4a 27 40 be 3c 47 e1 3d bf 87 80 bd 03 31 87 be
       -0.18764988 0.10999915 -0.062758915 -0.2640458
000280 4d 4d a5 3c 7b 5e b3 bd ac eb 5c 3d 9f fd 87 3d
       0.020178461 -0.08758255 0.05393569 0.06640171
000290 57 d1 1b be dc 7a 38 bd 03 34 08 3e c1 5d 6f be
       -0.15216576 -0.045039043 0.13301091 -0.23375608
0002a0 0a 21 c4 bb e1 71 be 3c 5d ff 4e bd 47 0c b6 3d
       -0.005985384 0.023247661 -0.050536502 0.088890605
0002b0 b3 98 f8 3d 47 2a 78 bc 04 90 12 3e 26 99 d2 bd
       0.121385 -0.015146798 0.1431275 -0.10283117
0002c0 27 69 71 bd bc 7c bc bc a9 02 29 be c4 ec a5 bc
       -0.05893817 -0.023008697 -0.16504921 -0.0202545
0002d0 fb 77 13 be 13 66 bc bc 69 31 8a be 21 09 3f be
       -0.14401238 -0.022997892 -0.26990822 -0.18655826
0002e0 36 10 3a be 04 79 d0 3d 8b b7 4a 3d e7 6b 44 be
       -0.18170246 0.10179332 0.049491446 -0.19181786
0002f0 eb a6 5e bd ae af 2b 3e 80 5f b9 bd ba 87 13 be
       -0.054358404 0.16766235 -0.09051418 -0.14407244
000300 93 e4 ff bd a5 df ce bd ba 11 f5 bd ad 18 a8 bd
       -0.12494769 -0.101012506 -0.11966272 -0.082078315
000310 fb a2 bf bd 1b aa 6a be 6d 8c 4b 3e aa c7 08 3e
       -0.09357258 -0.22916453 0.19877787 0.13357416
000320 95 3e 43 be 50 0f 6c bd ff 92 d1 3c dd a0 00 bd
       -0.19066842 -0.05763179 0.025582789 -0.03140341
000330 1b fd a7 3d 87 b6 b1 3d d9 06 08 be 71 49 75 be
       0.08202573 0.086773925 -0.13283862 -0.23953797
000340 c5 7f 19 bc 5d 1e 18 3d 58 d3 3f be 2d cd d7 bc
       -0.009368842 0.03713833 -0.18732965 -0.026342953
000350 75 ca 16 3e ed f4 aa 3c 17 e2 d1 3c 9a f8 7a bc
       0.14725669 0.020868743 0.025620503 -0.01531806
000360 45 8b 9e 3d ff 8b 57 bd 65 77 1c bd 02 cd da ba
       0.07741407 -0.052623745 -0.0381998 -0.0016693177
000370 8a a3 ba 3d 58 97 b8 3d ec 2a 1a be bc 1b 36 be
       0.09113224 0.090132415 -0.15055436 -0.17784017
000380 9d c3 ac 3d a4 4d 53 bd e1 f9 10 bd ad cf b4 bd
       0.08435748 -0.051587716 -0.035394553 -0.088286735
000390 42 89 ac bc 7e 83 a8 3c f3 d7 b4 3d 50 f1 07 bc
       -0.021061543 0.020570513 0.088302515 -0.0082972795
0003a0 b6 b7 40 3e cc e0 ef bd 0d 94 0a be 3d 60 66 3a
       0.1882008 -0.117127985 -0.1353304 0.00087881443
0003b0 98 f5 01 be 73 94 41 be 9a a5 08 be 5a 08 18 bd
       -0.12691343 -0.18904285 -0.13344422 -0.03711734
0003c0 72 76 19 3e 3f e2 85 3c 0e 95 d4 3c 0c ea 41 3d
       0.1498659 0.016343234 0.025949981 0.047342345
0003d0 04 c2 9b bb a9 60 e1 bb f3 90 00 3d 13 4f f0 3d
       -0.004753353 -0.006877978 0.031388234 0.11733832
0003e0 38 58 d4 bd 5e 6e f0 3d
       -0.10368389 0.11739801

models.3.fc2.bias f4 [5]
000000 07 08 f8 bc fb 46 83 3b 37 13 8e 3d c2 76 9a 3d
       -0.030277265 0.0040062643 0.06937259 0.075421825
000010 9a b4 0a be
       -0.13545457

models.4.fc1.weight f4 [50, 2]
000000 51 89 10 bf f8 f6 96 3e 83 77 07 3f 63 17 cf be
       -0.5645953 0.29485297 0.52916735 -0.4044753
000010 fe 8e b5 3e 5d 76 24 3f aa f0 25 3f 89 b0 21 bf
       0.35460657 0.6424311 0.6482035 -0.63159996
000020 95 4a 9b be 27 b0 6e be 25 e3 04 3f c9 0c 11 3f
       -0.3033034 -0.23309384 0.51909095 0.56660134
000030 7f b1 f8 be b8 57 42 bf e6 4e a9 3e c0 af c0 3e
       -0.4857292 -0.759151 0.33068007 0.37634087
000040 c6 31 43 bf 83 3d d2 bc 89 c6 b7 3e da 29 19 bf
       -0.76247823 -0.025664097 0.35893658 -0.59829485
000050 31 c2 58 3e b5 fa a8 be fd b5 31 bf c5 9c 96 3e
       0.21167828 -0.33003774 -0.6941832 0.2941648
000060 b5 78 82 be c8 a2 be 3e a2 8b d7 be c7 bf e4 be
       -0.25482717 0.37233567 -0.4209872 -0.44677565
000070 00 77 e2 3e c3 7c 72 be 36 97 a2 be f1 3a 34 3d
       0.44231415 -0.23680405 -0.3175599 0.044001523
000080 95 66 76 bc 37 79 3a bf 6d 76 44 be 35 17 11 bf
       -0.015039106 -0.7284121 -0.19185801 -0.56676036
000090 eb f7 38 bf 7c d6 4a 3e 25 26 98 3e c3 96 1f 3f
       -0.7225329 0.19808382 0.29716602 0.6233942
0000a0 b5 c9 c5 3e 1f 67 ac be e5 2f bb be b8 70 af 3e
       0.38630453 -0.33672425 -0.36559978 0.34265685
0000b0 43 97 f7 3e 02 cb 2d bf ec d0 34 3f 8f bd 06 3f
       0.4835759 -0.6788789 0.7063129 0.52632993
0000c0 c5 02 38 3f 7f bf 9e 3e 79 88 5b 3e b4 1e 22 3f
       0.71879226 0.31005475 0.21438779 0.633281
0000d0 31 51 0c bf 18 00 6c be f3 e3 bf be cb 16 52 bf
       -0.5481139 -0.23046911 -0.374786 -0.8206603
0000e0 27 0c 46 bf 43 96 ac 3d ae 81 13 3f 1a be d0 3e
       -0.77362293 0.08427098 0.5761975 0.40770036
0000f0 e7 e6 06 3f cd a3 31 bd fb ca 4d bd 4b 38 92 be
       0.5269608 -0.043369103 -0.050242405 -0.28558573
000100 98 0f 68 3e 20 4c 9d 3d 60 71 4b bf 33 36 c6 3e
       0.22662199 0.07680535 -0.7946987 0.38713226
000110 c4 2e 08 3f 2c 78 8f be 39 e7 85 be 89 d1 14 3f
       0.5319636 -0.2802137 -0.2615297 0.58132225
000120 58 62 08 be 9e f4 3b 3f 37 a3 17 3f 05 6e b8 be
       -0.13318765 0.7342013 0.5923342 -0.36021438
000130 94 da 55 be 6c f5 51 bf 27 4c 82 be 6c 1a 07 bf
       -0.20884162 -0.8201511 -0.25448725 -0.5277469
000140 b2 3c c5 3e 3a 97 bd 3e 86 59 e3 3e 88 1a 95 3e
       0.3852287 0.3702944 0.44404238 0.29121804
000150 1f 71 20 bf 3d 79 95 3e 1a ae 15 bf da 51 74 be
       -0.6267261 0.2919406 -0.5846878 -0.23859349
000160 9a 97 28 3f 0d 8e 84 be 68 fe 81 be bd ae 3f 3f
       0.65856326 -0.25889626 -0.2538941 0.74876004
000170 8c 1e 3b 3f f4 dd b1 be 47 57 bd be b8 2a 50 bf
       0.73093486 -0.3473965 -0.3698065 -0.81315184
000180 69 62 10 bf 52 45 98 3e ba f9 c3 be ed 2b 5d 3f
       -0.5640016 0.29740387 -0.38276464 0.8639515

models.4.fc1.bias f4 [50]
000000 99 f3 ea 3d 2f 21 39 3e c6 99 57 bd 69 19 97 be
       0.11472244 0.18079065 -0.052636884 -0.29511574
000010 b0 ad 8d be c0 83 92 3e 98 85 c5 3e e7 9f 46 3e
       -0.27671576 0.28616142 0.38578486 0.19396935
000020 0c 03 f0 3e 8e 83 06 bf 76 75 e8 be e5 c1 29 3f
       0.46877325 -0.52544487 -0.45402116 0.66311485
000030 05 35 9f 3d eb 60 c9 be 93 19 90 be fb 6a e4 be
       0.077737845 -0.39331755 -0.28144512 -0.4461287
000040 78 a3 9f 3e 91 21 b1 3e 5f f0 23 3f df e4 bf 3e
       0.31179404 0.34595922 0.6403865 0.37479302
000050 a8 3e 09 bf 77 d1 f4 be b0 30 be be 20 d1 32 3d
       -0.5361123 -0.4781606 -0.3714652 0.04365647
000060 86 22 0c 3e 6b b5 b5 3e ae dd 98 3d 9e e3 1b be
       0.13685045 0.35489973 0.07464157 -0.15223548
000070 d3 ce 06 3f 2f 09 30 3f 3d 8c fc be 52 18 45 3e
       0.5265934 0.68764013 -0.49325743 0.19247559
000080 5b 49 ec 3e ef b2 c0 3d e6 3d 39 be 66 eb d6 bd
       0.46149716 0.09409129 -0.18090019 -0.104941174
000090 de 4a 28 3f e6 b3 31 3e b5 c3 28 3e d5 7b 06 3f
       0.6573924 0.17353782 0.16480906 0.525327
0000a0 9f 15 7b 3e b6 e5 db 3d 36 96 45 3f c5 c6 3d 3f
       0.24519967 0.10737173 0.7718233 0.74131423
0000b0 0c 41 10 be 05 e1 08 bf aa 55 8f 3e 2a 36 6d 3e
       -0.14087313 -0.5346835 0.27995044 0.23165193
0000c0 2a cd de 3e 03 be 9d bd
       0.43515903 -0.077022575
