experiments/classification/toy/gaussian_mixture/pretrained/2025-05-08_11-19-07/CrossEntropy_BatchEnsemble (rank 1).pt (torch, 69648 bytes, 8 tensors)

fc1.r_group f4 [100, 1, 2]
00000000: 90bf 2e3f 0b89 2a3f 3e61 4f3f 1dc2 a53f
00000010: aab9 a63f 9896 b93f d17d a43f 3e05 463f
00000020: fb30 983f a49b cd3f bce5 f73e f84a ab3f
00000030: 179e c53f b943 b93e 52d3 ae3f 64ae bc3f
00000040: 8c77 8f3f 10e7 453f 802e a13f 1d03 cf3f
00000050: 0f4b 903f fa88 bb3e 8292 9c3f 32b8 a93f
00000060: f9e3 9b3f b62e 983f be64 783e 7c59 6f3f
00000070: 8c4d be3f ce1a 943f aa6c 883f 9165 223f
00000080: c781 813f 2cf3 9c3f 78af f53f 0afb d83f
00000090: acf2 603f a054 0a3f a548 b13f 18df 983f
000000a0: 5874 553f 1a29 8e3f bcb9 4c3f e12d b53f
000000b0: 1500 983f 92b3 9d3f 9132 0640 22d8 a83f
000000c0: 99f6 773f 8fd7 363f 2dab 573f 5578 193f
000000d0: 67fb cb3f 2682 013f 7c79 943f cae9 af3f
000000e0: 52fe ef3f 500c a63f c402 a53f 2dd0 f63f
000000f0: 007a 713f c650 743f aee7 2b3f cc1d 9f3f
00000100: 64da 4e3f 2667 7f3f 4a93 c13f 9452 ba3f
00000110: 2a6a 5f3f 86e6 c93f 498d bf3f f490 a93f
00000120: 25e0 8d3f 5a8f 8b3f ca9c a43e 8d6d 853f
00000130: b7e5 563f 8d40 b03f fb62 c13f 203a a03f
00000140: cd86 893f 7da6 013f 9459 1e3f 655b a53f
00000150: 804f b33f d31e 5a3f 7efd 9a3f 5e21 843f
00000160: ba8f e53f 3d8f 983f 3fdf c13f 4aa4 2d3f
00000170: 0413 5f3f d660 6f3f f1b0 873f 788a c43f
00000180: 4737 803f 74d7 da3f 3d10 db3f 2525 883f
00000190: e323 c23f beae c73f 4439 9d3f d8bb 6e3f
000001a0: ce8b 383f aba5 893f 75f4 873f 1780 8a3f
000001b0: 344b 823f 4366 993f 11f5 4a3f b7e4 d33f
000001c0: 9980 9e3f 1023 c13e cf72 1b3f c37d 7e3f
000001d0: b142 7a3f f806 803f 61ae a63f c326 b73f
000001e0: 3275 383f 107f 813f dee8 693f e525 1e3f
000001f0: 3ba6 4e3f 0693 b93f e8a3 863f 24cf 673f
00000200: c9c7 d83e eda4 b33e b411 853f 952f 3e3f
00000210: 5e4e 8c3e ecd0 c63f 484f 7b3f 66a1 803f
00000220: b11a 423f fd15 513f c7a8 983f c7e7 8c3f
00000230: 86cb b63f 8b5a 2a3f ca60 9e3f 619c a33f
00000240: 8ae1 433f b313 b53f e762 a93f f261 b93f
00000250: 7230 d53f 54d7 923f d5e6 a63f 42c3 973f
00000260: 4de1 9c3e 2cad 363f 6dad 6c3f 0ca0 b53f
00000270: 453d 8b3f 1e65 5f3e 834d 7e3f 3d32 2a40
00000280: 11c1 6b3f f977 8c3f aad8 623f efe5 a83f
00000290: 8b85 ba3f 0252 a23f 6d4f 6a3f 3ed4 a03f
000002a0: ebf1 ac3f 0916 633f e9fe 9a3f 9cf0 0c3f
000002b0: 78f9 6b3f 0d06 983f b7e9 c83f 9c8a bf3f
000002c0: d74d 983f a922 213f 77f3 d43f b9a5 6f3f
000002d0: 9117 3f3f 4d60 063f 058d 683f 082d b93f
000002e0: 331f 9e3f 1b7f 593f 3836 623f 834c 703f
000002f0: a512 463f 138f 413f 276b 503f 7295 e93e
00000300: dca4 a53f 35ed 813f e0ee ad3f 96f6 8a3f
00000310: 6c23 8b3f 460e b23f 400f 7e3f 59b8 9f3f
0.6826105 0.6661536 0.81007755 1.2949864 1.302541 1.4499083 1.2850896 0.7735175
1.1889948 1.6063123 0.4841746 1.3382254 1.543887 0.3618448 1.365824 1.474072
1.1208358 0.773057 1.2592316 1.6172825 1.1272906 0.36627942 1.2232211 1.3259337
1.2178947 1.1889255 0.2425718 0.9349592 1.4867415 1.157068 1.0658162 0.6343623
1.011773 1.226171 1.9194174 1.6951611 0.8787029 0.5403538 1.3850294 1.1943083
0.8338065 1.1106293 0.7997091 1.4154626 1.1875025 1.2320426 2.0968363 1.3190958
0.96860653 0.71422666 0.8424557 0.5994924 1.5936097 0.50589216 1.1599574 1.3743222
1.8749487 1.2972507 1.2891469 1.928228 0.9432678 0.9543575 0.6715039 1.2430968
0.8080199 0.9976677 1.5123074 1.4556451 0.8727137 1.5773475 1.4964992 1.3247361
1.1084028 1.0903122 0.3215087 1.0424057 0.8394427 1.3769699 1.5108331 1.2517738
1.0744263 0.50644666 0.61855435 1.2918516 1.4008636 0.85203284 1.210861 1.0322683
1.7934487 1.1918713 1.5146254 0.6782881 0.8713839 0.93507135 1.0600873 1.5354757
1.0016869 1.7097001 1.711433 1.0636336 1.5167202 1.5600202 1.2283101 0.93255377
0.72088325 1.0753683 1.0621477 1.082034 1.01792 1.1984333 0.7928019 1.6554173
1.2382995 0.37722063 0.6072206 0.9941065 0.97758013 1.0002127 1.3021966 1.4308704
0.72053826 1.0116901 0.9137095 0.6177657 0.807224 1.4497993 1.051877 0.90550447
0.42339924 0.35086766 1.0396028 0.74291354 0.2740354 1.5532508 0.9816785 1.0049255
0.7582198 0.81674176 1.1926507 1.1008233 1.428086 0.6654441 1.2373288 1.2782098
0.7651602 1.4146637 1.3233308 1.4483016 1.6655409 1.1471963 1.3039194 1.1856463
0.3064064 0.7135799 0.92452127 1.4189467 1.0878073 0.21815917 0.99337023 2.6593163
0.9209147 1.0974113 0.88611853 1.319517 1.4572004 1.2681277 0.91527444 1.2564771
1.3511328 0.887055 1.2109042 0.5505464 0.92177534 1.1876847 1.5696324 1.4964175
1.1898755 0.6294351 1.66368 0.9361225 0.74645334 0.52490693 0.9084018 1.4466867
1.2353271 0.8495957 0.8836398 0.9386675 0.773722 0.7560894 0.814135 0.4562183
1.2940936 1.0150515 1.3588524 1.0856502 1.0870185 1.3910606 0.9924202 1.2478133

fc1.s_group f4 [100, 1, 50]
00000000: c24b a13f 6059 b7bd 528b 5c3f 2c4e a63f
00000010: d004 3a3f f670 d63e 0774 b83f e1dd 6d3f
00000020: e5b2 ba3f b3f1 a43f f47b 993f f5d8 f93f
00000030: b9db 4b3f efb9 0440 f99a 263f c9a7 5e3f
00000040: 29d5 943f 88fe ca3f 026e c73f af24 a73f
00000050: 0214 ccbe b7c6 c53f 31c2 9d3f cd0b 493f
00000060: 47ed 0340 528b 5f3f f603 ce3f 3aa3 443f
00000070: 511f 0d40 3b68 813f 5a4d 0040 16e5 773f
00000080: 2f20 cc3d cb0f 7f3f 3252 0d3f 4b17 d13f
00000090: b360 0940 cb79 4c3e bac0 f23f f13f 543e
000000a0: b7c2 0740 1b78 923f 6653 023f 5bbd ad3f
000000b0: 0291 933f da1a a23f 36a6 673f bcf5 213d
000000c0: 12a8 2e3f b21b 823f ae6f e33e 6331 433f
000000d0: da52 9f3f 0fc2 2b3f 79c3 b33f ee4b 833e
000000e0: 9c6e 2f3f a787 783f 649c 823f 96b3 943f
000000f0: d95c ed3f a07e 1040 4140 b73f b3c0 db3f
00000100: 6a56 a73e 1a3a 5c3f db74 d03f 1e32 b03f
00000110: 6066 283f 36f5 cf3f 44d3 773f 19a6 8c3f
00000120: 44f8 c73f 038e 473f 5a44 d63f d19d 5d3f
00000130: 6220 903f 11b0 ad3e 89cc cc3f a203 123f
00000140: 17e2 833f c6ce 953f 6736 8c3f 49d7 d83f
00000150: 875e 263f 2a3e 9e3f c7d1 b23e ef61 963f
00000160: daa9 993f b827 58be bc5a 203f 42d2 ec3f
00000170: 023a 823f 9d2c 2f3d eea3 ee3e bc18 893f
00000180: 90f0 763f 4e0b 583f 2f09 753e 9d82 0a3f
00000190: df1e 4d3f a9c6 693f 00a6 7e3c 8e5b db3f
000001a0: 175f ce3e 40cb cd3f bdcf 1d3f 3529 a33f
000001b0: fc2d ea3f b366 b53f 52e3 963f d6e9 af3e
000001c0: b6d5 b83f 9b7e b33f 0c2e 953f 702b 5e3f
000001d0: f22e a23e 60f3 b03f 6360 fd3d a3cd a43f
000001e0: 299d bd3f 22d7 1240 2cfb 2f3f e738 983f
000001f0: 15fc a53f 128c d43f 5da4 d43f fdf2 993f
00000200: 873a 993f c743 4b3f f8c7 543f d54f 4b3e
00000210: 7203 513f eac4 ad3f dc65 753f f58f c23f
00000220: f722 703f f3fa 7f3f dfa6 b73f 5367 ae3f
00000230: 5f4a ac3f 01ad 873f 12ad a73f 1f2b 883f
00000240: 1416 d83f 003b 93bc 78a7 0e3f 4ba5 403f
00000250: 4092 b53c c259 6e3f b5ed 613f 5ac0 9a3f
00000260: c389 c33f 91bd 913f 4cfb ec3f 6fb5 d63f
00000270: cbbc 6f3f cc79 703e 939d 963f e0f9 49bd
00000280: 2620 a43f 6411 5c3f c134 12be 6a9a 783f
00000290: d7cb d43f f88a 7c3f fe36 373f 0f2d e03e
000002a0: c114 c03f 2e5c e53f 7ad6 03be 4ab1 983f
000002b0: 3dcd 3a3f 250e c43d 09a3 b53f faac 7c3f
000002c0: 2e59 ad3f 38d4 e03f 4604 253f b057 c33e
000002d0: b16d 743f e141 db3f 72c4 ff3e 64e2 aa3f
000002e0: 4e1f c83f a86a a43f efb3 a73f 606d 813f
000002f0: 3b82 2b3f e0b8 8abd 0451 c83f d9e1 523f
00000300: a3b3 1d3e 9851 bb3f 6a44 f93f f053 ab3f
00000310: d4f3 cd3f 72ef 873f 986a 4bbe af31 853f
00000320: 2ad0 3f3f e761 783f 4b4d 1c3e 30d1 a83f
00000330: e4be 1540 8c14 6e3f 6667 0840 0d14 4f3f
00000340: dbfa 573f 9a5b 8b3f 088a 8a3d 72f2 c23f
00000350: 1616 b13e 3270 1f3f c884 aa3f cade 973e
00000360: a406 313f deb0 b33f 297f 933f 818a da3f
00000370: 2f01 743f 6446 883f 760f c83f cf18 9dbe
00000380: c075 88be 0299 db3e 3426 9a3f ed13 d93e
00000390: 2740 ab3f 02c6 d23f ff54 983f c48c ec3f
000003a0: efac 753f d400 a53f ee95 2b3f b8b1 763f
000003b0: af8f 9a3f 73f1 853f ae56 9d3f 1275 323f
000003c0: d015 6d3f 39d2 c53f 4e4c 413f 1a52 843f
000003d0: 4db9 c93f 6ddf 233f e2bb 423f c3fe 8f3f
000003e0: 2e6e cd3f 01b8 e43f 7e01 943f 8bd0 c53f
000003f0: 2e8f 703f d23c 593f 5470 b23f 4034 863f
1.2601244 -0.08952594 0.86150086 1.2992606 0.72663593 0.41883057 1.4410409 0.92916685
1.4585844 1.2886261 1.1990952 1.9519335 0.79632145 2.0738485 0.6508022 0.8697477
1.1627551 1.5858927 1.5580447 1.305807 -0.39859015 1.5451268 1.2324888 0.7853363
2.0613573 0.8732196 1.6094959 0.76811564 2.2050364 1.0109934 2.0047212 0.9683393
0.09967076 0.99633473 0.55203545 1.6335233 2.146527 0.19968335 1.8965065 0.20727517
2.1212595 1.1442903 0.50908506 1.3573412 1.1528628 1.2664444 0.9048799 0.03954099
0.68225205 1.0164702 0.44421142 0.76247233 1.2447159 0.67092985 1.4044029 0.25643867
0.6852815 0.9708199 1.0203977 1.1617305 1.854396 2.2577286 1.4316484 1.7168182
0.32683116 0.86026156 1.6285661 1.3765295 0.6578121 1.6246707 0.9680674 1.0988189
1.562264 0.7795107 1.6739609 0.86568934 1.1259882 0.3392339 1.5999919 0.57036793
1.0303372 1.1703727 1.0954102 1.69407 0.6498799 1.2362721 0.34925672 1.1748637
1.200496 -0.21108902 0.6263845 1.8501666 1.0173953 0.042767156 0.46609443 1.0710673
0.9646082 0.8439225 0.23929285 0.5410555 0.8012523 0.91318756 0.015542507 1.7137315
0.40306923 1.6077652 0.6164511 1.274695 1.8295283 1.4171966 1.1788123 0.3435809
1.4440219 1.4023012 1.1654677 0.8678503 0.3167644 1.3824272 0.123719 1.2875255
1.4813586 2.2943807 0.6874263 1.1892365 1.2967554 1.6605246 1.661266 1.2027279
1.1970986 0.79400295 0.8311763 0.19854672 0.8164588 1.3575718 0.9585855 1.5200182
0.9380335 0.99992293 1.43478 1.3625282 1.3460196 1.0599672 1.3099692 1.063816
1.6881738 -0.01797247 0.5572429 0.7525222 0.022164464 0.9310571 0.8825334 1.2089951
1.5276417 1.1385976 1.851419 1.6774119 0.9364745 0.23483962 1.1766838 -0.049310565
1.2822311 0.85964036 -0.14277937 0.9711062 1.6624707 0.9864955 0.71568286 0.43784377
1.5006334 1.7918756 -0.12874785 1.1929104 0.7296942 0.0957301 1.4190379 0.9870144
1.354284 1.7564764 0.64459646 0.38152838 0.95479876 1.712948 0.49954563 1.3350339
1.5634553 1.2845049 1.3101786 1.0111504 0.6699559 -0.06773543 1.5649724 0.82375866
0.15400557 1.4634275 1.9474003 1.3384991 1.6090035 1.0619948 -0.19864881 1.0405787
0.7492701 0.9702439 0.1526386 1.3188839 2.339776 0.930001 2.131311 0.8088997
0.8436715 1.088733 0.067646086 1.5230238 0.34587163 0.6228057 1.3321772 0.29662162
0.6915076 1.403835 1.1523181 1.7073518 0.95314306 1.0646482 1.5629718 -0.3068299
-0.26652336 0.42890173 1.2042909 0.42398015 1.3378953 1.6466677 1.1900939 1.8480458
0.95967 1.2890878 0.6702565 0.9636493 1.2075099 1.046431 1.2292078 0.69709885
0.9261141 1.545478 0.75507057 1.0337555 1.5759674 0.64012796 0.76067936 1.1249622
1.6049249 1.7868654 1.1562955 1.5454267 0.93968475 0.8485843 1.394053 1.0484695

fc1.bias f4 [100, 50]
00000000: 1665 9bbe 454e 32be bad2 b53e dd26 4e3e
00000010: 643b 85be f312 323e 4b63 073f 271d 2e3e
00000020: 2d80 a1bd 8ec3 013f ba0b 553e 9c36 3e3f
00000030: b79a 4bbd 70d2 04bf b198 86bd d29f e3be
00000040: a6f4 28be 837e 64be e05b dcbb 4124 3f3e
00000050: aad1 25be 4763 293f 6196 76be da22 a13d
00000060: 5e71 663e 28ac 153e 3156 21be 82aa c33e
00000070: a371 1e3e 0370 673e 0d22 7ebd 22ca b5be
00000080: 58a7 f43d 0ee9 fd3e 8b30 adbe c9bb 4b3f
00000090: 4ee4 31bf 0366 363e 4250 cdbe 5508 853e
000000a0: b555 eb3e cc91 923e a986 04be a1a5 7ebe
000000b0: 496b b1be 33d5 a03e 214a d03e 1d6e dc3e
000000c0: 5aa1 c53d a812 c0bc 76e8 87be 38ea 22bf
000000d0: f2e6 243f e06f 7b3d 852c 903e 8dbf c13e
000000e0: 1b0e e63d 9c88 ea3e 537c 29be 9069 583c
000000f0: f63c 30bf 2166 0f3f 71ca 633e 20f0 a03e
00000100: 85a7 7e3e 2845 0e3f 0406 aabe 5b77 f0be
00000110: 870f 3cbf 8d55 3c3f 2e50 7abe 4513 00be
00000120: 6b4d da3e fed2 923e ab1a dc3d 32d8 603e
00000130: 4e45 14be 88e2 713e fc10 f8be ff34 3dbe
00000140: 200b 2abf 0ed1 b83a f541 063f e306 f3be
00000150: 15e6 353f f028 adbd a051 e3be 3c1d d1be
00000160: 6e24 14bf 6a81 d4be 4b1a 6e3e a58d 9fbe
00000170: ab25 80be e3f0 be3e f2d2 edbd d8fd 593e
00000180: 9d50 1cbf aede 8e3d fc4b 073f acbf 0a3f
00000190: 8983 28be 0895 82be d4c4 0abf 52ad 923e
000001a0: 404a 8dbe ef13 883e bd62 bdbd 03ed 563e
000001b0: c89f ad3e 7ee8 a43e 5d76 873e 4f69 a23e
000001c0: ed71 1bbf 0176 efbc 18ba 95be 926e 58be
000001d0: 6d73 19bf 96e9 bebe 44f4 343f 745c 233f
000001e0: a7b0 843e de30 d73e 83bf f6be 56f4 a4be
000001f0: 868e 18bf 2c60 ad3d 4d7a 813d 0747 ecbe
00000200: feb5 453e 9312 d73e d88b 0ebf cb95 e3be
00000210: c784 27bf 9e1a 03be 4739 c23e 9b84 033f
00000220: 302a c2be bb50 98be 8a82 db3e e3ee f9be
00000230: a2e6 cebe 72c1 093f 3a8b 88be 5ec6 513e
00000240: 75eb f7be 12ce 84be 5b6f 9b3e a8e8 dc3e
00000250: 5e7e babe 8601 033f cea0 af3e a139 073f
00000260: 0eb6 333e 4179 143f 8d77 c9be 4a57 bb3e
00000270: 66bd 0abe f701 bc3e b73c 87be 2afa 0bbf
00000280: 1246 0ebf 58ec 82be 1d1a 533e 1e22 bbbe
00000290: 514f a4bd 77d8 ecbe da2f 51be b553 8b3e
000002a0: b58d adbe 1829 0dbe 7955 51bb 4009 2b3f
000002b0: 25bf 0d3f fa93 ffbe f48e d0bd 268b 6bbe
000002c0: 3cf9 d5be 7690 2a3c b59a 10bf 8d69 d7bc
000002d0: b202 1f3e 53fb 043f 40b5 2c3f aae3 e43e
000002e0: 7f97 8ebe f072 24bd 6cd8 3c3e aef6 79be
000002f0: 5323 06bf 74b7 efbe deb4 de3e 1766 25be
00000300: 4b29 05bf 0d42 103f 6c65 b73e fe30 163e
00000310: c36e b63e cdb7 9a3c c626 47bd b8c1 ebbe
00000320: 5c82 bcbe 6dd0 f93e 06b3 bf3e a4d4 f1be
00000330: 6456 f5bd a0a0 173e b074 c63e d818 c3be
00000340: 72df 91be 14bb babe cc76 8fbd d24b 35bf
00000350: 8a4f 37bf 19d0 3bbe bd41 013e ed3a 22be
00000360: 4aff 143f e827 9dbe 5c88 083e 559c b8be
00000370: 4fff 47be 23e3 27bf cfd7 b93e cd5e f7be
00000380: ed89 2ebf cc9d 213f d2c8 523f eef4 9e3d
00000390: 7006 9cbe f75e 31bf b32f 193f 3485 a5be
000003a0: 6c9e 383e fb92 b83e f5fe 97be 7c7e 42be
000003b0: 06ad fe3d 791c b0be 00c2 423f f202 dd3c
000003c0: ccd9 6dbe 5b81 093e 9c9b 0d3e f333 053f
000003d0: 5da3 973e 0066 033f 632f 173f a596 853e
000003e0: 2c5b 8abe ca38 14bf 2a86 0b3d a5ce 283f
000003f0: e53c 3a3e 82ba 3e3f 9049 a23e ad2b 8c3b
-0.3035056 -0.1741267 0.35512334 0.20132013 -0.26021874 0.17390041 0.52885884 0.17003308
-0.07885776 0.5068902 0.20805255 0.7430208 -0.049708094 -0.518836 -0.06572092 -0.4445787
-0.16499576 -0.22313885 -0.0067248195 0.18666174 -0.16193262 0.6616711 -0.24080803 0.078679755
0.22504184 0.14616454 -0.15755536 0.38216025 0.15473036 0.22601323 -0.062044192 -0.35505778
0.11945981 0.4959187 -0.33826098 0.7958341 -0.6948899 0.17812352 -0.40100294 0.2598292
0.45963827 0.2862686 -0.12941994 -0.2486787 -0.34652165 0.31412658 0.40681556 0.4305276
0.09649916 -0.023446396 -0.2654454 -0.6363864 0.64414895 0.06138599 0.28158966 0.37841454
0.11233159 0.4580735 -0.16551332 0.013208762 -0.6884302 0.5601521 0.22245194 0.314332
0.24868591 0.55574274 -0.33207715 -0.4696606 -0.7346119 0.7356804 -0.24444649 -0.1250735
0.4263719 0.286766 0.10747274 0.21957472 -0.14479563 0.23621571 -0.48450458 -0.18477248
-0.66423225 0.0014100389 0.5244439 -0.47466192 0.710542 -0.08455074 -0.44398212 -0.40842617
-0.5786809 -0.41504985 0.23252217 -0.31162754 -0.25028738 0.37293157 -0.116125 0.2128824
-0.61060506 0.069760665 0.5285032 0.5419872 -0.16456427 -0.25504327 -0.54206586 0.28647858
-0.2759571 0.26577708 -0.092473485 0.2098885 0.33910966 0.32208627 0.26457492 0.3172097
-0.6072071 -0.029231073 -0.2924354 -0.21135929 -0.5994175 -0.37287587 0.7068522 0.6381295
0.25916025 0.4202947 -0.48192987 -0.32217664 -0.59592474 0.08465609 0.06322155 -0.4614794
0.19307706 0.42006359 -0.55682135 -0.4445022 -0.6543698 -0.12803122 0.37934324 0.51374215
-0.37922812 -0.29749092 0.4287303 -0.4881507 -0.40410334 0.538108 -0.2666872 0.20485827
-0.48421827 -0.2593847 0.30358395 0.43146253 -0.36424536 0.511742 0.34302372 0.5282231
0.17549917 0.5799752 -0.39349023 0.36590034 -0.13548812 0.3672025 -0.2641351 -0.54678595
-0.5557567 -0.2557094 0.2061543 -0.36549467 -0.08022941 -0.462589 -0.2042841 0.272123
-0.33897176 -0.13785207 -0.0031941815 0.6681099 0.5536979 -0.49917585 -0.10183516 -0.230023
-0.41791713 0.010410419 -0.56486064 -0.026295448 0.15528372 0.5194599 0.67464066 0.44704944
-0.27849957 -0.040148675 0.18441933 -0.24410507 -0.5239765 -0.4681965 0.43497366 -0.16152225
-0.52016133 0.56350785 0.35819566 0.14667127 0.3563138 0.018886471 -0.04862096 -0.46046233
-0.36818206 0.4879183 0.37441272 -0.47232544 -0.11979368 0.14807367 0.387609 -0.38104892
-0.28490788 -0.36470854 -0.070050806 -0.7081882 -0.7160574 -0.18341102 0.12622733 -0.15842791
0.5820204 -0.3069451 0.13333267 -0.36056772 -0.19530986 -0.6558096 0.3629746 -0.48314515
-0.6817921 0.63131404 0.8233768 0.077615604 -0.3047366 -0.6928553 0.5983841 -0.32328188
0.18029183 0.36049637 -0.29686704 -0.18993562 0.12435345 -0.34396723 0.7607727 0.026978943
-0.23227614 0.13428251 0.13828892 0.52032393 0.29616824 0.51327515 0.5905668 0.26091495
-0.27022684 -0.57899153 0.034063496 0.65940315 0.18187292 0.7450334 0.3169675 0.0042776675

fc1.linear.weight f4 [50, 2]
00000000: f467 cfbe 416b 1a3f 5915 393e ea1c 16bf
00000010: 6334 ddbe b509 1ebf 4eb7 16be c506 de3e
00000020: c319 033f aec1 323f cb48 7b3e b95b 37be
00000030: c4d4 0a3f 8088 e73d f2e2 9fbe 901e 273d
00000040: 684b 03bf dc37 813e d9fd 533f 43a1 02bf
00000050: 55eb dfbc b7d9 c5be 0eb6 203f e9ca 97be
00000060: 9210 0dbf 02b5 27be aee9 503e 4f1a b73e
00000070: 26c6 d83d 6bc2 e8be e324 42be 7275 31be
00000080: 02b1 debe 9eb8 54be 01a0 2abf 35f9 023d
00000090: 3a32 1a3f 4c58 ecbe 3f66 1f3f 6c54 b13d
000000a0: 71ce 473f 04c3 f03d a898 53be 8a6e 39bf
000000b0: 0cc9 0fbc 1c54 20bf 1334 1f3f 7d88 8fbe
000000c0: 4493 30bf e76b dc3c 06f5 1cbe da42 c3be
000000d0: 7c44 ce3e 90bc 933e 596f 23bf 8107 393f
000000e0: 00ad 05be eb34 9ebe 4af9 ea3e 692a 1ebf
000000f0: c2de 35bf bd36 0ebd 15d7 fbbe 8e00 72be
00000100: 1178 31bf 756a 433e f98d ed3e cc26 71be
00000110: 2012 c8be dbff 22bf 55c9 d33e 2d4f 3c3f
00000120: 03fb f73e c609 32bf f3c6 c93e 95cb d63d
00000130: 9e5b 28bf b272 3ebe c536 debe b56f 153f
00000140: bc76 313f e61a 8d3e 6800 133f 8640 a6be
00000150: 8465 d23e 93de d4be a1a2 9e3d f756 693e
00000160: 769c cd3d 5290 0b3f 9a8a 7a3e b9a3 78bd
00000170: 6d4f 043f aacf 55be dcda a0be 5821 10bf
00000180: c200 343f ce21 a93e 483d 303e ce93 083f
-0.40508997 0.60319906 0.1807455 -0.5863787 -0.4320403 -0.6173356 -0.14718363 0.4336454
0.51211184 0.6982678 0.24539487 -0.17906083 0.54230905 0.11305332 -0.31227833 0.04080063
-0.51286936 0.2523793 0.82809216 -0.51027316 -0.027333895 -0.38642666 0.62777793 -0.29646996
-0.5510341 -0.16377643 0.20401642 0.3576226 0.10584669 -0.4546083 -0.18959384 -0.17329958
-0.4349442 -0.20773551 -0.66650397 0.031975944 0.6023289 -0.46161115 0.6226539 0.0865868
0.7804938 0.11755946 -0.20663702 -0.72434294 -0.008775961 -0.6262834 0.62188834 -0.2803382
-0.6897471 0.02690692 -0.15327844 -0.3813694 0.40286624 0.288548 -0.6384178 0.72277075
-0.13054276 -0.30899748 0.45893317 -0.6178346 -0.71043026 -0.03472017 -0.49187532 -0.23633024
-0.6932383 0.19083579 0.4639738 -0.23549956 -0.39076328 -0.63671654 0.41364542 0.7355831
0.48433694 -0.69546163 0.394096 0.10488049 -0.65764797 -0.1859844 -0.4340116 0.58373576
0.693218 0.27559584 0.57422495 -0.32471102 0.41093075 -0.4157606 0.07745863 0.2278708
0.10039608 0.5451709 0.24466935 -0.060703013 0.51683694 -0.20879999 -0.31416976 -0.5630088
0.70313656 0.33033603 0.17210877 0.5335053

fc2.r_group f4 [100, 1, 50]
00000000: 3c5d c83f 0050 523f 192f ad3f 52e4 7b3f
00000010: 5eb3 e83f 01ac c23f e764 db3f 2467 a83f
00000020: d617 ac3e f2c8 923f 9ee3 c03f 8b0c 493f
00000030: 503d 353f de01 003f 3435 203f af32 b53f
00000040: f2a3 eb3e d792 0340 1e21 aa3f 3556 5a3f
00000050: f259 0040 c83e c43f ed80 e83f 5be1 8a3f
00000060: 382b da3f 9a4c 873f 57b6 d13f e92f ac3f
00000070: e39b a23f 816d 5f3f 7b1f 943f 5297 413f
00000080: 39aa a63f d457 323f 12b5 9f3f 1982 483f
00000090: 7da4 fe3f d3a5 943f dc19 803f 3577 243f
000000a0: 3d23 b53f c78e 2e3f 9178 863f 82f3 b03f
000000b0: 5aca e03f cea0 0f3e 3851 463f c078 1340
000000c0: 3cf7 ed3d d90f a63f bf96 2d3f b857 ba3e
000000d0: 45b3 553f 55fc b33f 44ca 7a3f 801e 623f
000000e0: f17a 9f3f 8ad5 913f 894d f73f c919 403f
000000f0: f2c3 0e40 6a2a b83f 0a59 893f b777 1a40
00000100: b4a4 f63f 16ad 483f dc95 533f 35c2 9c3f
00000110: c80e b23f 0029 2c3f 3c02 dd3f caf8 313f
00000120: 3aca 5b3f 77a6 c63f d5cd b33f 4645 153f
00000130: eb87 c83d 66a9 e03f 261c 873f aefd 0c3f
00000140: c81e 0b3e 6676 ab3f caf6 8d3f 7d06 bc3f
00000150: d1d6 d93f e773 a53f 15e6 003f 534f 923f
00000160: 6d13 ab3f 81c5 7a3f 7600 883f 92a0 723f
00000170: fa2a 5c3f 1375 bf3f f67b f73f 11a9 713f
00000180: 2eac df3e 5966 903f 36ed 5f3f bbf0 de3f
00000190: 89d7 223f aeda b33f a631 963f 0a1e 013f
000001a0: 9da0 a13e a882 993f b082 593f 3f55 883f
000001b0: 8d55 903f 7624 9d3f bd3b 413f 98ad 673f
000001c0: 7a02 0c3f 25c6 423f 4a7b cc3e edf1 cc3e
000001d0: ac27 9a3f 7e1a d23f 4542 a83f e3fa b03e
000001e0: 6b6f 373f 90bf 8a3f 1b7a 9f3f 2fea 613e
000001f0: bfb9 b13f b3db a03f 85e9 9d3e 8594 3b3f
00000200: e5e1 ac3d 135a 693f 7371 fb3e 99e1 c03f
00000210: 947d 7b3f 412d 4f3f 62d7 b03f 2ec8 813e
00000220: 7428 7d3e 7e66 243f c37f 163f 568f 403f
00000230: 86ef 473f 633b b43f d8fb c03f dc99 eb3f
00000240: 65cb d53f bfb0 bc3f 6bc9 b63e 240f fd3f
00000250: eed7 e53e 6395 913e dfcb 973f 240c 573f
00000260: 51df 7a3f aefb a13f ae27 f83f a99a 973f
00000270: 0e7c c93f 6a48 ae3f 3fab 9f3f 4ea7 613f
00000280: 5d3a d33f b92e 813f 8d96 933f d693 5c3f
00000290: 1501 9e3f f6d1 1240 567a 963f f5ed 3a3f
000002a0: 7e69 aa3f 06a3 993f bc01 a23f a014 eb3e
000002b0: 227c 563f 1a80 833f 634c cb3f 1b62 5c3f
000002c0: 90e7 b33f 890b 263f b202 a3be 8e36 e63e
000002d0: b3e4 8a3f c392 373f a02f 313f 3e74 a33f
000002e0: 455d d93e 5f4f a33f e3a1 333f 04ab 503f
000002f0: ed3d 6a3f f276 ca3f fd7b a13f 4ef6 4b3f
00000300: bbd9 573f 2658 023f d09a d93f f9cb 903e
00000310: b760 8a3f 023b 8f3f e9d8 9d3f 86f3 463f
00000320: ce3c 0e40 4fab 693f d32d 993f 6f7d e23f
00000330: 43c1 823f 5b75 003f 0d09 e93f 13c4 953f
00000340: a13e 3c3f a940 a93f 58d0 993f 12e9 433f
00000350: d46a b13f 0d8e aa3f 4967 293f 4235 313f
00000360: 07a0 6e3f 56c0 833f cfe6 b73e 1bcb 1c3f
00000370: d090 3b3f 6582 da3f fd01 703f 1976 a4be
00000380: 3a66 8e3f 4599 b73f a6d9 293f 4370 973f
00000390: 79ce 953f 27ef 883f 177f c53f ec6a 913f
000003a0: 395f b43f 169f f83f 77a7 0340 6e16 173f
000003b0: 99ac 703f bded e43e 5ca4 853f 7b78 823f
000003c0: 5c4b b83f 1d06 a03f 9a03 ff3f 6845 e43f
000003d0: f63a 823f 81b9 aa3f 96fd 783f 4d59 973f
000003e0: 804c 933f c043 8b3f 60b6 683e 372a 4c3f
000003f0: 5867 893f 65c7 6b3f 78d0 d23f 32b1 df3f
1.5653453 0.8215332 1.3529998 0.98395264 1.8179739 1.5208741 1.7140168 1.3156476
0.33611935 1.1467574 1.5069463 0.78534764 0.7079668 0.5000285 0.6258118 1.4156092
0.46023518 2.0558374 1.3291357 0.8528779 2.0054898 1.5331659 1.8164345 1.0850023
1.7044439 1.0570252 1.6383771 1.3452121 1.2703823 0.87276465 1.1572107 0.7562152
1.3020698 0.69665265 1.2477133 0.78323513 1.9893948 1.1613106 1.0007892 0.64244395
1.4151379 0.6818661 1.0505544 1.3824313 1.7561753 0.14026186 0.7746768 2.304245
0.11619422 1.2973586 0.67808145 0.3639505 0.8347667 1.4061381 0.9796488 0.8832779
1.2459394 1.1393292 1.9320537 0.75039345 2.2307096 1.4387944 1.0730298 2.4135568
1.9269013 0.7838911 0.8265054 1.2246767 1.3910761 0.6725006 1.7266307 0.69520247
0.8585545 1.5519551 1.404719 0.5830883 0.09791549 1.7551696 1.0555465 0.55074584
0.13585961 1.3395507 1.1090939 1.468948 1.7018682 1.2925996 0.5035108 1.1430458
1.3365303 0.9795762 1.0625141 0.9477626 0.8600308 1.4957603 1.9334705 0.943986
0.4368605 1.1281234 0.8747133 1.7417215 0.6361013 1.4051111 1.1733902 0.5043646
0.3156785 1.1992998 0.8496504 1.0651015 1.1276108 1.2276752 0.7548178 0.9049926
0.5469128 0.76083595 0.39937812 0.40028325 1.2043357 1.6414335 1.3145224 0.3456641
0.71654385 1.083971 1.2459139 0.2206199 1.388481 1.2567047 0.30842224 0.732735
0.084415235 0.9115307 0.49109992 1.5068847 0.9823849 0.80928427 1.381573 0.25348037
0.24722463 0.6421889 0.587887 0.75218713 0.7809986 1.4080623 1.5076857 1.8406329
1.6702696 1.4741439 0.35700545 1.9770246 0.44891304 0.28434286 1.1859092 0.840029
0.97997004 1.2654932 1.9387109 1.1844074 1.5740983 1.3615849 1.2474135 0.8814591
1.6502186 1.0092384 1.153032 0.8616308 1.234408 2.294065 1.1756084 0.73019344
1.3313444 1.2002876 1.2656779 0.45914173 0.8378316 1.0273468 1.5882686 0.860872
1.4055042 0.6486135 -0.31837994 0.44963497 1.0851043 0.71708316 0.69213295 1.2769849
0.42453972 1.2758597 0.70168895 0.8151095 0.9150074 1.5817549 1.2615963 0.79672706
0.84316605 0.50915754 1.700037 0.2828062 1.0810765 1.1189883 1.2331821 0.7771534
2.2224612 0.9127702 1.196711 1.7694529 1.0215229 0.5017907 1.8205887 1.1700462
0.73533064 1.3222858 1.2016706 0.7652751 1.3860726 1.33246 0.66173226 0.6922189
0.9321293 1.0293071 0.3591828 0.61247414 0.7326784 1.7071043 0.93753034 -0.3212135
1.1124947 1.4343649 0.6634773 1.1831135 1.1703635 1.0697984 1.542941 1.1360755
1.409156 1.9423549 2.0570962 0.590186 0.94013363 0.4471263 1.0440784 1.0193018
1.4397998 1.2501866 1.9922974 1.7833681 1.0174243 1.3337861 0.9726194 1.1824127
1.1507721 1.0880051 0.2272582 0.79751915 1.0734663 0.92101127 1.646987 1.7475951

fc2.s_group f4 [100, 1, 5]
00000000: dc05 0140 61aa 983f d79a 873f 0186 853f
00000010: c761 923f ac51 b93f 87f2 ab3e 0b99 a63f
00000020: 2aba 813f a8b4 963f dca5 303f f831 ea3f
00000030: 3da5 9d3f 02d9 0f40 557f 8b3f 9994 263f
00000040: e584 353f 14a9 963f c010 b53f 06a8 e73f
00000050: 52ff 043f 9bac 553f ae2f aa3f 59fd d23f
00000060: 3833 733f 2824 bc3f fbac 1b3f 88f8 a43e
00000070: 75d6 463f 9006 b53f 9466 6b3f eb82 d73f
00000080: 2f96 cf3f 0c37 df3f c2fa c23f 30c3 b13f
00000090: 1a1f 533f c680 0c40 c7bf 523f 8dfa c03f
000000a0: 7105 783f acf6 8d3f 55ba bb3f 665e ca3e
000000b0: f353 813f cb9f b93f 24fe 1d3f bc46 873f
000000c0: efa8 883f 5511 893f e293 d03f 0c71 173f
000000d0: 2bec ad3f 415e a63f 8950 a93f fca8 8f3f
000000e0: 86b9 743f 6a00 873f 7225 c63e d8fd bd3f
000000f0: d07b 9a3e 264a fd3f d96a b93f 88f9 5f3f
00000100: ce2b bc3f 3e8f a23f f1f5 673f e1f8 2a3f
00000110: dd3f 493f 4ad0 353f b6c6 b53f a906 853f
00000120: 56e2 9b3f ab16 0a3f 3230 8f3f 91f9 e73e
00000130: 5a41 bc3f 7060 af3f 585f c93f 6294 7b3f
00000140: 4a5e 7f3f 8ba2 193f efe8 753f c0cd 983f
00000150: a609 9d3f 376b 863f 8cbb 233f c1f3 173f
00000160: efe2 8e3e 1366 f53f 9c78 033f 4865 513f
00000170: 016a a13f f079 b83f 0aed 913f a7bf b23f
00000180: 3413 613f 3103 383f e70f 0040 59fc 383f
00000190: b008 8f3f a369 433f c2ad 843f 7a28 a13f
000001a0: 1cf0 473f 3328 9d3f 8180 113f 765b 4f3f
000001b0: 251f aa3f cf17 813f e50c 803f 6b4c 863f
000001c0: faff 8b3f 9e16 883f b745 533f 92e6 b33f
000001d0: e6bb 1c3f 517c 233f 5445 253f ca37 0140
000001e0: 25a0 983f 3802 dc3e ffaf 253f 7d1a fc3f
000001f0: 10fb 9d3f 9a21 af3f 4da7 293f 40fd 913f
00000200: b44d 1c3f 9e4b a03f b63b 103f 4482 933f
00000210: c7de 123f 0538 be3f d6c3 1c40 2d81 343f
00000220: 292d 583f a3cb 953f b2a7 b13f 6d6a 313f
00000230: f264 293f 179c a63f 3eed 0440 58bc bb3f
00000240: c3cc 823f 404d d43f 6a99 993f 27e9 ac3f
00000250: a7f7 7c3f ba5c 693f 3c32 983f baf8 2c3f
00000260: 2484 463f f79c 0a40 9793 d93f 1bed 873f
00000270: eff9 763f 69ca ab3f 70d3 8b3f be33 8f3f
00000280: bc2c 543f b88c a03f 445c 803f fdac 9d3f
00000290: 446b b73f 0683 263f 7b30 6c3f 40f6 833f
000002a0: e134 9f3f 314b b03f 8067 693f b624 ee3f
000002b0: 6505 ca3f ba53 db3f 8b19 833f 3fe2 833f
000002c0: 0416 7c3f 230f 5c3f 1094 9f3e 5e23 853f
000002d0: 6b7b bd3f 616f b73f 469c 1d3f 6e9e bc3e
000002e0: de7d de3f d814 0740 c663 a33f 27f6 003f
000002f0: 4603 ba3f 244b c13f a1e3 c93f 3ade 6b3f
00000300: 6676 c83f a1c7 c13f 9682 053f 7265 693f
00000310: 3d1d 353f 85f8 203f 6a27 d53f 525c 4e3f
00000320: 1b53 be3f 8861 e13f 7dc6 983e 184f ca3f
00000330: 63d5 dc3f e762 723f e2a4 0b40 42c9 293f
00000340: 3737 c03f b170 543f 1bb5 dd3e e496 b53f
00000350: 1d30 bf3f fb0a c03f 316b e73f 1ac0 1f3f
00000360: b87c 0d3f 7a08 253f bfbc 293f b64e 103f
00000370: 9e68 bb3f 65f4 8a3f fd93 673f b8fb 523f
00000380: d354 8d3f 9144 483f bcd3 a93f 43b8 e23f
00000390: 6e33 9e3f 384e 0a40 f8fc d03f 60ff 7c3f
000003a0: 5930 993f b5b5 9b3f f0ad 863f b594 0440
000003b0: e5d1 b73f 0481 3b3f 6a7d 2a3f a007 4a3f
000003c0: 1222 f13e ba45 ab3f 6178 943f a719 bb3f
000003d0: e730 763f 2da3 8f3f f887 d43f 5320 e23f
000003e0: 474c 883f 03a4 9c3f 5970 193e 96d4 f83f
000003f0: d629 cd3f 5008 7c3f ad52 913f fbcc c03f
2.0159826 1.1926996 1.0594128 1.043152 1.1436089 1.4478049 0.3358347 1.3015455
1.0134938 1.1773882 0.6900308 1.8296499 1.2316052 2.24762 1.0898234 0.6507049
0.70905906 1.1770349 1.4145737 1.8098152 0.5195209 0.834665 1.3295801 1.6483566
0.9500003 1.4698534 0.6081082 0.32220864 0.77670985 1.4142628 0.91953397 1.6836828
1.6217707 1.7438674 1.5232775 1.3887691 0.8246933 2.1953597 0.8232388 1.5076462
0.968833 1.1090903 1.4666239 0.39525145 1.0103744 1.450189 0.6171591 1.0568461
1.0676554 1.0708414 1.629513 0.5915687 1.3587698 1.2997514 1.3227702 1.1223445
0.95595586 1.0547001 0.38700444 1.4843092 0.30172586 1.9788253 1.4485732 0.8749013
1.4700868 1.2699964 0.9060965 0.6678601 0.7861307 0.7102095 1.4201267 1.0392658
1.2178447 0.5394084 1.1186583 0.45307592 1.4707444 1.3701305 1.5732222 0.9827329
0.9975325 0.60013646 0.96058553 1.193779 1.226857 1.0501469 0.6395805 0.59356314
0.27907512 1.9171776 0.5135591 0.8179517 1.2610475 1.4412212 1.1400464 1.3964738
0.87919927 0.7187987 2.0009706 0.7226005 1.1174526 0.76333064 1.0365527 1.2590477
0.7810075 1.2277893 0.56836706 0.80998933 1.3290755 1.0085391 1.0003935 1.0492071
1.0937493 1.0631902 0.8252825 1.405474 0.6122421 0.63861567 0.6455891 2.01903
1.1923872 0.42970443 0.64721674 1.9695584 1.2342243 1.3682129 0.66270906 1.1405411
0.61056066 1.2523077 0.5634111 1.1524129 0.5737118 1.4860846 2.4494529 0.70509607
0.8444391 1.170277 1.3879302 0.6930302 0.66169655 1.3016385 2.07698 1.4666853
1.0218738 1.6586075 1.1999943 1.3508652 0.9881539 0.91157115 1.189033 0.67567027
0.7754538 2.1658304 1.6998166 1.0619234 0.9647512 1.3421146 1.0923901 1.1187665
0.8288076 1.2542944 1.0028157 1.2318417 1.432961 0.65043676 0.92261475 1.0309525
1.2438012 1.3772947 0.91173553 1.8604953 1.5782896 1.7134926 1.024217 1.030342
0.98471093 0.85960597 0.3116765 1.0401418 1.4803289 1.4330865 0.6156658 0.36839622
1.7382162 2.1106472 1.2764823 0.503756 1.4532249 1.5101056 1.5772592 0.92135966
1.5661132 1.5139047 0.52152383 0.9117042 0.7074774 0.6287921 1.6652653 0.8060962
1.4869112 1.7607889 0.29838935 1.5805387 1.725262 0.94682163 2.1819386 0.6632272
1.501685 0.82984453 0.43302235 1.4186673 1.4936558 1.5003351 1.8079587 0.624025
0.5526843 0.6446606 0.6630363 0.56370103 1.4641302 1.0855833 0.9046019 0.8241534
1.1041511 0.78229624 1.3267741 1.7712482 1.2359445 2.161024 1.63272 0.9882717
1.196788 1.2164828 1.0521832 2.0715764 1.436093 0.7324374 0.66597617 0.78917885
0.47096306 1.3380654 1.1599237 1.4617203 0.9616837 1.1221672 1.6603994 1.7666115
1.0648278 1.2237552 0.14984263 1.9439876 1.6028392 0.98450184 1.1353356 1.5062555

fc2.bias f4 [100, 5]
00000000: 9078 16be eaa0 883d 569f 37bc 5f29 b7bd
00000010: b933 41bd ad2f 813e a0ff 683e b040 99bd
00000020: f6b3 6cbe ce48 91bb ed88 463d c9e5 033e
00000030: 041f 833d 2622 3cbe 5e4b 55be ddd0 673e
00000040: 8732 20be 5c0f 3ebe 8936 a23d 6c1c ab3b
00000050: 1260 c73d 1c3b 76be 97c9 39bc d26a 86bd
00000060: bfa6 03be 21d7 be3d 28c1 63be bb23 103e
00000070: d1ad c83d 69ca 18be 071d 92be 5fc0 943e
00000080: 5741 2f3d a95d 2ebd 711b 093e 493f 68be
00000090: f489 4e3e 640f b9bd dcaf 31bd 24fa 3cbd
000000a0: c966 acbd 185e 873b 369e 3ebd a87d 413c
000000b0: 7b08 be3a f454 d03c 4bfd 5bbe b2c7 e239
000000c0: e6a9 843d 7caf 57bb f452 01be 8d80 793e
000000d0: d874 9d3c 6841 e23b 1517 533e ab7d c4bc
000000e0: 42e5 a93a 8b28 c5ba 0acd a43d b106 ac3d
000000f0: dca3 583e bec8 f1bd 74ff 32be 55b1 4fbc
00000100: c6fb a9bd 8733 c73e cbea 92be 21fe 1f3e
00000110: 3c56 e7bd 4851 1fbe 2e27 34be 2fca 28bc
00000120: 2da0 0dbd 48d2 363e b194 b53d 2250 efbd
00000130: 8bae 903c 657b 41be 237d 25be 98e1 2cbc
00000140: 0ddd 8bbc 1045 bf3d 2126 d9bd 6d84 3abe
00000150: 7449 11be ea94 5fbd 58b6 b03d f898 c1bd
00000160: b0a0 623d 5499 6a3c 60c9 6fbe e543 703e
00000170: bf1c 88bd 9c02 fdbd 8f6c 913e 1589 89bd
00000180: ee49 f53d 5320 9abd 1279 14be 2c6f 863c
00000190: fd0d 593d adf3 42be 9fdc 643d 3125 b6bd
000001a0: 8945 0c3e 6bde 2a3d 2ca0 4f3d 55b6 6abd
000001b0: a837 ac3c c4c1 3bbd 856e c13b 33a8 29bd
000001c0: b304 e2bc a7b7 28be 27f1 7d3e 944e 283c
000001d0: a07e 8c3c 6e1f 2ebe 5404 b73d ce04 d23d
000001e0: b40a f4bd 27c8 3f3e 04b7 883d 2cba 66be
000001f0: 0ea6 453e a990 26be 301d d03d 6bc7 63be
00000200: 2895 e63d aac8 9bbc f5fe 25be bdef 213e
00000210: 97c8 26bd 70c2 8bbd f74d 15bd 32c1 153e
00000220: b54e 6b3e 65e4 5b3d 8289 27bc 8371 29be
00000230: fe9a 2f3d 0fb3 dabc 13a1 c1bd 1445 69bc
00000240: 6371 84bd 6950 adbd 4406 10be 7c6e d03d
00000250: 155d 043e f0f7 04be 4ca5 ed3d 88ce 6f3c
00000260: 55b0 123c 32a1 d0bd 3ec3 ff3d 5204 7a3d
00000270: 45b9 953d 8b42 a2bd ccc2 22bd f40d 5abe
00000280: e3ee d63d ba09 34be 201b 68be f92a db3d
00000290: 8fc7 6b3b ed4d 43bc 8c35 213e 5573 963d
000002a0: f822 3bbe bc2f 92bd 5e78 0c3e 9e35 17be
000002b0: 3add 803e 53d6 033d 7d12 3ebe 63a2 87bd
000002c0: 040a 153d d1ab 18be f2bb 343d 9c32 0bbe
000002d0: 81ec 0b3c 2318 2b3d 52f4 debd ec7a bc3d
000002e0: 52ae e1bd 3f50 003e 285d 90be 8635 f83d
000002f0: e121 01bd 3cb5 41be 9765 0c3d 9f0a ccbc
00000300: 0a7b 053c 2267 aebc 5a83 803a 52fc b8bd
00000310: 78fa 243d ed6f bd3c 5966 503d 2838 4d3e
00000320: 1a2c 8bbd 0403 553e 2a4f 06bc 8bb7 83be
00000330: 3c26 913e 4215 783d 3d22 4cbd a745 863e
00000340: 4438 5dbe 6c2b aebc 41e8 a43c 1a60 d1bc
00000350: 5354 543d 1fa4 4abe 14ec cfbc 3ba9 ae3d
00000360: 33aa 993d 8908 a7bd 4591 d43d 3f7f f33d
00000370: 4fb4 bebd ed58 603d 1667 02be 782a 923a
00000380: 7ad2 3ebd 2143 f03d b67e c03d d74a f63d
00000390: efe0 2fbd 1921 893c dbae c13d 4e2c 5bbb
000003a0: f7a8 9b3c bdbb 12be 6845 4dbc e5b0 913d
000003b0: 9bd3 cabc a651 7a3e 96d1 c53d 8363 023e
000003c0: 8002 353d 1a49 d7bd c2a4 49be f0af 983d
000003d0: 892b b8bd 78e9 6b3d 3f7a 6f3d 275b 3dbe
000003e0: 7bb4 803d dcdc ca3d 0974 ca3d 18e6 4ebd
000003f0: 6894 893d 097c 14be 2fee a5bd 3f46 f9bc
-0.14694428 0.06671317 -0.011207422 -0.08943438 -0.047168467 0.25231686 0.22753763 -0.07483041
-0.23115525 -0.004433728 0.048470426 0.12880625 0.064024 -0.18372402 -0.20829532 0.22638269
-0.15644275 -0.18560547 0.07920558 0.005221894 0.09735121 -0.24045986 -0.011339567 -0.06563343
-0.12856577 0.09318376 -0.22241652 0.1407613 0.09798778 -0.14920963 -0.2853777 0.29053017
0.042786922 -0.04256979 0.13389374 -0.22680391 0.20169812 -0.09036139 -0.043380603 -0.04613699
-0.08418042 0.00413109 -0.0465376 0.011809744 0.0014498377 0.025431134 -0.21483342 0.00043254864
0.06477718 -0.0032910993 -0.126293 0.24365444 0.019220755 0.0069047697 0.20614274 -0.023985704
0.0012962001 -0.001504199 0.080469206 0.08399714 0.21156257 -0.11805867 -0.1748026 -0.012676557
-0.08299975 0.389065 -0.28694758 0.15624286 -0.11295745 -0.1555835 -0.17593071 -0.010302111
-0.034576584 0.17853653 0.08866251 -0.11685206 0.017661354 -0.18894728 -0.16161017 -0.010551833
-0.017073179 0.093393445 -0.10602976 -0.18214579 -0.14188176 -0.054585375 0.08628529 -0.094530046
0.055329025 0.014318783 -0.23416662 0.234634 -0.06646108 -0.12354013 0.28403136 -0.067155994
0.119769916 -0.075256966 -0.1449931 0.016410433 0.052991856 -0.19038267 0.055874463 -0.088938124
0.136984 0.04171602 0.05068986 -0.05730279 0.021022633 -0.045839086 0.0059030675 -0.041420173
-0.027590131 -0.16476308 0.24799024 0.010272641 0.017150223 -0.17004177 0.089363724 0.10254823
-0.11916104 0.18728696 0.066755325 -0.22531956 0.19301626 -0.16266121 0.10161817 -0.2224404
0.11258918 -0.019016583 -0.1621054 0.15814109 -0.04071864 -0.068241954 -0.036451306 0.1462448
0.22979243 0.05368461 -0.0102256555 -0.16547208 0.04287242 -0.02669671 -0.094545506 -0.014237661
-0.06466939 -0.08462603 -0.1406489 0.10177323 0.12926133 -0.12985206 0.116037935 0.014636643
0.008953174 -0.101869956 0.12488411 0.061039276 0.07310728 -0.07922848 -0.039736554 -0.21294385
0.10494783 -0.17581835 -0.22666597 0.10701556 0.00359771 -0.011920434 0.15743083 0.073462166
-0.18275058 -0.07138011 0.13717791 -0.14766547 0.25168782 0.032186817 -0.1856174 -0.0662277
0.036386505 -0.14909293 0.04412455 -0.13593525 0.008540274 0.041771065 -0.10886444 0.09203133
-0.11019577 0.12530611 -0.28196073 0.12119584 -0.03152645 -0.18916792 0.03427657 -0.024907408
0.008147011 -0.021289412 0.0009804771 -0.09032501 0.040277928 0.02312466 0.050878856 0.20040953
-0.06795521 0.20801932 -0.008197585 -0.2572597 0.28349483 0.060567148 -0.04983734 0.26225016
-0.21603495 -0.02126094 0.020130279 -0.02555852 0.05183823 -0.1978917 -0.025381126 0.08528372
0.07503166 -0.08155925 0.103792705 0.11889505 -0.09311735 0.054772306 -0.12734637 0.0011151573
-0.046587445 0.11731554 0.09399168 0.12025993 -0.042939123 0.016739415 0.09457179 -0.0033443156
0.019001467 -0.14329429 -0.012528755 0.07113818 -0.024759104 0.24445209 0.09659116 0.12733273
0.044191837 -0.1051199 -0.19691756 0.074554324 -0.08992679 0.0575957 0.058466192 -0.18491803
0.06284424 0.09905407 0.09885413 -0.050512403 0.06717759 -0.1450044 -0.081020705 -0.030429004

fc2.linear.weight f4 [5, 50]
00000000: a0dd 42be 1729 3dbc 5e8e 1cbe cbfa e7bd
00000010: 7f0d d5bd df53 20bd 5a3b 103e 5d5f 6ebe
00000020: cb29 52bb 66d1 213e 6fb7 93be fae6 1c3e
00000030: ec2d 46bd 9045 2abd ab97 c53d a8f0 19be
00000040: a2a9 f23c 98ad f7bd 570d afbc 29ed 293e
00000050: 3bf9 5c3d 312d 8ebd 9a55 8bbe ce0f 543d
00000060: ce47 13be 7de4 24be 3fa8 123e 3c43 5bbd
00000070: 9925 83be 7219 1e3d 473b a33c fa5c c4bb
00000080: 6e46 dbbd 1b8a 543e b291 19be 82ae 67ba
00000090: 7b36 b4bd 7a26 bbbd 9b9e 73be a514 56be
000000a0: f115 fe3d 055a e43d 6435 aa3c f9e4 e7bd
000000b0: 0412 93bd 55f8 213e 2f59 44bd ce3e 25be
000000c0: b468 423e a032 5cbe bada cc3d 2303 91bd
000000d0: df18 93bd abd6 123e abeb 10bd f3db 4abe
000000e0: da1b 703d 6a28 a0bd de34 a3bd 1202 78be
000000f0: dc5a 20be a7d0 a0bd 426a efbd 1362 2a3e
00000100: 6531 2c3d 2fdb 86bc 2e51 da3b fb74 97be
00000110: 11aa 593d 1fcf 83bd e140 b4bc 1fd6 57bc
00000120: fd98 64bd fcdf 7d3d c275 92be 952c 52be
00000130: a2fc 0a3d aba0 fd3d b578 b8bd ec3e 3a3d
00000140: 03cd 53be 7b3d e73c cb9c 20be 31e8 31bb
00000150: 21d1 bfbd 6034 573e 0eb0 72be 4936 22bd
00000160: 6f6d 4bbe ea15 95bd baee 343e 10c5 61be
00000170: 3fb1 f13c 22f3 263e d726 f83d caba fbbd
00000180: 8dc4 02be ba8c eb3c 7857 073e e4d6 123e
00000190: d1c2 493e ec75 1a3d 94cd 22bd c76b 583e
000001a0: 8a73 29be d701 c5bd f412 efbd c0da 2f3e
000001b0: 90df 803e a7db 853b 0c4e c9bb 5dec 3f3d
000001c0: 6f5c 073d 2cd9 73bd 4ab1 52be 8e46 8f3c
000001d0: de68 a0bd 0b56 073e 3d27 81bc 04c7 06be
000001e0: 8ab3 bbbd fdf3 40be ec67 a8bd 0294 1ebe
000001f0: 11bb 033e 085b 70bd 47c7 32be 46dd 4b3e
00000200: fc39 03be 66f1 013d 806a f03d 0eb4 b7bd
00000210: 274d 693d bcdb 503d ef66 2fbe d8df 933c
00000220: f60b d2bd 3801 d5bd 76be 99bd efd9 a3bc
00000230: c360 4dbe 2ccf 31be aead 1fbd aaa1 a2bd
00000240: 8607 7bbd b67a cf3c 11c2 d9bd e1e9 e13b
00000250: dcc1 efbd df93 0cbd 7374 9cbd a3b8 493d
00000260: c5eb 1a3e efa5 7ebe c38e 46bd ef6a b4bc
00000270: 6ce0 943c 0b79 a73d 145f 8f3c 1309 a7bc
00000280: 47ca 15bc f210 8ebd 17fc e9bc 084d 413d
00000290: e56e bb3c d45b 283e e185 963d e895 813d
000002a0: d0cd 31be 71da fcbd b826 00bd 5889 393e
000002b0: 51fb 123d dee6 61bc abcc 003e 8476 af3c
000002c0: a946 31be 0a75 33be 72a5 423e 64bf 5abe
000002d0: 9289 163e 79c5 f93d ec4c 9bbc 986f 94bd
000002e0: 2ca9 563e e0e3 953b a730 1d3d 233c 90bd
000002f0: c2c2 42bc 40d4 8c3b 821e 483d f1a0 59be
00000300: cba0 0ebe 65c0 17be 198d e0bd 7fb6 14bb
00000310: f1b8 53be 105c 873c 283e 1cbe a406 dd3c
00000320: dff6 5abe 0996 223d 1f72 22bd a7ca 36be
00000330: 5265 23be c0d9 353e e741 753c f933 f3bd
00000340: 6bb9 86bd 05f3 353d e013 623d 8fd3 223e
00000350: 3704 2cbe 5724 c73c fdcc e43d 7ec3 29bd
00000360: 4f8a 3bbe 9aa3 21be 26a0 b239 dd0e 1fbe
00000370: 45f6 59be 6347 143e 6779 593e 61f8 913d
00000380: 81f0 b0bc 054f 0c3e 39fc 82be 1709 16be
00000390: 1b0b 4d3e b78c e9bc ded1 7cbd 7b6c 21be
000003a0: 68c0 cebb 3ba1 2a3e 99e6 5abd 7d69 1bbe
000003b0: 6f7a ef3c ce15 0b3d 3d31 5ebe b61e 2abd
000003c0: 2784 90bc bab9 3fbd 7b82 003e af79 35be
000003d0: 37ac af3c db1a 07bc f01b 963d a421 313e
000003e0: e6bc 37bd 1390 2abe
-0.19029856 -0.011545441 -0.15288684 -0.11327132 -0.10402965 -0.039142486 0.14085141 -0.23278566
-0.0032068368 0.15802535 -0.28850886 0.15322486 -0.04838364 -0.041570246 0.09648069 -0.1503321
0.029621903 -0.12093657 -0.021368666 0.16594376 0.053948622 -0.06942213 -0.27213746 0.051772885
-0.1438286 -0.16102786 0.14321993 -0.053530917 -0.25614622 0.038598485 0.019925727 -0.005992529
-0.10706793 0.20755808 -0.14996985 -0.00088379544 -0.08799454 -0.09138198 -0.23790972 -0.20906313
0.12406529 0.11149982 0.020777412 -0.1132297 -0.071811706 0.15817387 -0.047936615 -0.1613724
0.18985254 -0.21503687 0.10002656 -0.070806764 -0.07182478 0.14339702 -0.035381 -0.19810466
0.05862031 -0.07820208 -0.07969068 -0.2421954 -0.1565966 -0.07852297 -0.11690189 0.16638975
0.042039294 -0.016461937 0.0066625094 -0.29581437 0.053140704 -0.064359896 -0.022003593 -0.013173609
-0.055809963 0.061981186 -0.28605467 -0.20524819 0.033932336 0.123841606 -0.09007398 0.045470163
-0.20683675 0.028227558 -0.15684812 -0.0027146454 -0.0936606 0.21016073 -0.23699972 -0.03960255
-0.19865964 -0.072795704 0.17669192 -0.2204783 0.029503463 0.16303685 0.12116783 -0.122914866
-0.1277029 0.028753627 0.1321696 0.14339787 0.19703223 0.037710115 -0.039746836 0.21134864
-0.16547981 -0.096194915 -0.11673537 0.1717329 0.25170565 0.0040850225 -0.006143337 0.046856273
0.033047136 -0.059533283 -0.20575443 0.017489698 -0.07832502 0.13216417 -0.01576578 -0.13161856
-0.09165104 -0.18843074 -0.082229465 -0.15486148 0.12864329 -0.058680564 -0.17458831 0.19908628
-0.12815088 0.031724356 0.11739063 -0.089698896 0.056958344 0.050990805 -0.1712911 0.018051073
-0.102561876 -0.10400623 -0.07507031 -0.02000138 -0.20056443 -0.17364186 -0.038983993 -0.07940991
-0.06128647 0.025327068 -0.10632718 0.0068943356 -0.117068976 -0.03432071 -0.076393984 0.04924835
0.15129001 -0.24867986 -0.048475992 -0.022023646 0.018173419 0.08177384 0.017501391 -0.02039007
-0.009142465 -0.06936826 -0.028562589 0.047192603 0.022880027 0.1644128 0.07349754 0.063274205
-0.17363667 -0.12346352 -0.031286925 0.18118799 0.035884205 -0.013787953 0.12578075 0.021418817
-0.17312111 -0.17525116 0.19008425 -0.21362072 0.14700916 0.12195868 -0.018957578 -0.07247847
0.20962971 0.004574284 0.038376477 -0.0704272 -0.011887254 0.004297763 0.04885722 -0.212528
-0.13928525 -0.14819486 -0.10964412 -0.0022691784 -0.20676018 0.016523391 -0.15258086 0.026980706
-0.21383236 0.039693866 -0.039659616 -0.17850743 -0.1595662 0.17758846 0.014969326 -0.11875147
-0.065783344 0.044421215 0.055194736 0.15901016 -0.16798483 0.02430932 0.11171911 -0.0414462
-0.1831448 -0.15785065 0.00034070126 -0.15533014 -0.2128535 0.14480357 0.21237718 0.07127453
-0.021599056 0.13702019 -0.25583056 -0.14651905 0.20023768 -0.02850948 -0.061723582 -0.15764038
-0.0063095577 0.16663067 -0.05344257 -0.1517696 0.029233186 0.03395634 -0.2169847 -0.041533194
-0.01764114 -0.046807982 0.12549774 -0.177222 0.021444423 -0.008246149 0.073295474 0.17297989
-0.044857882 -0.16656522
