experiments/classification/toy/gaussian_mixture/pretrained/2025-05-08_11-19-07/CrossEntropy_BatchEnsemble (rank 4).pt (torch, 198160 bytes, 8 tensors)

fc1.r_group f4 [100, 4, 2]
000000 dd 72 ab 3e ec 9b 90 3f 35 71 ee 3e 4f 11 c1 3f
       0.3348607 1.1297584 0.46570745 1.5083407
000010 fe 84 1f 3f f6 42 70 3e f3 06 88 3f d2 54 4d 3f
       0.62312305 0.23463044 1.0627121 0.8020755
000020 29 0d cb 3f 6e b5 a2 3f 6c 95 25 3e 01 f0 b5 3f
       1.5863391 1.2711618 0.16170281 1.4213868
000030 8d 31 d9 3e 26 44 42 3f 05 78 55 3f f6 84 cb 3f
       0.42420617 0.75885236 0.8338626 1.5899951
000040 f5 c2 07 3f a9 47 0d 3f d4 1f 6d 3f e2 33 07 be
       0.53031856 0.5518747 0.9262669 -0.13203385
000050 e3 45 01 40 e7 dd 6c 3f e2 dc a1 3f 78 ab a6 3f
       2.0198905 0.92526096 1.2645533 1.3021078
000060 e6 44 7a 3f 2e 92 68 3f f8 37 be 3f a3 d0 d3 3f
       0.9776138 0.9084805 1.486083 1.6548046
000070 1c cc 80 3f a6 8e 03 bf c6 7c af 3f 6c 39 8e 3f
       1.0062289 -0.5138954 1.3709953 1.1111274
000080 d0 1f 70 3f 55 9e 8e 3f 1f 1d 88 3f 26 ac ab 3e
       0.9379854 1.1142069 1.0633887 0.33529776
000090 73 99 61 3f 1f a3 4f 3f 2d de 4c 3f ee d1 8b 3f
       0.8812477 0.8110828 0.80026513 1.092344
0000a0 7a d7 9a 3f f4 d1 39 3f b5 0c 50 be 1d 0c e2 3f
       1.2097008 0.7258599 -0.20317347 1.7659947
0000b0 4c 71 d7 3f c2 26 97 3f 13 fb 24 3f 71 3c bc 3e
       1.683145 1.1808703 0.6444561 0.36764863
0000c0 63 d5 35 3f b5 55 89 3f 25 6f 84 3f dd b1 af 3f
       0.7102873 1.0729281 1.0346419 1.3726155
0000d0 e0 2b ce 3f 18 eb 77 3f 48 37 78 3f 4f 61 2a be
       1.610714 0.968431 0.9695935 -0.16638683
0000e0 fa 2c 3d 3f f8 fc 1a 3f 1e 23 1f 3f 07 27 bb 3f
       0.73896754 0.6054225 0.6216296 1.4621285
0000f0 43 00 9c 3f 29 b6 62 3f 42 da 14 3f 4a 02 50 3f
       1.218758 0.88559204 0.58145535 0.8125349
000100 2e a0 f0 3e d1 2b bc 3e 70 21 b3 3f 44 dc 71 3f
       0.46997207 0.3675218 1.3994579 0.94476724
000110 d2 b8 d1 3f cd a2 ce 3e e0 02 12 3f da e5 3e 3f
       1.6384528 0.40358582 0.57035637 0.74569476
000120 88 13 91 3f c6 7a 98 3f a1 04 d3 3f cb b4 df 3f
       1.1334085 1.1912467 1.6485788 1.7477049
000130 1c 1a 44 3f 51 f5 a5 3f 6d 41 d6 3f 85 53 51 3f
       0.7660234 1.296549 1.6738716 0.81768066
000140 8e 31 64 3f f2 72 5e 3f 7d ae 13 3f b5 d2 a3 3c
       0.89138114 0.8689414 0.57688123 0.019997934
000150 89 aa 42 3f 2d 94 a4 3f 17 5e f2 3e 28 d7 8e 3f
       0.76041466 1.285772 0.4733741 1.115941
000160 72 3b d0 3e 3b 80 3e 3f 6a ad 1d 3f e1 6e 68 3f
       0.40670353 0.74414414 0.61592734 0.9079419
000170 d6 37 8c 3f 6d 50 85 3f f4 8c 40 3f 72 d4 8a 3f
       1.095454 1.0415169 0.7521508 1.0846083
000180 65 ff 7d 3f 80 ce cf 3e bd d1 8c 3f a6 10 a5 be
       0.99217826 0.40587234 1.1001507 -0.32239264
000190 07 90 32 3f 3c 2e f7 3f 95 c5 b3 3e 59 44 94 3f
       0.6975102 1.9310985 0.3511168 1.1583358
0001a0 10 ef 8b 3f aa 61 ad 3e 23 ff d5 3f b3 d6 97 3f
       1.0932331 0.33863574 1.6718487 1.1862396
0001b0 1d 96 0f 3f 0a 33 83 3d e9 89 c5 3e 57 11 45 3f
       0.5608843 0.06406219 0.3858178 0.76979584
0001c0 7f 43 59 3f de 07 8f 3f 8e c8 b8 3e 24 6a 90 3f
       0.84868616 1.1174276 0.3609051 1.1282392
0001d0 3e 5c 78 3f 39 50 ca 3f 51 ec 47 3f 06 f6 af 3f
       0.9701575 1.5805732 0.78094965 1.3746955
0001e0 9f 5d b8 3f 1f 00 2f 3f e8 9f d1 3f 70 0a 57 3f
       1.4403571 0.6835956 1.6376925 0.840003
0001f0 29 00 26 3f 3f d2 cc 3e f1 ba 40 3f 97 01 bb 3f
       0.64843994 0.40004155 0.7528525 1.460986
000200 dc 00 91 3f 3d db 01 3f 56 1a e6 3e 85 b7 77 3f
       1.1328387 0.50725156 0.44941968 0.96764404
000210 5e e1 80 3f 60 23 f1 3f 62 4d 7e 3f 2f 18 cc 3f
       1.0068777 1.883892 0.99336827 1.594488
000220 c4 94 86 3f 2e 59 84 3f c3 6c d3 3f 2e ed c3 bc
       1.051415 1.0339715 1.6517566 -0.023916807
000230 3e b9 0d 3f ce 21 8a 3f f9 45 9f 3f 39 b0 5a 3f
       0.5536078 1.0791566 1.2443229 0.85425144
000240 0b ec 96 3f c8 52 a3 3f 6b c0 68 3f 70 0e 3c 3f
       1.1790785 1.2759638 0.90918607 0.7345953
000250 6f 86 26 3f 66 8e 51 3f d3 37 9c 3f 48 74 50 3f
       0.6504888 0.8185791 1.2204536 0.8142743
000260 02 50 b3 3f a6 80 be 3f ee f1 d4 3e 6e 66 c6 3f
       1.4008791 1.488301 0.41590828 1.5500009
000270 d1 0d c5 3f ce d4 e3 be 16 64 ce 3f 6d 59 72 3e
       1.5394841 -0.44498295 1.6124294 0.23666926
000280 2b 99 7e 3f 94 f1 8c 3f 8a 4c ee 3f 30 92 96 3f
       0.99452466 1.1011224 1.8617108 1.1763363
000290 26 67 e9 3f 06 24 51 3f 45 e3 3f 3f e5 44 e6 3e
       1.8234603 0.8169559 0.7495616 0.44974437
0002a0 af 25 d1 3f 47 c5 2a 3f 93 bf 1d 3d 65 fd 03 40
       1.6339625 0.6670727 0.038512778 2.062341
0002b0 9b d9 95 3f 21 fd 84 3f ce ac bf 3d 77 9e 04 3e
       1.1707033 1.0389749 0.09359132 0.12951075
0002c0 9d e9 88 3f f5 52 83 3f ad 8f 7f 3f a5 ae 8b 3f
       1.0696293 1.0259691 0.99828607 1.0912672
0002d0 a3 d0 cc 3e 72 56 44 3f 57 43 f4 3e fd b8 73 3f
       0.40002927 0.76694405 0.47707626 0.95204145
0002e0 e2 a7 7a 3e 6e 28 74 3f 37 94 92 3f 5a a0 9d 3f
       0.24478105 0.9537419 1.1451482 1.231456
0002f0 48 c0 9e 3f b6 a2 c9 3f 4c 1c 8f 3f 00 3e b7 3f
       1.240243 1.575278 1.118051 1.4315796
000300 1b b3 b0 3f 4e 73 e3 3e 35 0f 0d 3f e7 48 89 3f
       1.3804659 0.44423908 0.5510133 1.0725373
000310 2a 9c 40 3f 83 0c c9 3f aa 6c 54 3f dd 10 d6 3f
       0.7523829 1.5706943 0.8297831 1.6723896
000320 29 13 6e 3f f9 5f cd 3e 83 51 00 3f f8 85 3a 3f
       0.92997986 0.40112284 0.50124377 0.7286067
000330 9c 96 c5 3f d9 ef a8 3f 19 34 84 3f 3e 5d 86 3f
       1.5436587 1.3198196 1.0328399 1.0497205
000340 20 ce 01 40 ab 04 b6 3f 13 a8 0c 3f ab a2 e6 3f
       2.0282059 1.4220175 0.5494396 1.8018392
000350 c5 14 30 3f 18 60 a1 3f 3f 01 5a 3f 13 c6 39 3e
       0.6878169 1.260745 0.8515815 0.18141966
000360 2f 3a c2 3f 72 37 bc 3f 8e 61 ad 3f 42 1a bc 3f
       1.5174006 1.470442 1.3545396 1.4695513
000370 77 fd 69 3f fa 75 ba 3f 83 83 1a 3f 70 ac 83 3f
       0.9140238 1.4567254 0.6035692 1.0286999
000380 ac 83 c4 3f 02 0a 96 3f f0 f6 98 3f f4 fa 96 3f
       1.5352683 1.1721804 1.1950359 1.1795335
000390 c7 70 37 3f e1 5c 76 3f bc d8 46 3f 8f f2 fe 3e
       0.7165646 0.9623547 0.7767446 0.49794433
0003a0 ed 71 cb 3f e0 74 72 3f a8 01 a6 3f 5a 18 2e 3f
       1.5894142 0.9470959 1.2969255 0.6800591
0003b0 e2 3f 56 3f e8 80 24 3f c4 b6 f0 3d 3e 00 1c 3f
       0.8369123 0.64259195 0.1175361 0.6093787
0003c0 5d 13 d4 3e ed 7c cb 3e ac a8 51 3f 69 4e d5 3f
       0.41421023 0.39743748 0.81898 1.6664554
0003d0 92 79 5b 3e 4c 4e 96 3f 9a 9a 52 3f 32 67 9b 3f
       0.21433094 1.1742644 0.82267153 1.2140868
0003e0 0d 17 39 3f 39 13 6f 3f 20 70 01 40 19 6f aa 3f
       0.723008 0.93388706 2.0224686 1.3315154
0003f0 f0 8c 91 3f 87 5b 94 3f d7 91 9f 3f c9 bc db 3e
       1.1371136 1.1590432 1.2466382 0.4291747

fc1.s_group f4 [100, 4, 50]
000000 48 2f 0d 3f 5e 34 cf 3f e6 1e 11 40 ef a3 40 3f
       0.5515027 1.6187856 2.267511 0.7525014
000010 7e e9 86 3f 91 1e 80 3f d7 00 d1 3d 9f 19 66 3f
       1.0540006 1.0009328 0.10205238 0.89882845
000020 5e e8 fc 3e 71 c8 79 3f dd ca 34 3f 4f aa 8b 3f
       0.49396032 0.97571474 0.70622045 1.0911349
000030 13 f7 89 3f 4a c2 6b 3f 09 2d 27 3f cf 1c 36 3c
       1.0778526 0.92093337 0.65303093 0.011115267
000040 35 c4 dc 3e 98 4c b1 3e 6f 09 d8 3f 40 4f d4 3e
       0.43118444 0.3462875 1.6877879 0.41466713
000050 23 bb 4e 3f 29 80 8e 3e 69 6a 29 3f 46 fd ab 3f
       0.807543 0.27832153 0.66177994 1.3436668
000060 2f b0 49 3f 86 55 4c 3f 27 fe 8b 3f cb d6 4f 3f
       0.7878446 0.79818 1.0936936 0.81187123
000070 ac 2e b5 3f 09 d1 fe 3f 03 80 0b 3f 6c 65 69 3f
       1.4154868 1.9907542 0.54492205 0.9117038
000080 c9 4e 83 3f fe 56 4b 3f 76 b4 be 3f 2a 6b 52 3f
       1.0258418 0.79429615 1.4898822 0.8219477
000090 d6 88 25 3f 17 16 c2 3f 35 9c b6 3f 05 27 c0 3f
       0.6466192 1.5162991 1.4266421 1.5011908
0000a0 44 d3 32 3f 9e de 10 3f 92 38 89 3f 2e ad c1 3f
       0.69853616 0.56589687 1.0720389 1.5130975
0000b0 38 2e c6 3f 2c 16 85 3f 44 f4 42 3f 1a 89 b3 3f
       1.5482855 1.0397391 0.7615397 1.4026215
0000c0 31 3f 7b 3f d6 9e 46 3f a3 b1 a2 3f 4f 33 82 3f
       0.981433 0.77586114 1.271046 1.0171908
0000d0 4d 7f 2f 3f 07 ec eb 3f 73 05 c0 3f 07 04 b5 3f
       0.6855362 1.8431405 1.5001663 1.4141854
0000e0 ca 57 6c 3f 16 88 cd 3f 7b 3e c0 3f f8 64 43 3f
       0.92321455 1.6057155 1.5019068 0.7632594
0000f0 ca 82 8f 3f f5 ee fb 3e 45 0f ba 3f aa 33 ba 3e
       1.1211789 0.49205747 1.453591 0.36367542
000100 04 e8 9d 3f a8 b2 8f 3f ac a2 95 3f 60 01 95 3f
       1.233643 1.1226397 1.1690269 1.1641045
000110 29 47 d4 3f 0a 88 6b 3f 8b ce a2 3e a2 ad 8a 3f
       1.6584216 0.92004454 0.31798205 1.0834239
000120 71 bb 69 3f 2d a6 54 3f 34 d7 0b 3f 87 ea 7f 3f
       0.9130164 0.83066064 0.5462525 0.99967235
000130 07 c5 fe 3e f3 fe 54 3f 19 3b 23 3f 9e 23 91 3f
       0.49759695 0.8320152 0.6376205 1.1338995
000140 42 c2 9b 3f e3 d1 96 3f d2 77 87 3f 67 a8 b9 3f
       1.2168658 1.1782802 1.0583441 1.4504517
000150 c8 4b a1 3e f5 f0 93 3f d2 69 56 3e 80 53 61 3f
       0.3150313 1.1557909 0.20938805 0.88018036
000160 2f f6 85 3f 34 72 97 3f e0 b5 dc 3f b1 64 c8 3f
       1.0465754 1.1831727 1.7243004 1.5655729
000170 ce c5 b6 3f 84 d2 84 3f 0f 2c 48 3f 56 49 b7 3e
       1.4279115 1.0376744 0.7819223 0.35798138
000180 5c ec 9f 3f 9e f6 45 3f 37 24 b8 3f 08 e2 b8 3f
       1.2494006 0.7732943 1.4386052 1.4443979
000190 57 7e 84 3f c8 73 28 3f 1f 26 96 3f 7a 86 88 3f
       1.0351056 0.6580167 1.1730384 1.0666039
0001a0 8c 94 20 3f 48 ad 19 3f 88 31 4f 3f d6 d3 c4 3e
       0.62726665 0.6003003 0.80934954 0.38442868
0001b0 eb 19 9b 3f 23 da db 3f f6 11 84 3f 9d c7 a2 3f
       1.2117285 1.7175945 1.0317981 1.2717167
0001c0 22 a0 bd 3f be f1 d9 3f df f4 b3 3f e0 c1 86 3f
       1.4814494 1.7026899 1.4059104 1.0527916
0001d0 05 3c 86 3f cf 25 97 3e ff ea 10 3f cd 02 44 3f
       1.0487067 0.29521033 0.56608576 0.76566774
0001e0 c2 1e 5c 3f 9b 18 df 3f 97 91 62 3f bd 1c 7c 3f
       0.8598443 1.7429384 0.885034 0.9848135
0001f0 27 a2 a7 3f 63 f7 88 3f 80 a0 89 3f a5 ee 19 3f
       1.309636 1.0700496 1.0752106 0.6012977
000200 db 88 31 3f 3e 3f e1 3f 59 b9 41 3f 29 53 0a be
       0.6934945 1.7597425 0.75673443 -0.13508286
000210 27 1a 98 3f 7e 95 ad 3f a5 01 94 3f 4b 20 b6 3f
       1.1882981 1.3561246 1.1563002 1.4228605
000220 f4 ac 50 3e 55 12 f6 3e a7 15 62 3f 69 c1 b0 3f
       0.20378476 0.4806086 0.8831429 1.3809024
000230 33 08 8b 3f 2b 50 ca 3f c5 ac fd 3e aa 1a a1 3e
       1.0861877 1.5805715 0.49545875 0.31465656
000240 0d 2e 39 3f 2f ce c9 3f f0 2a 55 3f 2b c5 9f 3f
       0.7233589 1.5766047 0.8326864 1.2482046
000250 80 b2 68 3f 2e 2a 17 40 87 9b 1d 3f 8b 50 ee 3e
       0.9089737 2.3619494 0.6156544 0.46545824
000260 27 21 dd 3f cd da b3 3f 51 3a bd 3f a8 02 fb 3f
       1.7275742 1.4051148 1.4783422 1.9610186
000270 63 33 1a 3f 37 f7 a0 3f f4 14 37 3f 4b 83 96 3f
       0.6023466 1.2575444 0.71516347 1.1758817
000280 e4 af 9c 3f 6b 9c 94 3f 35 4f ae 3f 5b 19 c7 3f
       1.2241178 1.1610235 1.3617922 1.5554613
000290 3c f5 93 3f ee 4b a4 3f bc ec 83 3f 45 fc a6 3f
       1.1559215 1.2835672 1.0306621 1.3045737
0002a0 89 98 48 3f 5e 86 6d bd af 10 bc 3f 43 0e 4d 3f
       0.7835775 -0.05798947 1.4692591 0.80099887
0002b0 01 01 7c 3f 5d ca c2 3f 3d 9a 5e 3f b4 b8 6c 3f
       0.9843903 1.5218006 0.869541 0.92469335
0002c0 61 15 a8 3f 28 2b 00 3f 24 a6 1f 3f 0b ce 87 3f
       1.3131524 0.5006585 0.62362885 1.0609754
0002d0 2d c9 0e 3f 5d 4f 88 3d ba 78 27 3f 9e 7f a9 3f
       0.5577572 0.06655762 0.6541859 1.3242071
0002e0 fa 4e c7 3e ba 00 6e 3f 08 67 b0 3f 83 19 fb 3f
       0.38927442 0.9296986 1.3781443 1.961716
0002f0 5e 0e 43 3f 58 50 d6 3d 59 ab a8 3f 38 7e 9b 3f
       0.761938 0.10464543 1.3177291 1.2147894
000300 0d c0 e6 3f 8f 3d 6e 3f fb 4c af 3f fd 77 2b be
       1.8027359 0.9306268 1.3695368 -0.1674499
000310 e4 63 83 3f 00 f7 3b 3f d9 b3 86 3f 17 8c 04 40
       1.0264859 0.7342377 1.0523635 2.0710504
000320 b7 2e 9b 3f 2a be f3 3f 3c fa 6c 3f 11 e8 86 3f
       1.2123631 1.9042408 0.9256933 1.0539571
000330 9b 2c d1 3e 04 b4 ad 3e cf 06 b5 3f c2 40 9c 3f
       0.40854344 0.33926404 1.4142703 1.2207263
000340 88 c1 30 3f fb b0 3e 3f ea 8d d2 3f d0 91 ed 3f
       0.69045305 0.744888 1.6449559 1.8560123
000350 10 48 e3 3f f7 b6 32 3f a6 f8 a9 3f 3b 62 f0 3f
       1.7756367 0.6981043 1.3279006 1.8779978
000360 ee 47 ae 3f 68 aa df 3f 93 ef b0 3f 77 c4 63 3f
       1.3615701 1.7473879 1.3823112 0.88971657
000370 f8 da 1f 3f e3 0c c5 3f a4 17 d6 3f 6a 08 9b 3f
       0.62443495 1.5394558 1.6725965 1.2111943
000380 ba 89 46 3f e7 36 94 3f 47 ff 97 3f f1 7f 82 3f
       0.77553904 1.1579255 1.187478 1.0195295
000390 de 67 31 3f 43 fe aa 3f e1 28 9e 3f 51 52 34 bd
       0.69299114 1.3358845 1.2356225 -0.044023816
0003a0 17 c9 a5 3f 2b 89 20 3e 31 ef 8c 3f 98 31 c3 3f
       1.2951993 0.15677325 1.1010495 1.524951
0003b0 fc dd 45 bd f9 86 9b 3f c4 d7 15 3f d8 58 53 3f
       -0.048307404 1.2150565 0.5853236 0.8255744
0003c0 05 e6 3a 3f 20 ca c6 3f a8 10 2a 3f 25 4b 77 3f
       0.7300723 1.5530434 0.66431665 0.96599036
0003d0 0e da 62 3f b1 c1 a7 3f 3c ca a7 3f 3d eb 26 3f
       0.88613975 1.3105985 1.3108592 0.65202695
0003e0 83 c1 9e 3f b8 1c d0 3e cb 5e 6d 3f 2c b7 51 3f
       1.2402805 0.4064691 0.9272277 0.81920123
0003f0 b3 e3 13 3f 12 82 d2 3f 4b d7 89 3f 7d d2 dc 3e
       0.57769316 1.6445944 1.0768827 0.4312934

fc1.bias f4 [100, 50]
000000 ee 4e a7 bd b8 8d d6 3e 59 c6 cb 3e 77 bf 97 be
       -0.081693515 0.41904998 0.39799765 -0.29638264
000010 51 4a 18 bf e0 4b ae be c1 c8 7d bd 9e aa ad be
       -0.594884 -0.34042263 -0.061959032 -0.33919233
000020 25 77 2c bf 53 79 be be 76 b4 d7 3e 3c 11 f7 be
       -0.673693 -0.37201938 0.42129868 -0.48255336
000030 29 9d 9f be dd 9e 8c 3e c9 5f 1a bf bb 2d b0 3e
       -0.3117459 0.27464953 -0.60302407 0.3440989
000040 c5 d1 2d 3e db e1 4b be a6 0f df be 01 e6 bd 3e
       0.16974552 -0.19910376 -0.43566626 0.37089542
000050 3b d1 96 be 25 c1 ef be e8 83 1b bf 17 44 c6 3e
       -0.29456505 -0.46827045 -0.6074815 0.38723823
000060 11 1d 0b 3e b2 ad a7 3e fb 58 29 3f 49 3e 34 bf
       0.13585307 0.32749707 0.661514 -0.7040754
000070 dd 60 cd 3d c5 6c 2b be 4c c5 19 be 9e b7 0a be
       0.10028241 -0.16740711 -0.15016669 -0.13546607
000080 ac 50 2d 3e 4f 6c ca 3e 48 c2 89 be ad 6d 23 bf
       0.16925305 0.39535758 -0.26906037 -0.63839227
000090 ed 25 8f 3e 96 bc 41 3c cf 9d 14 bf 49 85 0b 3f
       0.27958623 0.011824748 -0.58053297 0.5450025
0000a0 31 43 d3 3e b4 da dc bd f9 2f 5f be 76 65 f4 3e
       0.412622 -0.10783902 -0.21795644 0.4773366
0000b0 af 91 8a bd 53 d8 ac be 2f 20 be 3e 6d 3c 15 3f
       -0.06766068 -0.33758792 0.3713393 0.5829533
0000c0 51 3b 84 3e 8f e1 bd 3e 3a 52 db 3e e9 8c db 3d
       0.25826505 0.3708615 0.4283617 0.10720236
0000d0 32 fe 88 3e 96 57 e6 3e 05 01 da 3d b9 32 07 3e
       0.26756436 0.44988698 0.10644726 0.13202943
0000e0 22 53 1f 3e 02 c1 c6 be 15 29 38 be 5f 89 d0 be
       0.15559056 -0.38819128 -0.17984422 -0.40729806
0000f0 e2 1b 2e 3f da 23 bb be e0 e8 aa be 4c ad 8d be
       0.68011296 -0.3655079 -0.33380795 -0.27671278
000100 16 c0 38 3f d5 c1 8d bd 03 75 af bc f0 b2 36 3e
       0.721681 -0.06921736 -0.0214181 0.17841697
000110 de 2d 50 be 65 8e ce 3e f6 c1 3e bf 38 46 bb be
       -0.20329997 0.40343013 -0.7451471 -0.3657701
000120 ac 48 74 be ed 14 eb 3e 4e 83 43 bf 40 26 bd bd
       -0.23855847 0.45914403 -0.7637223 -0.09235811
000130 99 5d 01 bf f1 37 06 3e 48 91 02 3f fd d3 f6 be
       -0.50533444 0.13107277 0.5100293 -0.4820861
000140 81 38 da be 74 1b 1a bf bf 15 4e be 8f f9 8c 3e
       -0.42621234 -0.6019814 -0.20125483 0.27534148
000150 cb fd 6f bd 2b c4 cb 3e f9 04 36 bf 20 5d 85 3e
       -0.058591645 0.39798102 -0.7110134 0.2604761
000160 fa 70 2e 3f 0b d3 f7 3e 7e a8 3e be 22 ef 6a be
       0.6814114 0.484032 -0.18618962 -0.22942784
000170 46 57 a4 3e 8d da 3d bf aa db b7 3d 81 5a 06 be
       0.32097834 -0.7416161 0.089774445 -0.13120462
000180 99 28 c4 be e7 92 3f 3e df 88 9e be 78 d0 4e be
       -0.38312224 0.18708383 -0.309638 -0.20196712
000190 2d 47 17 bf c9 1c 82 3e 3e 23 3d be 7d 4a 9a 3e
       -0.5909298 0.25412586 -0.18470475 0.30134955
0001a0 9b 8f 20 bc b6 7d b2 3e 34 8e 86 3e b0 fe da 3e
       -0.009799863 0.34861535 0.26280367 0.42772436
0001b0 12 ce e9 3e 12 08 cc 3e 68 3b f3 3e 85 a4 0d be
       0.45665032 0.39849907 0.4750626 -0.1383229
0001c0 39 aa ea be fc 2d d1 be 92 28 06 bf 5a f5 d6 bd
       -0.45832995 -0.40855396 -0.52405655 -0.10496016
0001d0 17 f4 fa be 70 dd ab 3e f8 ad ff 3c 38 f0 29 3e
       -0.4901435 0.3356738 0.031210884 0.16595542
0001e0 93 74 26 3f dd dc a4 be f7 9e 27 3f be 24 21 3e
       0.6502163 -0.32199755 0.65476936 0.15736672
0001f0 14 a6 32 bf 2a d4 ce 3e d7 4d 31 be 45 57 d5 bd
       -0.69784665 0.40396243 -0.1731485 -0.10417036
000200 0b 60 86 3e 5f d1 04 3f 68 1d ca be d2 33 a0 3e
       0.2624515 0.51881975 -0.3947556 0.31289536
000210 fb 16 1a 3f 58 fb e5 3e b9 e8 e1 be 08 f6 06 bf
       0.60191315 0.44918323 -0.44122866 -0.52719164
000220 92 88 e5 be 15 a2 b5 bd d2 f1 80 3e 61 65 3f 3d
       -0.44830757 -0.08868805 0.25184494 0.04672754
000230 d7 fd ca be 38 16 66 bd 9e ae c4 be c2 49 03 3f
       -0.3964679 -0.056173533 -0.38414472 0.5128442
000240 aa 3a 39 be fc 73 1d bf 05 79 b7 3e 45 8f 0f bf
       -0.18088785 -0.61505103 0.35834518 -0.56077987
000250 f7 4e e5 be ac da 2b bf c9 05 a4 be 73 fe b0 3e
       -0.44786808 -0.6713054 -0.32035664 0.3456913
000260 a9 13 43 3e b7 06 0a 3e 3e 4f 03 3e 66 1d 81 be
       0.19050469 0.13479124 0.12823197 -0.25217742
000270 4c e9 84 be 76 87 d7 3d ed 29 1c bf 18 21 15 3e
       -0.2595924 0.10523884 -0.61001474 0.14563406
000280 c8 55 ec be 1f bd ca 3e b0 aa 2e 3e 02 43 19 bd
       -0.46159196 0.39597413 0.170573 -0.03741742
000290 b5 27 3d 3f a4 46 21 be c1 9a e8 be fa c0 59 be
       0.73888713 -0.15749604 -0.45430568 -0.21265021
0002a0 65 4f 26 be bf c5 95 be 32 67 18 bf bb 9e 44 3e
       -0.16241224 -0.2925243 -0.59532464 0.19201176
0002b0 37 6f 1d be 68 ae 0c bf 3b a6 db be 44 ea 2a 3f
       -0.15374456 -0.5495362 -0.4290026 0.6676371
0002c0 09 3b 9c bc f2 45 d4 be a4 2f 2e bf 45 ef 25 be
       -0.019071119 -0.41459614 -0.68041444 -0.16204555
0002d0 92 46 12 bf 84 34 33 bd 20 17 9a 3e 8e 34 09 3f
       -0.5713893 -0.043751255 0.30095768 0.5359582
0002e0 5f 82 59 3e 0e 82 20 bf 88 39 29 3f d5 82 51 3d
       0.21241139 -0.6269845 0.6610341 0.05115016
0002f0 27 1f 28 3f 27 71 0e bf de f3 e8 3e 63 73 30 bf
       0.65672535 -0.55641407 0.45498556 -0.68926066
000300 0e 37 e4 be 7d 1c 82 3d 41 36 f5 3e d3 19 00 3f
       -0.44573253 0.0635309 0.47892955 0.50039405
000310 8f 8b fb 3e 9f 8c 0c bf 62 64 2d be 05 40 e3 3d
       0.49129912 -0.5490207 -0.16932824 0.11096195
000320 50 09 8b be 69 52 13 be cf 0a b7 be 33 84 97 3e
       -0.27155542 -0.14386906 -0.35750434 0.29593047
000330 93 4c 12 3f cd 09 14 3f 78 8c 25 3e 69 a4 26 bd
       0.57148093 0.57827455 0.16166866 -0.040684137
000340 c6 c6 3d 3f 0c 23 27 3f 76 0a 0e bf 70 12 02 3f
       0.7413143 0.6528785 -0.5548471 0.50809383
000350 9b 1e c6 3e 8b 88 24 bf bb 9a 8d 3d da d2 10 3f
       0.38695225 -0.6427085 0.06914278 0.56571734
000360 dd 2b ea 3e 01 ca 70 3e 21 b0 4d 3e 9c 9a c3 bd
       0.4573659 0.23514558 0.20086719 -0.09550974
000370 e2 37 0a 3f 8e 35 2c 3f 19 9d 4b bb c0 33 29 bf
       0.5399152 0.6726922 -0.003106898 -0.6609459
000380 5a 23 31 3f da 40 09 3f c7 12 a9 3e 26 13 8f 3e
       0.6919457 0.5361458 0.33022138 0.27944297
000390 d4 fe 14 3f 21 dd 1c 3f 9b f0 65 3d a9 ce 89 3e
       0.58201337 0.61274916 0.056137662 0.26915482
0003a0 85 7c 07 bf 23 71 64 be 31 27 b6 3d 2c 5f db 3c
       -0.52924377 -0.22308783 0.08894194 0.02677878
0003b0 61 dd 21 3e 49 d8 96 3e 79 dc 33 3f 27 ae 10 bf
       0.15807106 0.29461887 0.7025829 -0.56515735
0003c0 6b bc a5 3e aa 69 1c 3f d2 4f 66 be 64 c1 79 3e
       0.32370314 0.6109873 -0.22491387 0.24390179
0003d0 73 80 b3 3e 6c 74 89 3e b9 33 c4 be 0f 1c 12 3f
       0.35058936 0.26846635 -0.3832071 0.57074064
0003e0 98 4f d3 3e 7a 93 f4 3e f6 7d 1f be e5 a7 f0 3e
       0.41271663 0.47768766 -0.15575394 0.47003093
0003f0 a3 5c d0 3e b9 57 e8 3e a6 55 8f 3e 52 a0 3d 3e
       0.40695676 0.45379427 0.27995032 0.18518189

fc1.linear.weight f4 [50, 2]
000000 76 56 e6 3d ac 3b ec bd 66 6e 49 be 88 f7 14 bf
       0.1124696 -0.11534819 -0.1967102 -0.581902
000010 48 5a d7 bd f3 d5 8f 3e 6d 9d d5 be 07 a6 34 3e
       -0.10515267 0.28092918 -0.4172167 0.1764146
000020 4a 6b 13 3d d4 3f 45 be c7 4a 05 3f 79 db 8a be
       0.03599099 -0.1926263 0.52067226 -0.2712057
000030 61 15 05 3f de 34 35 3e 7d d0 d5 3e 04 1f a7 3e
       0.51985747 0.17695948 0.41760626 0.3264085
000040 6d 78 00 3e 6a ff 5f be 10 62 bd be c0 9c fc 3e
       0.12545939 -0.21874776 -0.36988878 0.4933834
000050 9a d1 b2 3e 11 4c be be da ca cf 3e 0c 1e 26 3e
       0.34925538 -0.3716741 0.4058445 0.162224
000060 94 7a 69 bd cd 81 13 be 72 19 e9 be dc 20 ae 3c
       -0.057001665 -0.14404984 -0.45527226 0.021255903
000070 0c a6 ab be a1 fb fb 3e fa 11 89 bd 85 55 b8 be
       -0.3352512 0.49215415 -0.06692882 -0.36002746
000080 53 a2 31 3f 53 3d a1 be f1 02 ab 3e ce 43 5e be
       0.6938831 -0.314921 0.33400682 -0.21705553
000090 3c 2e 98 3e a7 3e f9 3e e2 98 c7 3e 96 73 b3 3d
       0.29722774 0.48680612 0.38983828 0.08762281
0000a0 3c bc b7 be 92 1e 99 3e 95 6e d6 3e 3f ea 10 3f
       -0.358858 0.29906136 0.41881242 0.5660743
0000b0 ce c9 2c 3d a0 ba 0a bf e0 c5 f9 3e ba 50 be 3e
       0.042184643 -0.5419102 0.4878378 0.37170964
0000c0 0a 07 f5 3e e8 dd 01 bf c2 ca 07 3f be 1a ee 3e
       0.47856933 -0.5072923 0.5304376 0.46504778
0000d0 14 a5 17 3f e9 69 91 3c 12 9e 30 bf 88 9e a1 3e
       0.59236264 0.017750697 -0.68991196 0.31566262
0000e0 fe b7 dd be a5 b8 fc 3e f4 e4 27 bf 24 4a d2 3c
       -0.43304437 0.49359623 -0.6558373 0.025670119
0000f0 2b 20 21 3e b9 e6 02 be 62 ca 25 bf f6 02 9c 3e
       0.15734927 -0.12783326 -0.64761937 0.3047101
000100 a7 f2 b1 be bd d4 cb be 5b 9d e2 3e ec 28 d1 be
       -0.34755442 -0.39810744 0.44260678 -0.40851533
000110 46 a8 9a 3e 28 51 a7 3e 03 87 ce 3e 8f d3 ef 3e
       0.30206507 0.32679105 0.4033738 0.46841094
000120 5a e7 e7 3e 74 dd b9 3e 8b 79 cf 3e 66 33 07 bf
       0.45293695 0.36301768 0.40522417 -0.528128
000130 c1 2a ec 3e bc 82 90 be 74 e3 0c 3d d7 58 e5 bd
       0.4612637 -0.28224742 0.034396604 -0.111985855
000140 c2 70 d8 3e b0 ab 23 bf 28 1b 9a be b1 1c 27 bf
       0.42273527 -0.6393385 -0.30098844 -0.65278155
000150 63 c8 9a bc 07 6b 0e 3f dd 4b ae be 80 c4 c8 3e
       -0.01889438 0.5563206 -0.34042254 0.39212418
000160 f4 3c 0b bf 91 e4 fe 3d a7 21 01 3f d1 55 16 bf
       -0.5438988 0.12445939 0.50441974 -0.58724695
000170 12 63 df bd 3b ea 61 3e 18 d8 36 be 57 8b ee 3e
       -0.10907568 0.22062008 -0.1785587 0.46590683
000180 a0 2e 4c 3e de 93 89 be d6 ab 1d be db 1e 65 3e
       0.19939661 -0.26870626 -0.15397581 0.22375052

fc2.r_group f4 [100, 4, 50]
000000 1c c5 90 3f e8 35 94 3f 66 86 38 3f cd 5b 4f 3f
       1.1310153 1.1578951 0.72080076 0.8099945
000010 5b 59 63 3e 5e c1 87 3f 2b 9f 03 3f 77 00 99 3e
       0.22202055 1.0605886 0.51414746 0.29883167
000020 d4 b8 36 3f c9 fe 5d 3f e2 09 7c 3f 45 10 d7 3f
       0.71375775 0.86716896 0.9845258 1.680184
000030 6b 7f fb 3f b5 c6 c8 3f 4b d0 d2 3f 9d 9b 91 3f
       1.964826 1.568564 1.6469816 1.1375614
000040 1d b7 b5 3f 72 f0 b3 3e b2 b8 bb 3f 16 34 ea 3f
       1.4196507 0.35144383 1.466574 1.8297145
000050 d5 88 97 3f d7 3e 4f 3f a0 4f a4 3f 69 73 09 3f
       1.1838633 0.8095526 1.28368 0.53691727
000060 18 fc 3e 3f 73 65 9b 3f 47 f3 3c 3f c4 bb 4f 3e
       0.74603415 1.2140335 0.7380871 0.2028647
000070 2e c9 a0 3f 27 f3 95 3f 9f 38 0e 40 6d a8 87 3f
       1.2561395 1.1714829 2.2222059 1.0598274
000080 8b c9 d5 3f fc c7 44 3f 92 bb 70 3f c1 e7 82 3f
       1.6702131 0.7686765 0.9403621 1.0226976
000090 a2 96 2b 3f bb 91 91 3f af 7c 8e 3f 68 6b 9e 3e
       0.6702672 1.1372598 1.11318 0.3094132
0000a0 90 cd e6 3f ee a3 be 3f 65 c8 63 3f df e6 bd be
       1.8031483 1.4893777 0.8897765 -0.37090203
0000b0 99 63 1d 3d ec 0a da 3f c9 7c 2c 3f 75 2c cd 3f
       0.03842506 1.7034583 0.6737791 1.6029192
0000c0 7d 46 97 bd 1f 54 5d 3f 95 13 c3 be ef f0 46 3f
       -0.073864914 0.86456484 -0.38100877 0.77711385
0000d0 dd ad a6 3f 79 a2 24 3f b0 66 a5 3f f0 0c a1 3f
       1.3021809 0.64310414 1.2921963 1.2582073
0000e0 cb 66 5c 3f e9 42 a1 3e ed 69 98 3f 63 54 27 3f
       0.8609435 0.3149636 1.1907326 0.6536314
0000f0 08 79 5a 3f de b9 6d 3f 10 aa c2 3f 2a c9 be 3f
       0.8534093 0.92861736 1.5208149 1.490514
000100 ca 56 cf 3f 0b 95 b0 3f e9 15 76 3f c9 5a 56 3f
       1.6198361 1.3795484 0.9612718 0.8373228
000110 25 e7 16 3f db e5 00 40 74 27 82 3f 76 bf 62 3f
       0.5894645 2.0140293 1.016829 0.88573396
000120 e4 cb 45 3f b0 67 c8 3f 87 58 a4 bd 9d 15 a4 3f
       0.7726424 1.5656643 -0.08024698 1.2819096
000130 69 2c a1 3d 1e 6c 84 3f 73 7c 73 3f 88 eb 17 40
       0.07869799 1.0345495 0.9511177 2.3737507
000140 e7 3b a6 3f 10 cf c6 3f 66 e9 80 3f 4d 17 ae 3f
       1.2987031 1.553194 1.0071228 1.3600861
000150 78 9d a3 3f 3b 75 bf 3e 17 4c 38 3f 2e 67 29 3e
       1.2782431 0.37394127 0.71991104 0.16543266
000160 45 5b aa 3f 20 0b 80 3f a5 dc ea 3e 4f 48 87 3f
       1.3309103 1.0003395 0.45871463 1.0568942
000170 55 85 b5 3e e6 0b 85 3f e2 58 8f 3f fb 6a be 3e
       0.35453287 1.0394256 1.1199 0.37190995
000180 8d 58 d1 3f 11 77 c4 3f 68 66 50 3f 82 72 de 3f
       1.6355149 1.5348836 0.8140626 1.7378695
000190 52 b2 b8 3f d6 cb 06 3f 20 97 33 3f da 51 7f 3f
       1.4429419 0.5265478 0.70152473 0.9973427
0001a0 cc 1f f6 3e da d2 00 40 05 92 b0 3f 4c 45 24 3f
       0.48071134 2.0128694 1.3794562 0.6416824
0001b0 b5 a7 54 3f a8 ff c4 3f d0 99 b2 3e 1c f8 6f 3f
       0.830684 1.539052 0.34882975 0.9373796
0001c0 10 51 99 3f 3b 85 c2 3f 51 76 e8 3f 36 41 2d 3f
       1.1977863 1.5196909 1.8161107 0.6767763
0001d0 81 8a a2 3f 8e 5c 91 3f d4 ed b6 3f 52 6b 18 3f
       1.2698518 1.135637 1.4291329 0.5953876
0001e0 e2 fb 70 3f bc a6 b2 3e 06 2f 3a 3f 6a cf 8f 3f
       0.9413434 0.34892833 0.72728 1.1235173
0001f0 12 34 6d 3f 47 18 0a 3f f6 8c 5d 3f f0 51 9d 3f
       0.9265758 0.53943294 0.86543214 1.229063
000200 7d 5b eb 3c 50 46 da 3f 02 ed bc 3f c7 98 d6 3f
       0.028730148 1.7052708 1.4759829 1.6765374
000210 72 06 c3 3e f2 97 71 3f e2 00 95 3f d0 dc ca 3f
       0.38090855 0.94372475 1.1640894 1.5848637
000220 76 4f a7 3f 0b 1c a0 3f 32 cc a1 3f 5f 84 aa 3f
       1.3071125 1.2508558 1.264044 1.3321646
000230 48 44 ec 3d 33 e9 24 bf 0a 95 f9 3e d6 e7 e1 3e
       0.11536461 -0.64418334 0.4874652 0.4412219
000240 df e6 6d 3e 99 9d ac 3e 72 0a b0 3f ad 3a 98 3f
       0.23232602 0.33713987 1.3753188 1.1892906
000250 27 ce 8c 3f ee 5b 4b 3f d8 59 a0 3f 0a d3 b9 3f
       1.1000413 0.7943715 1.2527418 1.4517529
000260 39 e9 ff 3e 65 f6 41 3f f1 55 f6 3e 9b c9 00 40
       0.49982622 0.75766593 0.48112443 2.012305
000270 94 6f 51 3e a5 10 f0 3e 3a 56 c6 3f 62 65 43 3f
       0.2045272 0.468877 1.5495064 0.7632657
000280 47 fc c7 3f ac d4 10 3f 78 ac ac bc 88 ce a3 3f
       1.5623864 0.5657451 -0.021078333 1.2797403
000290 90 df c0 3e 42 4a bb 3f f0 3c a0 3f 13 30 9d 3f
       0.37670565 1.4632037 1.2518597 1.2280296
0002a0 c5 33 40 3f 86 cf 75 3f 1f 72 70 3f d2 15 84 3f
       0.75078994 0.9601978 0.93924135 1.0319159
0002b0 e8 a7 31 3f 59 32 c2 bd 1c 7e a9 3f cc 3d af 3f
       0.6939683 -0.09482259 1.324161 1.3690734
0002c0 43 e9 78 3f c5 74 1c 3e c8 21 34 3f 3f 78 a6 3f
       0.9723093 0.15278919 0.70364046 1.3005446
0002d0 9d 16 be 3f c5 87 99 3f 77 e3 46 3f d5 93 56 3f
       1.4850651 1.1994559 0.77690834 0.83819324
0002e0 ed 81 92 3e 2d 19 f2 3e 39 10 94 3f a4 2c fd 3f
       0.2861475 0.47284833 1.1567451 1.9779248
0002f0 09 53 af 3f ee c0 f0 3f b8 c7 b6 3f 80 1f 98 3f
       1.3697215 1.8808877 1.4279699 1.1884613
000300 1a ef 2f 3f f7 aa a6 3f c1 93 e4 3f f4 53 8c 3f
       0.68724215 1.3020924 1.7857591 1.096312
000310 6f 79 1c 3f 5a 54 53 3f f1 86 46 3f ec fe 75 3f
       0.6112279 0.82550585 0.77549654 0.96092105
000320 e1 68 84 3f 48 f9 a9 3f 5c 18 52 3f 91 f1 86 3f
       1.0344507 1.32792 0.8206842 1.054247
000330 fc e3 8a 3f 99 ea ad 3f 2d 78 ef 3f 6a 0c 5c 3f
       1.0850825 1.3587219 1.870855 0.8595644
000340 f4 cc 9f 3f 02 c7 9e 3f 71 4a 1b 3f ec db 4a 3f
       1.2484422 1.2404482 0.60660464 0.79241824
000350 fe 96 b9 3f 20 5d 30 be e1 f1 e5 3f d2 25 b0 3f
       1.4499204 -0.17223024 1.796444 1.3761542
000360 99 66 5e 3f 88 98 33 be 92 72 ab 3f 82 5b c1 3f
       0.868753 -0.17538655 1.3394339 1.5106051
000370 0d 3b 94 3e 2a e9 7c 3f ac 24 d2 3e 1b 7f 98 3f
       0.28951302 0.9879328 0.41043603 1.191379
000380 7f 55 52 3f 67 80 bb 3f 4f 43 0f 3f ff f4 c0 3f
       0.82161707 1.464856 0.5596208 1.5074767
000390 75 36 8e 3f b7 4a 19 3f d9 8b b6 3f 17 9e 0f 3f
       1.1110369 0.5987963 1.4261428 0.561006
0003a0 57 e7 b4 3e 9d b6 76 3f e7 c8 f9 3e 80 85 b6 3f
       0.35332748 0.96372396 0.4878609 1.4259491
0003b0 7d 19 9c 3f 0e be 64 3f 0a f2 ed 3e 92 a4 a9 3f
       1.2195278 0.893525 0.46473724 1.3253348
0003c0 47 3d b1 3f 09 f7 c5 3f 31 91 aa 3e b9 a4 4d 3f
       1.3846825 1.5466014 0.33313897 0.8032947
0003d0 68 a0 50 3f 42 f3 41 3f 4b 13 a2 3f 72 0d 8b 3f
       0.8149476 0.75761807 1.2662138 1.0863478
0003e0 03 95 e3 3f 4e b0 77 3f a3 3b ac 3f 2e 35 5e 3f
       1.777985 0.96753395 1.34557 0.86799896
0003f0 ef f7 c0 3f 0a 52 96 3f 3c ea 37 3f 8c ac 3c 3f
       1.5075663 1.1743786 0.7184179 0.73700786

fc2.s_group f4 [100, 4, 5]
000000 4a a0 a6 3f 71 3e b9 3f 4e 0b 78 3f 7d e8 ca 3f
       1.3017666 1.4472181 0.9689225 1.58522
000010 5d 5f b9 3f 5a ab a5 3f 58 f0 c0 3f e1 64 d9 3f
       1.4482228 1.2942917 1.5073347 1.6983911
000020 e1 2c 31 3e 41 58 8f 3f a7 8b fb 3f 77 b2 56 3f
       0.17302276 1.1198808 1.9651994 0.83866066
000030 b3 9c 32 3f 74 9b 10 3f 7b 5e 84 3f e7 88 3f 3f
       0.69770354 0.564872 1.0341333 0.7481827
000040 73 c1 9f 3f 77 78 ac 3f b6 c6 ca 3e fd 29 f2 3c
       1.2480911 1.3474263 0.3960473 0.029561037
000050 1a dd 92 3f 23 c9 16 3f 1b ce 63 3f b4 83 97 3f
       1.1473725 0.5890066 0.88986367 1.1837068
000060 2b 96 1c 3f 8b 18 19 3f c1 dd 89 3f ed f7 36 3f
       0.6116664 0.59803075 1.0770799 0.71472055
000070 eb 55 9d 3e 9b 95 82 3f 0a 48 33 3f 19 33 68 3f
       0.30729613 1.0201906 0.700318 0.9070297
000080 28 c2 bd 3f 8c de 89 3f d8 15 17 3f 2c 0c 76 3e
       1.4824877 1.0771041 0.59017706 0.2402808
000090 0c ae 6e 3f a0 51 8f 3f c0 79 ad 3f d4 3d 98 3f
       0.93234324 1.1196785 1.355278 1.1893868
0000a0 39 be 19 3f 67 c0 d3 3f a1 dc e5 3e f0 dc 80 3f
       0.6005588 1.6543092 0.4489489 1.0067425
0000b0 23 e0 8e 3f 54 14 9e 3f 3f 73 b8 3f 89 22 24 3f
       1.1162151 1.2349954 1.441017 0.64115196
0000c0 ec d8 5c 3f a9 20 0b 3f 38 42 8b 3f af 6d f8 3f
       0.86268497 0.5434671 1.0879583 1.9408473
0000d0 f3 c9 69 3e fe 82 f7 3e 21 1b b6 3f 2d e4 ed 3f
       0.22830944 0.48342127 1.4227029 1.8585259
0000e0 f2 eb 96 3f 9a d3 cb 3f b8 36 8b be 2f c5 07 3f
       1.1790755 1.5923951 -0.27190185 0.53035253
0000f0 fd c8 50 3f 58 0c 9a 3f c0 fe 87 3f f3 f2 0a 3f
       0.81556684 1.2035017 1.0624619 0.5427696
000100 8f bd 64 3f d6 17 b5 3f 4a 89 a2 3e 27 8c 6f 3f
       0.89351743 1.4147899 0.31745368 0.9357323
000110 6b b9 db 3f 65 d9 e8 3f 6f fc 99 3e 8c 6a c0 3f
       1.716596 1.8191344 0.30075404 1.5032516
000120 f1 bc e7 bc 7a af 9f 3f 46 33 b6 3f 17 5a 8c 3f
       -0.028288336 1.2475426 1.4234397 1.0964993
000130 15 2b 69 3f 6a bd d0 3f ed 46 34 3f 8e ae e2 3f
       0.9108136 1.6307805 0.70420724 1.770952
000140 b0 cc e9 3f 66 18 a9 3f 3f 8d 7a 3f c2 c5 6e 3f
       1.8265591 1.3210571 0.97871774 0.93270504
000150 1f f9 9f 3f be ac 89 3f 58 86 89 3f 1e c1 31 3f
       1.2497901 1.0755842 1.0744123 0.694353
000160 9b 65 67 3f e5 6c 83 3f 3c ff c1 3e 96 21 87 3f
       0.9038941 1.0267607 0.3789004 1.0557125
000170 71 d7 ad 3f d2 14 c4 3f 93 32 1d 3f 3b cf 2c 3e
       1.3581372 1.5318854 0.61405295 0.16875927
000180 31 9d c8 3f 69 bd 83 3f b6 7d 28 40 55 6d 98 3f
       1.5672971 1.0292178 2.6326728 1.1908365
000190 b1 52 ff 3f 79 77 03 3f 73 f0 5d 3f fb 89 d3 3f
       1.994711 0.51354176 0.8669502 1.6526483
0001a0 a7 d0 86 3f 93 de 0f 3f b9 a7 86 3e e4 42 8c 3e
       1.0532426 0.56198996 0.26299837 0.27394783
0001b0 97 16 5b 3f f5 28 ac 3f 0b 59 5c 3f f6 4d 73 3f
       0.85581344 1.3449999 0.8607337 0.95040834
0001c0 ec 26 1b 3f 35 92 2a 3f 32 94 af 3f 05 2d 53 3f
       0.60606265 0.66629344 1.3717101 0.8249057
0001d0 63 54 9f 3f cf 6d 89 3f 3b 4d 97 3e 95 0a 80 3f
       1.2447628 1.0736636 0.2955111 1.0003229
0001e0 4f e4 81 3f 42 91 36 3e 2c 63 d5 3f c1 3a cb 3f
       1.0147799 0.17828849 1.667089 1.5877305
0001f0 d6 36 a4 3f 13 92 77 3f 66 7a f9 3f de ac 91 3f
       1.2829235 0.96707267 1.9490478 1.138088
000200 de 01 66 3f e3 7f 0a 3f 53 1e 4f 3f e2 ac 7f 3e
       0.898466 0.5410139 0.80905646 0.24968293
000210 2c 38 cc 3f 54 86 b4 3f 5a 5b 67 3f 3e 95 4c 3f
       1.5954642 1.4103494 0.90373766 0.79915226
000220 19 e3 b3 3f 9c b9 e5 3f d7 e6 60 3f b2 89 11 40
       1.405368 1.7947268 0.87852234 2.2740293
000230 ea 16 33 3f 88 b9 f7 3e cf 85 df 3f 2e 47 8a 3f
       0.6995684 0.48383737 1.746271 1.0802972
000240 53 49 a1 3f 7d 10 06 40 88 cd d0 3f 55 e1 09 3f
       1.2600502 2.0947564 1.6312723 0.53859454
000250 ca d3 50 3f ad 62 29 3f 2c 08 d0 3e e3 4f 74 3f
       0.81573164 0.6616619 0.40631235 0.954344
000260 78 e1 95 3d 89 b2 b1 3f 5c ea 87 3e c5 cd a9 3f
       0.073183954 1.388261 0.2654599 1.3265921
000270 15 b4 fa 3f 00 1c c4 3e 21 24 81 3f 81 8d 65 3f
       1.9586207 0.38302612 1.0089151 0.8966904
000280 40 4f c6 3f 6c c2 51 3f f8 e3 98 3f a7 e4 f5 3f
       1.5492935 0.8193729 1.194457 1.9210404
000290 d4 c5 46 3d 2b 01 07 40 65 8f 86 3f f4 2b 9f 3f
       0.048528507 2.1094463 1.051251 1.2435288
0002a0 37 29 7a 3f 61 7a 65 3f 4a 63 a3 3f cd 96 ca 3f
       0.9771914 0.8963986 1.2764676 1.5827271
0002b0 7f 84 bd 3f 4a 20 e3 3f 81 4d 2d 40 fd 2f db 3f
       1.480606 1.7744229 2.7078555 1.712402
0002c0 66 9f 79 3f 7a 98 a2 3f 18 12 6f 3f 00 7e bd 3f
       0.9750885 1.2702782 0.93386984 1.4804077
0002d0 b7 fe 99 3f 25 11 af 3f c0 86 68 3f ee 68 93 3f
       1.2030858 1.3677107 0.9083061 1.1516397
0002e0 14 ac 54 3f 61 5e a2 3f 7d 76 39 3f 5c a6 47 3f
       0.8307507 1.2685052 0.72446424 0.7798822
0002f0 59 92 75 3f cf 85 35 3f 45 db 23 3f 12 ac e2 3f
       0.95926434 0.709073 0.64006454 1.7708762
000300 94 96 2d 3e f2 a9 45 3f b8 fc 38 3f 93 d8 f4 3e
       0.16951972 0.7721244 0.7226062 0.47821483
000310 4e 96 86 3f 7f c6 8b 3f 02 14 b5 3f 5f df b3 3f
       1.0514619 1.0919951 1.4146731 1.4052542
000320 2e be b2 3e 77 03 7f 3e b0 23 75 3f 8d 65 d1 3f
       0.3491072 0.24903665 0.9575758 1.6359116
000330 74 8d 85 3f c7 a1 1d 3f 55 da 12 40 86 ce 84 3f
       1.0433793 0.6157498 2.294576 1.0375526
000340 5a 00 b3 3e e2 76 54 3f 02 c1 97 3f 39 be 64 3f
       0.34961206 0.829939 1.1855776 0.89352757
000350 9a cc c1 3f 32 90 b9 3f 3e 8d 2a 3f 14 83 83 3f
       1.5140564 1.449713 0.6662177 1.0274377
000360 09 e1 94 3e 5e a8 df 3e 90 70 60 3f 95 f5 8e 3f
       0.29077938 0.4368314 0.87671757 1.1168696
000370 2c c4 15 3f 18 e3 89 3f 00 b7 3c 3f b3 5a 89 3f
       0.5850246 1.0772429 0.73716736 1.0730804
000380 da a3 c5 3f ff 77 c4 3f a5 b5 cf 3e 3c 8c 5a 3f
       1.5440629 1.534912 0.4056827 0.8537023
000390 d6 51 c5 3e 67 50 f2 3f 39 aa 9e 3f 89 bb 57 3e
       0.38538998 1.8930787 1.2395698 0.21067633
0003a0 60 40 a0 3f e1 00 00 40 77 6c 15 40 b4 8c eb 3d
       1.2519646 2.0000536 2.3347452 0.11501446
0003b0 45 15 83 3f 5f 09 d7 3f c2 0d 32 3f 36 9a 09 3e
       1.0240866 1.6799735 0.6955224 0.13437733
0003c0 d2 fc 55 3f bd 75 85 3f 65 32 87 3f 32 1a be 3f
       0.835889 1.0426556 1.0562254 1.4851744
0003d0 3b d5 b3 3f a6 ad e6 3e 97 c4 1f 3f 0c df 6e 3f
       1.4049448 0.45054358 0.6240935 0.9330909
0003e0 0e bf be be 9e 5d 9c 3f 47 3e 5f 3f 73 2b db 3f
       -0.37255138 1.221607 0.872044 1.7122635
0003f0 ac a7 71 3f 90 b1 c7 3d 84 1c 82 3f 49 a0 95 3f
       0.9439647 0.09750664 1.0164952 1.168954

fc2.bias f4 [100, 5]
000000 93 4a 07 bc bc c6 86 bb ef f7 ad 3d db 51 36 3e
       -0.008257526 -0.0041130465 0.08494555 0.17804663
000010 40 2f 15 3e 1f bd 73 3d d0 a4 c9 bd 72 ef ba 3c
       0.14568806 0.05950653 -0.098458886 0.022819255
000020 9e b1 25 3d b2 03 73 be 07 13 29 3e d7 23 e1 bd
       0.040452592 -0.23731878 0.16511165 -0.10993164
000030 f3 6a b3 bc 5e 4e e4 3b 2a f0 1f 3c 69 d9 ac bd
       -0.021901583 0.00696735 0.009761849 -0.08439905
000040 fe 28 9b 3d 7c 29 48 3d 9a 09 78 bc 72 31 98 3d
       0.07576178 0.048867688 -0.015139008 0.07431306
000050 77 d8 88 bd 0b a5 ed bd 30 5a aa bc 8f a0 44 be
       -0.066819124 -0.11603745 -0.020794958 -0.19201873
000060 bd a4 84 3c 3b b0 09 bc 19 fa f3 bc 33 e4 bd bd
       0.016191835 -0.008403833 -0.029782342 -0.09272041
000070 36 fb 8a bd 11 eb 2f be 41 4e a6 bd 4e 43 2f bd
       -0.06786196 -0.17179514 -0.081203945 -0.042788796
000080 cd cb 0e 3e cd e9 8f bd 6a 76 16 be f6 04 f1 bd
       0.13944931 -0.07027016 -0.14693609 -0.11768524
000090 cf 47 d8 3c b4 b2 03 be d3 6f 03 3e eb ee 9e 3d
       0.026401429 -0.12861139 0.12835626 0.07760414
0000a0 88 93 9b 3d 09 36 02 3d 47 75 d2 bc ce 3b 12 bd
       0.07596499 0.031789813 -0.025690688 -0.035701565
0000b0 48 e1 fd 3c 17 46 43 3c fd de a0 bd 15 d0 60 bd
       0.030991212 0.011918566 -0.07855032 -0.054885942
0000c0 c9 55 f8 bd fb 1b 70 bc b7 25 5f 3d 06 a6 ab bd
       -0.12125737 -0.014655109 0.054479327 -0.08381276
0000d0 58 68 8c bc b5 fd 44 3c 5e 87 c4 bb 52 e9 e8 bd
       -0.017139599 0.012023379 -0.0059975823 -0.11372627
0000e0 a2 79 b7 bd 37 65 b8 bd ff a2 9f bd d6 74 88 3d
       -0.089587465 -0.0900368 -0.07794761 0.0666291
0000f0 ec 79 07 be 27 a7 3d bd b8 f3 b6 3d 8a 82 f5 3d
       -0.13230103 -0.046301987 0.089332044 0.11987789
000100 5c ed 1e be e6 94 61 3d d4 e0 df 3c 57 fb 23 3d
       -0.15520233 0.05507364 0.027328886 0.04003462
000110 aa 4f ce bd cb 89 ac 3d 38 64 cd bd 1e a8 09 be
       -0.100737885 0.084247194 -0.10028881 -0.13443038
000120 6f 77 50 3e 9c bd b2 bd 04 3d ae 3c 32 84 09 3d
       0.2035806 -0.08727571 0.021269329 0.033573337
000130 3e e2 c2 ba 53 ce 48 3d 85 f5 ed 3c 5f 2a 1a 3d
       -0.0014868451 0.04902489 0.029047737 0.037638064
000140 8e b0 54 bc c5 ce 16 3b 05 6b d5 3d 48 dc 65 3c
       -0.012981547 0.0023011428 0.10420803 0.01402957
000150 ef 68 3a bd 3c 3a 2a be b0 93 01 3e c2 aa 8e 3d
       -0.04551023 -0.16623777 0.12653995 0.06966163
000160 3e 9d 34 3e 3c 69 12 bc 44 c6 0e be 6f 1f 8b bd
       0.17638108 -0.008936223 -0.1394282 -0.06793105
000170 e9 e7 a8 bd cd 14 7c 3b 5d 99 a3 3c 66 59 df bc
       -0.08247358 0.0038464547 0.01997059 -0.027264308
000180 64 02 c3 3d a1 9c e9 bc 55 23 b8 3d 6d 72 00 3d
       0.0952194 -0.02851707 0.08991114 0.031359125
000190 1e 97 87 bd 2f fb 9b 3c 0b 6a 54 bd 7d 83 8a bd
       -0.0662062 0.019040672 -0.051858943 -0.06763361
0001a0 dd 05 8a bd 1a e7 02 3e a1 99 bd bd 7c ec 05 bc
       -0.067393996 0.12783471 -0.09257818 -0.008174058
0001b0 80 22 c2 bd d8 09 c2 ba c2 60 b3 bd 03 72 79 bd
       -0.094792366 -0.0014803959 -0.087586895 -0.060899746
0001c0 00 77 9f bd a2 3a 93 bd ed e3 b8 bd d9 32 d9 bd
       -0.07786369 -0.07188918 -0.090278484 -0.106054015
0001d0 49 99 00 bd c0 ea 9a 3d e2 bb 0e 3e 65 c7 8c bb
       -0.031396184 0.07564306 0.13938859 -0.0042962306
0001e0 17 6f 24 be 1f 3b 86 bd 1c 4e f3 bb a7 bd d3 3c
       -0.16058002 -0.06554245 -0.007425083 0.02584727
0001f0 10 fa 22 3a c0 b2 d2 3c 25 e4 11 bd 3b d8 0b 3e
       0.0006217072 0.02572 -0.035617966 0.13656704
000200 d7 08 4c bc 94 b0 0c be 86 59 c4 3d 6a ff db 3c
       -0.012453279 -0.13739234 0.09587388 0.02685519
000210 25 74 bb 3d a3 20 15 be 86 eb af 3d 91 1e e2 bc
       0.09153012 -0.14563231 0.085898444 -0.027602466
000220 a4 b2 ab bd d4 cf be bd 6f 8d 05 3e 47 4a d3 bd
       -0.08383682 -0.09316984 0.13042234 -0.10316902
000230 0a 20 22 3e 4b 06 8c 3d 50 30 2f bd 38 42 d3 3c
       0.15832534 0.06837138 -0.042770684 0.025788411
000240 60 9a ea bd ab a6 83 bd 22 3b d6 3c 4f 8b f2 3d
       -0.11455226 -0.06428274 0.026151244 0.11842977
000250 ad 8b 44 bd d8 32 05 3b c0 9a 9e 3d 05 f5 7f 3d
       -0.047984768 0.0020324495 0.0774436 0.06248953
000260 9a dd 44 3e f1 42 11 3e 03 00 15 be 73 cb cf 3d
       0.1922516 0.14185692 -0.14550786 0.10146227
000270 46 b0 71 3d e2 54 ea bb 82 ee df 3c 6e c4 cd 3d
       0.059005998 -0.007151232 0.02733541 0.100472316
000280 9b 5a ca 3d 19 9c 7a 3d 15 77 ff 3d c2 7f cc 3d
       0.09880563 0.061184023 0.12473885 0.09985305
000290 aa 4c 0c 3e 03 ec dc 3d f2 9f 25 be fd 34 03 bd
       0.1370112 0.10787203 -0.16174296 -0.032032955
0002a0 b0 d8 0e bd 56 67 f1 bd a3 36 0b 3e 63 ee 84 3d
       -0.034874618 -0.11787288 0.13595061 0.06490781
0002b0 fd 9b e2 3d d3 4a a5 3d 00 8c 8f bd 82 09 1d be
       0.11064909 0.08070912 -0.07009125 -0.15335658
0002c0 8e 4a b4 3d aa d2 af 3d 47 f7 b9 3d d5 0e 78 3d
       0.08803283 0.08585103 0.090803675 0.06056102
0002d0 49 ac b2 bd ce ad f2 3d 13 2e 1c bb 34 89 ed bc
       -0.08724267 0.11849557 -0.0023831173 -0.028996088
0002e0 73 d6 81 3d 0b 42 3f be cd 7c 28 bd 41 45 e9 3d
       0.06339731 -0.18677537 -0.041134644 0.11390162
0002f0 5b e9 d2 3d db 93 39 3e 30 9e 2d be 89 c0 7a bd
       0.10298415 0.18122809 -0.16954875 -0.061218772
000300 52 a4 23 3e 49 96 10 be 7e bd f8 3d a0 f2 d1 bd
       0.15980652 -0.14119829 0.12145518 -0.10251355
000310 1b a7 1b 3e 1c b8 da 3d f9 4c 0b be 97 b7 da 3d
       0.15200464 0.10679647 -0.13603581 0.10679548
000320 5f 93 b2 bd 49 fb 87 bd d1 d3 8e 3c 68 ef 87 3c
       -0.08719515 -0.06639726 0.017434986 0.01659365
000330 73 ac 91 bd 1f 13 7d 3d 46 25 1e 3d c6 2e 0e bd
       -0.0711297 0.061785813 0.038609765 -0.034712575
000340 70 75 d6 3d 75 18 8d bd 0e c8 ac 3d 41 44 3c 3d
       0.10471618 -0.068894304 0.08436595 0.04596353
000350 d3 c1 e2 bc 0a 6e f8 bd f6 07 0a 3e 88 21 2c be
       -0.027680313 -0.12130363 0.134796 -0.16809666
000360 88 ce 60 bd 0e 1b 51 3d 3b 71 06 bd 5d 00 bc bc
       -0.054884464 0.051051192 -0.03282283 -0.022949392
000370 97 7b 03 3e 7a cc bc bc 65 61 9e 3d b1 db 65 bb
       0.12840115 -0.02304672 0.0773342 -0.0035073573
000380 2b 67 d0 3c 68 90 81 3e cd 01 e4 bc a9 07 2a 3e
       0.02543982 0.25305486 -0.02783289 0.16604485
000390 35 ff b3 3c 46 7d 12 bd 93 63 ab bd 64 9b 3d bd
       0.021972278 -0.035764 -0.08368602 -0.04629077
0003a0 b5 a1 8e 3d 23 d3 d3 bd 7e 58 aa 3d 1a e8 2a bd
       0.06964437 -0.103430055 0.0831766 -0.041725256
0003b0 9a 94 05 3e 11 2f ab bc c2 b5 68 bd 14 36 4d 3d
       0.13044968 -0.020896466 -0.056813963 0.0501004
0003c0 02 11 7e 3d a9 c4 e8 3d e5 c4 b8 3b ef 38 56 3c
       0.06202794 0.11365635 0.005638706 0.013075097
0003d0 f2 60 b1 3c 76 2b 71 3d 3e bc 07 be e8 94 e9 3d
       0.021652672 0.05887934 -0.13255402 0.11405355
0003e0 e9 9b 4d 3d 8d 7e 39 be 70 9a d9 bd 7f 4f 53 bd
       0.050197516 -0.18114682 -0.1062516 -0.051589485
0003f0 42 4f 8f 3d 41 9c 91 3d af d7 a3 b8 ca 15 3d be
       0.06997539 0.07109881 -7.81262e-05 -0.18465343

fc2.linear.weight f4 [5, 50]
000000 41 7d 14 bd 44 a9 b0 bd d2 e1 cf 3d c9 bc 05 be
       -0.036252264 -0.08626035 0.10150494 -0.13060297
000010 c9 c6 8f bc b3 60 c4 3d 13 58 89 39 57 56 74 bd
       -0.017550843 0.095887564 0.00026196297 -0.059652653
000020 00 de 80 3d cd d3 00 be b8 b1 e6 3c 4b 23 c6 3b
       0.06292343 -0.12580796 0.028160915 0.0060466877
000030 5d b0 68 3c 1d 5c 94 bd d5 9b 2c be df 7d 1b be
       0.0142022045 -0.07244132 -0.1685632 -0.15184735
000040 07 b3 e5 3d b9 1a e6 bd d4 4c ff 3d e9 5f d8 bc
       0.112157874 -0.11235566 0.12465826 -0.026412921
000050 fe f3 05 3d 5a 63 72 3d 33 9b c5 ba 86 14 ab bd
       0.032703392 0.05917678 -0.001507616 -0.08353524
000060 ef 1f 16 3e e6 e5 b0 bd de 17 05 3e de 7b df bd
       0.14660619 -0.086376 0.12997386 -0.10912298
000070 ae 99 b9 3d d1 0f 14 3d 59 4d 87 3d b6 3e 87 3d
       0.09062515 0.036147896 0.0660655 0.06603758
000080 b3 59 f2 bc c7 ef 7a bd e3 b0 80 bd d5 1c 84 bd
       -0.029583788 -0.061263826 -0.062837385 -0.06450812
000090 1f 1b 4d bb 5b 05 e1 bd 07 d5 db 3d ad 21 dc bc
       -0.0031296683 -0.109873496 0.10733991 -0.026871527
0000a0 80 27 82 bc f1 24 24 3d ec a6 58 3d e4 4f cc bd
       -0.015887976 0.040074293 0.052893564 -0.099761754
0000b0 6a c0 47 3d 0e af a8 3d a1 ce c0 3d 36 6f 13 be
       0.048767485 0.08236514 0.09414411 -0.14397892
0000c0 3d f2 a2 3d c4 34 c7 3d 15 cf 26 be 75 d2 cd 3d
       0.079563595 0.09726861 -0.16289933 0.10049907
0000d0 4b e7 09 3e a6 82 96 bd 1e 10 13 be 51 20 fe bd
       0.13467138 -0.07349138 -0.14361617 -0.124085076
0000e0 f5 0e c7 3d 29 cf 5b 3c 46 78 88 3d c5 82 21 3d
       0.0971965 0.01341609 0.06663565 0.039431352
0000f0 0b a3 8d bd ba 19 5c 3c 05 bf 79 bd cf cb 3a be
       -0.069158636 0.013433868 -0.060973186 -0.1824181
000100 fe 53 c6 3c 0f 3a 85 3d b2 a9 40 3d 77 7a ef bd
       0.024209972 0.065052144 0.047036834 -0.1169328
000110 63 ea 66 bc 31 5b b6 3d 99 bd 3f bd c3 14 8a bd
       -0.014093968 0.08904112 -0.046811674 -0.06742241
000120 03 fd a6 3d c8 85 c7 3c 15 a0 e4 3d 03 63 0b 3d
       0.08153727 0.024355784 0.11163346 0.03402997
000130 39 0f 5c bc c3 13 3c bc 6a 16 a2 3d c8 67 17 be
       -0.013431364 -0.011479321 0.079144314 -0.14785683
000140 e0 95 2f 3d 29 9c c9 3c cb e1 5b bd a8 ff 32 3d
       0.04286754 0.024610596 -0.05368213 0.043700844
000150 7e 51 43 bb 32 56 e2 bc c8 89 70 3d c7 8b 0e be
       -0.0029803212 -0.027628992 0.05872515 -0.13920508
000160 35 ef 18 3d d3 9a 97 3d 08 c0 60 3d 69 6f 0a bd
       0.0373375 0.07402577 0.054870635 -0.033797655
000170 ec a5 ae bd 1d 4e 45 bd 5d 4f e0 bc 05 2a 5f bd
       -0.08527741 -0.048170198 -0.027381593 -0.054483432
000180 4b 36 43 3c 15 91 68 bd ee 17 26 be 08 dc 8c 3d
       0.0119148 -0.056778986 -0.16220066 0.06877905
000190 25 a9 44 bd b3 6c 4a bd 55 73 c1 3d 54 f9 d2 bd
       -0.04801287 -0.04942007 0.09445826 -0.10301462
0001a0 28 61 17 3d 66 29 69 3d 19 f7 0d be bf c4 35 bd
       0.03695789 0.056924246 -0.13863792 -0.044377085
0001b0 57 dc 0a be 12 c0 a1 3d 01 6e a6 3b c7 2b 13 3d
       -0.13560615 0.07897963 0.0050790315 0.03593042
0001c0 f0 f8 0d be e7 85 2c 3e fd 1d b1 3d 55 19 46 3d
       -0.13864493 0.16847955 0.08648298 0.048364002
0001d0 96 29 c1 bd a1 d7 66 bd 7d 9b 9e bd 07 32 58 be
       -0.0943176 -0.056357983 -0.07744501 -0.21112834
0001e0 dc fd c3 bd a0 7c d1 bc 28 a0 a5 3d 80 ed 55 3d
       -0.09569904 -0.025572121 0.08087188 0.05222845
0001f0 3f ac 97 bd d0 3e 42 bd 17 93 c7 bd 56 de 63 3d
       -0.074059 -0.047423184 -0.09744852 0.055631958
000200 52 47 91 bd d1 fe 1b 3e f3 54 af 3d d8 2d 91 3b
       -0.070936814 0.15233923 0.08561125 0.004430514
000210 8f d9 a7 bd 55 01 97 bd 41 92 a5 bd 28 61 c0 bd
       -0.08195793 -0.07373301 -0.08084536 -0.09393531
000220 58 8d bd bd f0 6e 2e be 6a 72 f5 bd ac 5c 06 3c
       -0.09255475 -0.17034507 -0.119847134 0.008200806
000230 31 fa e5 bd c1 dd 0e bd 62 40 0d 3e d4 90 93 bd
       -0.11229361 -0.03487945 0.13794091 -0.07205358
000240 f0 a7 b6 bd 51 dd 31 bd b5 e9 26 3c 63 ea 2b bd
       -0.0891875 -0.043423954 0.010187556 -0.041971575
000250 27 25 be bd 3c 4b a8 bd 59 ed dd bd db 41 fe 3d
       -0.0928443 -0.08217475 -0.10836286 0.12414905
000260 e6 7d a3 bd 77 c8 01 3e 01 49 8f 3d f2 7d 29 3d
       -0.079829976 0.12674128 0.06996346 0.041379876
000270 cf 6a ea 3d b9 07 25 be 17 32 f7 bd 4d e8 43 bc
       0.11446153 -0.16116227 -0.12070101 -0.01195724
000280 71 2d 35 3d 99 fb 43 bd d3 cb 87 bd d2 1e 0f 3e
       0.04423279 -0.047847364 -0.06630673 0.13976601
000290 d5 b6 12 3d eb 21 ee 3d 35 c6 60 bd 5f ea 50 be
       0.035818893 0.11627563 -0.054876525 -0.20401905
0002a0 a0 46 9e 3d 8a a7 f0 3c c1 12 96 3d df 4c c0 bd
       0.077283144 0.029376764 0.07327796 -0.09389662
0002b0 8d c2 ec 3d 5a 79 1e bd 63 b3 03 3d f7 70 74 bd
       0.11560545 -0.03868995 0.0321535 -0.059678044
0002c0 d6 48 82 3d b2 79 fc bd f6 2f f5 bd e3 20 27 3d
       0.063615486 -0.12327899 -0.119720384 0.040802848
0002d0 13 0f eb bd bc 27 f3 bd c4 84 4e bb 8c 35 11 be
       -0.114774846 -0.11872813 -0.003151224 -0.14180583
0002e0 54 23 c4 bb d6 00 96 bd e3 f8 c0 3d ba 3d e0 bd
       -0.0059856568 -0.07324378 0.094224714 -0.109492734
0002f0 7b b7 e2 bc b9 9d d6 bd 39 76 95 3c 4f 84 1b 3e
       -0.02767538 -0.10479302 0.01824485 0.1518719
000300 53 73 18 3c 61 1c 25 bd fc 37 00 3d 2e 41 4e bd
       0.009304839 -0.040310267 0.03130339 -0.05035513
000310 19 ed cf 3c a4 a5 36 be 25 34 e0 3d 58 18 b2 3d
       0.025381612 -0.17836624 0.10947446 0.086960495
000320 b1 8f 93 3d 67 6b aa bd 4f d5 3e 3d cf c8 6b bc
       0.07205141 -0.083212666 0.046590146 -0.014391138
000330 1f 4f 1b 3e 15 6b b4 3d a9 60 d0 bd 35 13 49 3d
       0.15166901 0.08809487 -0.101746865 0.049090583
000340 69 d5 b0 3d 6c 88 a5 bc ad 6d 9d 3d 58 7c f6 bd
       0.08634455 -0.020206653 0.076869346 -0.120354354
000350 fb 9a b1 3d 3b cc d0 3b 80 aa 57 bd bb b7 a0 bd
       0.08672138 0.0063720024 -0.052652836 -0.07847544
000360 96 1e b6 bd f8 ce 18 be 09 29 32 be 6b 5c 4e 3d
       -0.088925526 -0.14922702 -0.17398466 0.050381105
000370 65 51 9c bd c2 c3 7b 3d 95 5d 0f 3e 35 5b 60 3d
       -0.07632712 0.061465986 0.14000542 0.05477448
000380 4f 96 c6 3d 14 dc 24 be 53 0e 4a bd 19 74 29 be
       0.09696638 -0.16099578 -0.049330067 -0.16548194
000390 e8 1e f2 3c 0f 44 af bd b5 57 a3 3d d2 13 69 3d
       0.029555753 -0.08557903 0.07975713 0.056903668
0003a0 6e 7b bf bd cd 6a 6b 3d c1 1a 1f bd a3 e0 3c be
       -0.09349714 0.0574749 -0.038843874 -0.18445067
0003b0 b3 2d 9b bd 51 a8 1c 3d 54 62 c1 3d 1a 80 bd 3a
       -0.07577076 0.038246457 0.09442583 0.0014457733
0003c0 5d c9 de ba a4 63 98 3d d9 2e 9e bd b1 c2 e3 bd
       -0.0016997267 0.0744088 -0.07723779 -0.11121119
0003d0 fe 02 ac 3d a4 ee f1 3d d7 6d 97 3c 09 21 0c 3d
       0.08399008 0.11813095 0.018484993 0.034211192
0003e0 d1 02 ef 3d 83 26 39 be
       0.11670459 -0.18081097
