experiments/classification/toy/gaussian_mixture/pretrained/2025-05-08_11-19-07/RepulsiveCrossEntropy_BatchEnsemble (rank 4).pt (torch, 198332 bytes, 8 tensors)

fc1.r_group f4 [100, 4, 2]
00000000: bf4f e03f 8d7b 6d3f 2c90 463f cd7a 4c3f
00000010: 43fc 743f f262 143e 3cfd 583f cc3b 5a3f
00000020: 0039 313f 04bb b03f 1c59 723f 64c8 eb3f
00000030: 8ec0 043f 23e1 763f 9535 aa3f 1fba a73f
00000040: 5984 483f 2aa7 003f c81b ac3f 79d0 693e
00000050: ccbc 903f fa89 5e3f 6155 653f b5d9 983f
00000060: c303 ac3f b6a9 f83b 8ac6 143f 45ec 143f
00000070: 8491 613f 3d37 493f 1cc3 173f 0521 5f3f
00000080: 25b0 013f a0b3 453f c589 a83f 273c 903f
00000090: 63cb e43f d8e3 ea3f 0a69 e53f d6cf 713f
000000a0: 97c2 ed3f 3f74 563f c22d 753f 1e98 903f
000000b0: b49e 353f 60dd d33f cd79 ef3f 0151 a03f
000000c0: 67e9 763f 56ff 5d3f b474 b63f 34d7 8e3f
000000d0: 7c1b 3b3f a2f2 8c3f 484b af3f 867d ee3f
000000e0: d73d 9d3f 9748 db3e 7a65 e33f 37a7 9a3e
000000f0: d43d bf3f a569 5a3e 441a 903f ee2c ae3f
00000100: e6f8 383e 2eb3 c53f 19fc 9e3f 0068 823f
00000110: a9bd 4d3e 97a2 813f f521 b63f 83a8 7b3f
00000120: 07d5 1f3f 215f 5c3f 9e2f d33f 767f af3f
00000130: ef0b c43f ca75 f63e 26d9 7f3f e120 893f
00000140: ccdd 953f a1b1 c83e b350 ef3f da99 893f
00000150: 5dc2 b53f 4c50 473f 963a 883f 82f7 d33f
00000160: 7698 2f3f 8ba1 dc3f aed6 433f 82d5 893f
00000170: 8b2e ac3f f5cf 8e3f 48c3 2abe 5809 933f
00000180: cf56 863f bb5f 593f dd31 333f 3ce3 023f
00000190: d62f 633f ca4e 753f 0760 013f a593 733f
000001a0: 1a2e 383f c55e a83f 7a0b 873f d3a6 983f
000001b0: f17d 773f d348 8c3f 1831 8a3f 14e9 853f
000001c0: 507f 923f 083e 8f3f 4667 803f 11e8 6a3f
000001d0: 92da c43f 6165 af3f d0a7 983f a8d0 883f
000001e0: 9346 733e c983 893f 6259 453f a333 8a3f
000001f0: 83e9 fe3e 3937 3d3f cf77 bd3f 1640 053f
00000200: c934 3d3f 06d7 503f 258b 173f cf6f 3c3f
00000210: 8d7f 903f 770f 413f ced6 963f d14a 773f
00000220: dacc 873f 9736 613f aa59 873f 8ff0 ad3f
00000230: ea27 8d3f a5da e23e 4ccc 4e3f ccd4 b13f
00000240: 4cea 6d3d 00c5 4b3f 3329 9f3f 9b24 c13f
00000250: 78e2 c83f 765a 4d3f b745 893e c93f 323f
00000260: f988 233f ce74 683e 58eb 803f 2c84 0540
00000270: 1bed 693f 4a72 ae3e d61a cb3f 656c 873f
00000280: 8676 a13f e91c 453f dfde 433f ebb1 623f
00000290: d438 143e fa75 923f 5a98 e53e 4382 9a3f
000002a0: 2188 893f 3b96 793f 2157 013f a6f3 533f
000002b0: 7b7f 583f a00f 9e3f 229a a23f f155 133f
000002c0: 245d 7a3f 5d7f 843f 1478 f73f 6fa5 933f
000002d0: 03c2 793f 3ff8 063f aa1a 063f 64ea 1e40
000002e0: d23b 653f a7d0 833d 1367 a43f 810f 5a3f
000002f0: 67c7 7d3f 8c56 863f 2ed3 543f 9052 5e3f
00000300: e75d ad3f a125 a53f f91a 153f 3a94 663f
00000310: c735 1c3f 5917 0b3f 3ebc 893f 898e 9f3f
00000320: 3ea0 c63e b709 583f 958d 893f cdad 473f
00000330: 8bd5 8a3f 929a b53f 8d97 743f 564c 5e3f
00000340: 9482 f33f 949d 8d3f 06d5 723f 3a01 333e
00000350: 25de 073f 3547 c63f b2b0 be3e 5c5e f93f
00000360: 2f81 a73f 5338 b83f d8de 0c3f bf36 1b3f
00000370: 27c7 3a3f afed 843f f1ff 953f c0ee 0f3f
00000380: 89f0 bd3f ab5a 8f3f ee0e 1e3f 747e 4c3f
00000390: 1c71 993f ba03 513f 7bae c03f 3fd4 773f
000003a0: 7437 a73f 55ff 5f3f 5e61 9b3f 63d3 373e
000003b0: 0231 6c3f a8dc a83f 159c 253f ea1e 9d3f
000003c0: 7ae6 643f 061f c73f 572c 513f 7759 833e
000003d0: 25b0 673f a75e 543f 4feb c93e 3e34 0640
000003e0: d8e8 403f 98a2 243f e083 863f 3eeb c73f
000003f0: 940a c93c 22dc bf3f 76d0 ff3f 10c9 5b3f
1.7524337 0.9276665 0.7756374 0.7987488 0.9569742 0.1449087 0.84761405 0.8524749
0.692276 1.3807073 0.9466722 1.8420529 0.51856315 0.9643728 1.3297602 1.3103675
0.78326946 0.5025507 1.3445978 0.22833432 1.1307616 0.86929286 0.895834 1.1941439
1.3438648 0.0075885905 0.58115447 0.5817302 0.88112664 0.7859991 0.5928209 0.8715976
0.506594 0.7722721 1.3167044 1.1268357 1.7874569 1.8350782 1.792268 0.9445776
1.8575009 0.8377113 0.95772946 1.1296422 0.70945287 1.6551933 1.8709046 1.252472
0.96449894 0.86717737 1.4254365 1.1159425 0.7308881 1.1011546 1.3694849 1.8632057
1.2284497 0.4282882 1.7765343 0.302057 1.4940743 0.21329363 1.1258016 1.3607461
0.18063697 1.5445306 1.2420684 1.0187988 0.20091881 1.0127743 1.4229113 0.98304003
0.6243443 0.86082655 1.6498907 1.3710773 1.5316142 0.4813674 0.9994072 1.0713159
1.1708312 0.3919802 1.8696502 1.0750077 1.419994 0.778569 1.0642879 1.6559908
0.6859201 1.7236799 0.7649945 1.0768282 1.3451704 1.1157213 -0.16676056 1.1487226
1.0495242 0.849117 0.6999796 0.5112798 0.88744867 0.9582335 0.5053715 0.9514716
0.71945345 1.3153921 1.0550377 1.1925911 0.96676546 1.0959724 1.0796232 1.0461755
1.1445103 1.1190805 1.0031517 0.91760355 1.5379202 1.3702813 1.1926212 1.0688677
0.2375739 1.0743343 0.7708951 1.0797008 0.4978753 0.7391239 1.4802188 0.5205091
0.7390867 0.815781 0.5919669 0.73608106 1.1288925 0.7541422 1.1784303 0.96598536
1.0609391 0.8797392 1.0574238 1.3589038 1.1027806 0.44307438 0.8078048 1.3893065
0.05808477 0.79597473 1.2434448 1.5089296 1.5694113 0.8021616 0.26811 0.6962858
0.6388088 0.22700807 1.0071821 2.0861921 0.9137742 0.3407157 1.5867565 1.0579954
1.2614295 0.7699724 0.7651195 0.8855273 0.14474803 1.1442254 0.44842798 1.2071003
1.0744668 0.9749486 0.50523573 0.82793653 0.8456952 1.2348518 1.2703288 0.5755301
0.9779837 1.0351368 1.933352 1.1534861 0.97561663 0.52722543 0.52384436 2.483056
0.89544404 0.06436282 1.2843956 0.8517991 0.9913239 1.0495162 0.83134735 0.8684473
1.3544282 1.2902108 0.5824428 0.90069926 0.6101956 0.543325 1.0760572 1.2465373
0.3879413 0.84389824 1.0746332 0.77999574 1.0846418 1.4187796 0.9554375 0.8683523
1.9024224 1.1063714 0.948563 0.17480937 0.5307334 1.5490481 0.37244183 1.9481921
1.3086299 1.4392189 0.5502753 0.6063041 0.7296013 1.0385035 1.1718732 0.5622368
1.483903 1.1199545 0.6174153 0.7988045 1.1987643 0.8164631 1.5053247 0.96808237
1.3063798 0.8749898 1.2139089 0.17951731 0.9226228 1.3192339 0.6469129 1.2275059
0.8941418 1.5556343 0.8170828 0.25654194 0.9050315 0.8295693 0.3943734 2.0969386
0.7535529 0.643106 1.0508995 1.5618665 0.024541177 1.4989054 1.9985492 0.8585367

fc1.s_group f4 [100, 4, 50]
00000000: 0ed8 f73e de1f f43e 5b63 663e c90b c2bc
00000010: ef68 9d3f c725 dc3f a37b 1e3f 2aa6 693f
00000020: fdd0 b53f dc3f 133f bb34 893f 8e69 113f
00000030: c62e 593f e974 893e 9485 403f fc1c 4d3f
00000040: 14b5 143f 7605 b53e a2cc ce3f 5d5a fb3f
00000050: 4585 903e 5b15 d53f 59d0 263f 53ef de3f
00000060: 7323 823f 37cd 3f3f b5e4 853f 1d32 813f
00000070: f79a d53f 23fc c43f e7c9 d13f 1cde 3c3f
00000080: 8e9c cb3f b163 663f 5d65 213f c0d9 373f
00000090: 167f 3d3f 07cf 813f 5445 2d3f 0409 8d3f
000000a0: 0d82 6a3f 7471 c83e 8aaa 5c3f c739 1b3f
000000b0: 7042 6a3f 0c11 8c3f d770 313f 4312 c03f
000000c0: 14b3 3a3f f0b8 343e 50c7 cd3f c57b 8f3f
000000d0: fb22 5d3f 0659 db3f c008 bd3e 8152 e43f
000000e0: 9e02 c43f 9e89 853f 2c77 0540 d05e 023f
000000f0: 53c5 603f d6be 653f 41f6 9a3f d165 8d3f
00000100: fd65 093f e6cc 293f 0790 943f 272c 743e
00000110: 6089 bc3e 2cdf b6bd 5ae2 4b3f 3b45 463e
00000120: 90e0 923f 8683 4f3f 0415 c23f 8da7 bb3f
00000130: aa00 a33f 19de 9d3f c016 683f 5431 cb3f
00000140: 1a34 243f 7ddf 513f 24df 983f 10a7 a63f
00000150: 0645 2b3f 8238 af3f 957c 643f 0a4e 9f3f
00000160: c958 463f c33a 673f 0713 a93f 1199 e93f
00000170: 7eac a33f 1d47 343f 0c51 d03f 532a e63e
00000180: 011f c73f 0e8d 833f 94bc 9a3f 402e af3f
00000190: f2f9 4f3c 3be2 9a3e acbe 5d3f eb3d 61be
000001a0: 9b6c fb3e f0b6 a83f 1769 863f 893b 873f
000001b0: 14c2 e03f 285e 6e3f ff22 843f a501 393f
000001c0: 98ee 84bc 9b12 623f d144 f73f a0c3 1cbe
000001d0: 960e 563f 8812 973f c898 0640 7aa1 cd3f
000001e0: 43c0 603f bc95 de3f 76d3 8a3f 85cb 973f
000001f0: 22fa ba3f 484d 2b3f d6b5 ae3f 736e 8e3f
00000200: d7e0 813f 1242 873f 5c8d 9c3f f1a2 703f
00000210: a3d3 833e d727 893f e8aa e03f bdba f63e
00000220: 1dcf b63f c3e1 543f afd6 dc3d 39d3 673f
00000230: 461d a93e 0c07 833e c33e cd3f a5f7 d73f
00000240: ac74 db3e 4bdf 623e 4d0f c83f 2f49 9abe
00000250: 6a85 623f 16d7 c93f 3cc0 be3d 96d7 983f
00000260: 3b07 7a3f 8f20 d43f ee80 333f 3691 203e
00000270: fe2a a13f b33b ef3f a1ce 663f 223d 003f
00000280: ae53 893f e1d8 263f 2422 653f dd5c b23f
00000290: c759 bd3f fc0c 4d3f fd45 a13f 14b4 c73f
000002a0: 343c 9a3f f413 133f 592d 203f 5983 7f3f
000002b0: 26d8 1d3f bfb6 88bd 0e3c 1ebf 4b9e 813d
000002c0: a976 d63d e067 9f3f 17ba d33f bd33 6f3f
000002d0: 3c5f 1e3f 51a0 ea3f 9d7b 5c3f ef73 973f
000002e0: 761c 273f 2586 ae3e a0dd de3f 8aa6 a43f
000002f0: 6936 aa3f b8a6 2e3f 4fed 923f 8f37 9d3f
00000300: 8563 e13f 4598 e73f e2a7 563f 55a2 f23f
00000310: c593 963f cd18 a03f 900c 863e 4fdb fd3d
00000320: 7465 4e3f ef3c e73e 576e aa3f d170 c33f
00000330: 4a3f 873e 3da7 c93f 3419 863f 6f67 51bd
00000340: e460 803f 0e3d 283f bf28 b93e c71c c43f
00000350: 0ddf a23e 62d2 683f 0f3a 3f3f aacf 723f
00000360: 5395 1f3f 0e29 d73f cfd2 a13f 5db7 a13f
00000370: 20b0 943e 4315 473e 008b 073f 82d6 233f
00000380: 6d72 e63e 269c b53f 4aa1 063f d599 2d3f
00000390: 8592 b93f 4d1a 0d3f af46 be3f a63a 4c3f
000003a0: 3524 5a3f 1bd9 683f 55a3 3d3f 9195 de3e
000003b0: 0959 db3f e807 d63f 7c9e d7bd e753 993f
000003c0: f6f5 7a3e 6af4 943f 1cd8 ba3f 393c ac3f
000003d0: e211 9a3d 252b 4b3f afb7 373f c32f 263f
000003e0: c9d8 0c3f 56df 0e3f 845d 213f e7d2 163c
000003f0: 65a5 ddbd b2a1 1d3f 0dd7 8a3f 6aee 463f
0.48407024 0.47680563 0.22498839 -0.02368726 1.2297648 1.7199029 0.61907405 0.9126917
1.4204403 0.57519317 1.0719217 0.5680169 0.84836996 0.26847008 0.75203824 0.8012235
0.58088803 0.3535573 1.6156199 1.9636952 0.28226677 1.6647142 0.65161663 1.7416786
1.0167068 0.7492251 1.0460421 1.0093418 1.6687917 1.5389446 1.6389741 0.7377641
1.5907152 0.89995867 0.63045293 0.71816635 0.7402204 1.0141305 0.6768391 1.1018376
0.9160469 0.39149058 0.8619772 0.60635036 0.91507626 1.0942702 0.69312805 1.5005573
0.729295 0.17648673 1.607645 1.1209646 0.863815 1.7136543 0.36920738 1.7837678
1.5313299 1.0432622 2.0853987 0.5092592 0.8780109 0.8974432 1.2106401 1.1046697
0.53671247 0.66328275 1.1606454 0.23844968 0.3682356 -0.089292854 0.7964226 0.19362347
1.1474781 0.81060064 1.5162663 1.4660507 1.2734578 1.2333404 0.90659714 1.5874429
0.64142 0.8198164 1.1943097 1.3019733 0.66902196 1.368912 0.892526 1.2445691
0.77479225 0.9032404 1.3208932 1.8249837 1.2787015 0.7042101 1.6274734 0.44954166
1.5556337 1.0277421 1.20888 1.3685989 0.012693869 0.30250725 0.8661907 -0.21996276
0.49106297 1.3180828 1.0500821 1.0565044 1.7559228 0.9311242 1.032318 0.72268134
-0.016227052 0.8830964 1.9317876 -0.15309 0.83616006 1.180253 2.103075 1.6064904
0.8779337 1.7389445 1.0845783 1.1858984 1.4607584 0.66914797 1.3649242 1.1127456
1.0146741 1.0567038 1.223064 0.9399863 0.25747404 1.0715283 1.7552156 0.48189345
1.4281956 0.83156985 0.10783135 0.90556675 0.33030146 0.25591314 1.6034778 1.687245
0.4286245 0.22155492 1.562967 -0.3013396 0.88484824 1.5768764 0.093140095 1.1940792
0.9766728 1.6572436 0.70118606 0.15680394 1.2591245 1.8690094 0.9015904 0.5009328
1.0728662 0.6517468 0.8950522 1.393459 1.4793023 0.8009794 1.2599484 1.560183
1.2049623 0.5745232 0.62569195 0.99809796 0.6165794 -0.06675481 -0.61810386 0.0632902
0.104718514 1.2453575 1.6541165 0.9343832 0.61864066 1.8330175 0.8612612 1.1832255
0.652778 0.3408672 1.7411385 1.2863324 1.3297855 0.6822314 1.1478671 1.228258
1.7608496 1.8093344 0.8384992 1.895579 1.1763846 1.2507569 0.2618146 0.123953454
0.80623555 0.45163676 1.3314923 1.5268804 0.26415473 1.5754162 1.0476441 -0.051124033
1.0029569 0.6571816 0.361639 1.5321282 0.318108 0.9094602 0.74697965 0.9484812
0.62337226 1.6809404 1.2642459 1.2634083 0.29040623 0.19441704 0.5294647 0.6399919
0.45009175 1.4188278 0.5258986 0.67812854 1.4497839 0.55118257 1.4865321 0.7977699
0.852115 0.90956277 0.7407735 0.43473485 1.7136546 1.6721163 -0.10528275 1.197873
0.24507889 1.1637089 1.4597201 1.3455878 0.07522942 0.7936271 0.71764654 0.6491663
0.5501829 0.55809534 0.6303332 0.0092055565 -0.10822562 0.6157485 1.0846878 0.7770754

fc1.bias f4 [100, 50]
00000000: 7a26 33bf dd8d 01bf 694d 963e 97f4 d9bd
00000010: 2ff1 063d 54f5 1abe 7a6e 78be 1840 41be
00000020: 6ecf e1be 3dfe 033f 7358 223f f9ad 1e3f
00000030: 0049 253e eb3a 15bf 6355 cdbd b339 eebe
00000040: ffbc 8b3e ed64 d73e 8fc8 60bd bb6f ebbe
00000050: d079 b3be 59ac 1ebf 98d6 8cbe 72c5 bf3e
00000060: 16c8 babe de28 ab3e 66aa 523d 3406 053d
00000070: c5c2 01be f32a 143d e8dd 053f 3f41 17bf
00000080: fdcd 98be 0486 333f e791 37bf 3b43 00bf
00000090: 1e70 a03d fa9f 19bf 9cb1 fabe b41a 063c
000000a0: 4c8c 03bd f2c6 0abf b55d d5be dcf5 bbbd
000000b0: 34af 99be ce38 cd3e 4f4c ae3e 59be 2cbf
000000c0: 2ad4 e73e 2d23 c53d bf1e 1f3e d659 c33e
000000d0: 2340 803e caa6 823e 5a2d f4bd 6b94 68bb
000000e0: 7e10 003d c4d2 a33e 8ce9 27bf 6db2 183e
000000f0: dc14 ea3b 591e 86be ec2e 483c fd13 f13d
00000100: bc26 e4bd c255 2e3f 1f12 e33e 5d97 cbbd
00000110: 6303 78bb f538 863e d3a7 60be 1d8b 5d3e
00000120: 444c 2ebe 4f76 093f e9cc dbbe 951e 03bf
00000130: 3b31 25bf 156d 52be c740 06bf 0b7c 82be
00000140: f7d1 f93e 9afb 693e 8cfc 813d 5fe5 dbbc
00000150: edce 11be efb3 1b3f 7329 123f 335a 82be
00000160: e49f aa3e fa31 fabe 1a6f 6bbe 47a6 8e3e
00000170: aee0 37bd d62b f1be b626 2ebf 4e9f ee3e
00000180: 02e5 2d3f 7fe4 3bbe 3799 0dbf bf7e 7bbd
00000190: e8d4 f23e c6c9 113f 3203 85be be4e ee3e
000001a0: d6f3 003f 8445 09bf df9d a53e 0b84 3abb
000001b0: 6ae4 bbbe 0d3d 2abe cb21 0cbf 7e1c c3be
000001c0: 9364 49be e9c3 6b3c 6814 f03e 0274 a8be
000001d0: 3194 01bf ab73 c5be da88 6a3e 89e1 0abf
000001e0: b475 0abe f534 bcbe e2a9 db3d 0765 743d
000001f0: e129 c5be cc2f 07bf 66a3 20be d0e9 e4be
00000200: b9b6 0fbf b721 b03c e6ec 7abe 6920 ae3e
00000210: 5559 35bd ea8f adbd 0520 193f bc90 18bf
00000220: 69a7 97be 73ca 043e dc9f c1be 6010 593e
00000230: c252 90be 791d 6e3e 0ca7 223e 9342 063d
00000240: 81b8 903e 54e3 acbe 411d dd3e eee5 ed3d
00000250: 1c8b aebe a060 17bf a27a e1be fd42 2e3e
00000260: fcf9 2e3f c926 c33e 4bec 923c 15cc e43d
00000270: 4f91 913e 5b88 2a3e 1424 0dbf bbe7 29bf
00000280: f007 233f 76f5 fcbe 3a28 8bbe 77ae 96bd
00000290: 9729 00bf e2d0 8ebe bd2e 27bf 75df e63e
000002a0: b1e6 893d c369 893e 444b 0cbf 4701 1b3f
000002b0: 0c71 3f3c 6a05 f73e 0c0b 203f 80ac 1abf
000002c0: bd39 fbbe 27aa 23bf a2aa 023f 8cb2 2a3f
000002d0: 3e34 dbbe d84b eabd 0d2b 023f 1418 003f
000002e0: 2235 cabc 9bf8 a53e a57c 0d3f a54b 093f
000002f0: 9139 043f 8581 c13e b5b3 e2be 4217 30bf
00000300: 1f02 023f b020 f7be f986 b73d 86fd 943e
00000310: 02c6 afbe 0eed bcbe 5612 42bd f443 993e
00000320: 389d a1bd 0766 403e 7ac3 cf3e 697d 7cbe
00000330: 1f11 c1bd c72d 693c c995 fabd f038 33bf
00000340: 0b08 193d 55fa 04bf 7314 3b3f 6a26 8abe
00000350: 2fb7 82be 9743 5ebd e065 12bf 5b89 6abe
00000360: 792d cabe b7a5 313f ad60 16bf 2421 37be
00000370: 11c4 953e 34c9 debe 6a51 02bd 2664 483e
00000380: 920d 2b3f 3a81 ce3e e6bd f33e 4200 23bf
00000390: 9dc6 bc3e b168 1b3d d73c 71bd 2d0c a0be
000003a0: 19b4 abbd 3231 1ebf 408d 07bc b7e0 6dbd
000003b0: 829c ef3e 1a3e 82bd 94e3 08bf b930 28bf
000003c0: 9fe3 063e 8766 583e effe bf3e 8540 dc3e
000003d0: 220c 94be 14bb c53e e096 313f 8f36 0e3f
000003e0: dc0d 09be 4a78 f53e 58da b5be 426c 183f
000003f0: 8efe 153f 213d bc3d 250d 7a3e 4600 243e
-0.69980586 -0.5060709 0.29355934 -0.10642355 0.032944854 -0.15132648 -0.24260893 -0.18872106
-0.4410357 0.5155981 0.6341621 0.6198421 0.16141129 -0.58293027 -0.10026052 -0.46528396
0.2729263 0.42069188 -0.054878768 -0.4598368 -0.35053873 -0.6198173 -0.27507472 0.37455326
-0.36480778 0.33429617 0.051432036 0.03247662 -0.12671955 0.036173772 0.5229173 -0.5908393
-0.29844657 0.70126367 -0.71707004 -0.50102586 0.07833885 -0.6000973 -0.4896363 0.008185077
-0.03211622 -0.54209816 -0.41673055 -0.09177753 -0.30016482 0.400824 0.34042594 -0.6747795
0.45279056 0.0962585 0.15539072 0.38154477 0.25048932 0.25517875 -0.119227126 -0.0035488855
0.03126573 0.3199674 -0.6559074 0.14911814 0.0071436 -0.26195028 0.012218218 0.117713906
-0.111402005 0.68099606 0.44349763 -0.0994098 -0.0037843816 0.2621533 -0.2193902 0.21635099
-0.1702128 0.5369615 -0.42929772 -0.5121854 -0.64528245 -0.20549424 -0.5244259 -0.25485262
0.48793003 0.22849885 0.063469976 -0.026842771 -0.14239092 0.6082143 0.57094496 -0.25459442
0.33325112 -0.48866254 -0.229916 0.27861235 -0.044892006 -0.47103757 -0.6802782 0.46605915
0.67927563 -0.18348883 -0.5531191 -0.06140017 0.4742806 0.56948507 -0.25979 0.4654445
0.50372064 -0.536217 0.3234701 -0.0028460051 -0.36697704 -0.16624852 -0.54739064 -0.38107675
-0.19667272 0.01438997 0.4689057 -0.32901007 -0.5061675 -0.3856481 0.22903767 -0.5425039
-0.13521463 -0.36759153 0.10725762 0.05966666 -0.38508514 -0.5280731 -0.15687332 -0.44709635
-0.5613819 0.021500451 -0.24504432 0.34009102 -0.044274647 -0.08474715 0.5981448 -0.5959585
-0.2961991 0.12967853 -0.37817276 0.21197653 -0.2818814 0.2325343 0.15884036 0.032778334
0.28265765 -0.33767188 0.4318638 0.11616121 -0.34090507 -0.59131813 -0.44038874 0.17017742
0.68350196 0.38115528 0.017934939 0.11171738 0.28431174 0.16653578 -0.55133176 -0.6636922
0.63683987 -0.49406022 -0.27179128 -0.07357495 -0.5006346 -0.2789374 -0.6530569 0.4509236
0.06733454 0.26838502 -0.54802346 0.60548824 0.011684667 0.48246318 0.62516856 -0.60419464
-0.49067488 -0.63931507 0.51041615 0.6667869 -0.42813295 -0.11440247 0.5084694 0.5003674
-0.024683539 0.32416233 0.5526832 0.5363105 0.5165034 0.37794128 -0.4427773 -0.6878549
0.50784487 -0.48267126 0.08961291 0.29099673 -0.34330755 -0.36899608 -0.047380768 0.29934657
-0.07891315 0.1878892 0.40578824 -0.24657215 -0.09427094 0.014232106 -0.122356005 -0.70008755
0.037361186 -0.51944476 0.7307808 -0.26982433 -0.25530383 -0.054263677 -0.571867 -0.2290396
-0.39487818 0.69393486 -0.58741266 -0.17883736 0.2925115 -0.4351288 -0.031815924 0.19569454
0.6681758 0.40332967 0.4760582 -0.6367227 0.3687028 0.03794164 -0.058895912 -0.3125929
-0.0838396 -0.61793816 -0.008273423 -0.058075633 0.46799093 -0.06359501 -0.53472257 -0.65699345
0.13172768 0.21132861 0.37499186 0.43017974 -0.28915507 0.38619292 0.6937084 0.55552
-0.13384193 0.47943336 -0.35518146 0.5954019 0.58591545 0.09191347 0.24419077 0.1601573

fc1.linear.weight f4 [50, 2]
00000000: ed95 05bf 6c32 ff3e 8f1e 023e 9270 2a3f
00000010: 0b60 0b3f 599c 143d 8ec2 abbe d44b cebe
00000020: 0c72 f1bd 3073 583e ffa3 123f eda4 283f
00000030: 06a1 2dbd 36fe 4abd a153 37bf 11cf e7be
00000040: 0b37 343f e00e 22bf 06ac 48be 06d1 483e
00000050: 7657 513e 6386 cd3e 90a9 323e 992f 823e
00000060: af37 d13e 6a19 753d 405f 91be 9b08 643e
00000070: 06a4 babd 254c 9b3e 0835 ff3e 4c51 373e
00000080: 0fe2 a03e 0b56 103f f70d 0e3f d3dd 9a3e
00000090: 7d72 643e e1f7 e43e 02af d33e 9a77 03be
000000a0: e3a9 11bf 7a96 963e d413 923e b82a 1d3e
000000b0: 6fe3 cb3e 1444 363e eba2 8dbc eb68 cb3e
000000c0: 6266 c2be ccff 893e feb6 433e f12f c6bd
000000d0: 64b6 4cbe c022 2abf b809 00bf be74 333f
000000e0: 46a5 563d 7820 9ebe da67 473e 1cd3 e6bd
000000f0: 88c2 20bf 4ce4 2c3f 8e32 233f 37f2 963e
00000100: cb6c d8be 4f06 41be e49b 083f ea81 503e
00000110: 623b b53d 819b 513d e62f cabe c6ae 023e
00000120: bb77 f7be bbf8 fc3e d609 a7be cbc2 983e
00000130: 865f 213f 6317 95bc ed32 d53c efbc cd3e
00000140: 48b5 123f a337 503e b754 d83e 522c 60bd
00000150: 92ed 56bd 12f2 b53e 266f dd3d ddb9 193e
00000160: 479c 163e a38a 8dbe c039 c8be 986c 6f3e
00000170: 3fbf 043f 8be6 f6be 7f61 acbd ddbd b23b
00000180: b99d 71be 45d2 323e 9085 d93e 52da b8be
-0.52181894 0.49843156 0.1270697 0.6657802 0.54443425 0.036281917 -0.3354687 -0.40292227
-0.11789331 0.2113769 0.5728149 0.65876657 -0.042389892 -0.04955884 -0.7161198 -0.45275167
0.7039649 -0.6330395 -0.19596872 0.19610986 0.2044352 0.4014159 0.17447495 0.2542694
0.40862796 0.05983869 -0.28392982 0.22268908 -0.09113316 0.3033153 0.49845147 0.17902106
0.3142247 0.5638129 0.5549006 0.30247363 0.22309299 0.44720367 0.41344458 -0.12838593
-0.5689985 0.2941168 0.28530753 0.15348327 0.39821956 0.17799407 -0.0172896 0.39728484
-0.37968737 0.2695297 0.19112775 -0.09677113 -0.19991452 -0.66459274 -0.5001483 0.7010001
0.05240371 -0.30884147 0.1947321 -0.11270735 -0.6279683 0.67535853 0.63749015 0.2948167
-0.42270502 -0.18850063 0.5336287 0.20362058 0.08849217 0.05117369 -0.3948967 0.12761983
-0.48333535 0.49408516 -0.32624692 0.29836115 0.6303638 -0.018199628 0.02602526 0.40183207
0.57307863 0.20333724 0.42252132 -0.054729767 -0.05247266 0.35536247 0.108122155 0.15012307
0.14708053 -0.27644834 -0.3910656 0.23381269 0.5185432 -0.48222765 -0.084170334 0.0054547624
-0.23595323 0.17463024 0.42484713 -0.36104065

fc2.r_group f4 [100, 4, 50]
00000000: 82fd 983f e4b9 893f 9f23 743f 8c3b 3e3f
00000010: c744 cd3f 937c 323f be70 643f 96c6 ac3f
00000020: fd2f b33f a620 013f 3efe 603f 858f e53f
00000030: b325 c73f 0847 473f 0e4e b93f a809 a83f
00000040: 4582 103f fff6 e53f 0b76 9d3f 7d93 b13f
00000050: a675 ba3f 8e42 be3f 815a a33f 5eef df3e
00000060: 926e 143f 2c4b f73e e8d3 7b3f 5836 743f
00000070: 29f4 953f 92ab 903f af4d 4f3f edc2 9b3f
00000080: 5eb5 963f 97ac 2c3f c0a1 c33f b4e3 673e
00000090: 13e9 c93f 94b6 163f 22f0 f33e d846 ae3f
000000a0: 87b9 0e3f f9db 833f b5bc 433f 1bb3 0240
000000b0: ef9e 9b3f 6e4b f53e 334b c73f 906a be3c
000000c0: dbe7 b33f 6ca6 363f 0969 aa3f d532 853f
000000d0: 6d0e 8b3f 0562 a03f 1a4e 8b3f 6fcb 6b3e
000000e0: c191 a63f efec 4a3f 0f6d a83f 8ce4 863f
000000f0: b552 fa3f 8164 953f 6099 563f 7a66 7f3f
00000100: 639f 2d3f fd1e c03f 45b5 583f 3f4e 033f
00000110: 9753 0140 edc9 8d3f 1647 353f f3c7 ee3f
00000120: 130a cb3f 9dc1 b13f c57f 593f fb46 8d3f
00000130: 2a1c bc3f 2857 ba3f b3df 943f c483 5b3f
00000140: ef88 1640 9f6c 573f 6447 a73f 266d 6f3e
00000150: 9023 bc3f 11b2 763f de7c ab3f d940 033f
00000160: 89b0 e23f 5ce9 053f 3a71 8d3f f673 923f
00000170: ed01 683f 0151 833f 5b72 3c3f ee9c b73d
00000180: 0a4b 743f 979f 513f 64ba 923f 92f1 523f
00000190: 21a5 083f 4ac3 ce3f 9f0b f73e 0aba b1bd
000001a0: 8c2b 183f 45b7 083f 63e2 8f3f 14d7 9a3f
000001b0: 448d a93f 80a6 a13f 9ecc 563f 7ea9 a33e
000001c0: 06d7 883f 15d4 543f c199 9b3f 6a08 a13f
000001d0: bcb2 9c3f 363c 683f 4e40 1e3f 4445 8c3f
000001e0: d33b 8cbe 5dbb 8e3f d1ec 683f 6018 b43e
000001f0: 6d88 813f 284e de3f 5fab 3a3f 6fd9 903f
00000200: 7607 453f 521b c53f 6463 b63f abb4 103e
00000210: 4248 d33f 0899 ee3f be49 b23f d6e1 2e3f
00000220: 1470 c33f aece 473f 5c87 883e e259 0140
00000230: 1417 1c3f 308e 713f e674 c43e a783 443f
00000240: d073 a73f 20df 6b3f 8853 f43e 7c4f 0940
00000250: d9c4 223f e080 9e3f a628 0b3f 4cde 8b3f
00000260: 7818 043f fa97 573e c5d3 ef3f 7017 da3e
00000270: 72ac a03f 4c4c 9d3f 91c7 a83f 4f03 3f3f
00000280: 9ada 0c3f 99e4 ff3f 67c2 1c3f ad64 a63f
00000290: 5bc0 953f 6200 3e3f 067d 9d3c 3df0 9d3f
000002a0: 9df9 7d3e 8625 673f 43c0 ae3f cc1b e43f
000002b0: 7cf4 423f ef40 3f3f 5e22 213f be64 f73f
000002c0: 20b1 863f 589f a03f 0be9 b83f ec27 403f
000002d0: 715c 9c3e 85f5 063f 79f3 8c3f 8507 4d3f
000002e0: 9446 863f 24b1 863f 100b f13e f0d0 8f3f
000002f0: 76af 393f fae2 ac3f cdc6 f33f bba9 943f
00000300: 6206 1a3f 61fb a03f 1b6c a43f 764d d03f
00000310: 48e5 063f 0169 923f 1324 c83f 7323 ab3f
00000320: 78c3 393f 1ae9 7f3f 3182 633f ff59 dc3f
00000330: ae07 123f 69fd c33f 7937 b33f c6d6 733f
00000340: 4cf7 903f 4123 153f 5537 613f 0a1a 183f
00000350: 6407 313f 7a5f b03d 1f60 ff3e 9e6a b93f
00000360: 30d8 da3e f440 113f e295 f53f 8e61 963e
00000370: deee a93f 6702 833f ae99 563f 9867 633f
00000380: 15f6 8b3f 117e aa3e 6379 b13f ef18 a73e
00000390: 846e e93e 8936 7f3f 6973 bf3e 982c 993f
000003a0: f79a 0340 c619 0a3f 1d6a 923f 3dc0 eb3f
000003b0: 1414 adbe 0112 cf3f 7faf 4e3f 349b 4d3f
000003c0: c323 853e 89c8 bf3f e6df c63f c7d4 973f
000003d0: 3cad 973f c9c8 ae3e c7f1 623f d262 413f
000003e0: 13d0 7a3f 458f c83f cb81 f63e bb49 b73f
000003f0: 29db fe3e 869d 523f 5ae1 883f 4458 703f
1.1952364 1.0759854 0.95366853 0.7430961 1.6036614 0.69721335 0.8923453 1.3498104
1.399902 0.5044044 0.8788794 1.7934424 1.555838 0.7784276 1.4476945 1.3127947
0.56448776 1.7966002 1.2301649 1.3873135 1.4567153 1.4864061 1.2761995 0.4373731
0.57981217 0.4829954 0.9837022 0.9539542 1.1715137 1.1302359 0.8097791 1.2168862
1.1774099 0.6745085 1.5283737 0.22645456 1.5774254 0.5887234 0.47644144 1.361537
0.5575184 1.0301505 0.7645982 2.0421817 1.2157878 0.4790911 1.5569824 0.023244172
1.4055132 0.7134769 1.3313304 1.0406138 1.0863777 1.2529913 1.088321 0.23026823
1.301323 0.7926778 1.3158282 1.0538497 1.955649 1.1671296 0.8382778 0.9976574
0.6782133 1.5009457 0.84651595 0.5129127 2.020727 1.1077248 0.70811594 1.865477
1.586245 1.3887211 0.84960586 1.1037287 1.4696095 1.4557848 1.1630768 0.85747933
2.3521078 0.8415012 1.3068662 0.2338148 1.4698353 0.9636546 1.3397481 0.51270825
1.7710124 0.52309203 1.1050179 1.1441638 0.9062794 1.0259095 0.7361199 0.08965479
0.95427 0.8188414 1.1463132 0.8239986 0.53376967 1.6153347 0.48251054 -0.08678062
0.5944145 0.5340465 1.1240963 1.2096887 1.3246236 1.2628937 0.8390597 0.3196525
1.069062 0.8313611 1.2156297 1.2580693 1.2242045 0.90716875 0.6181687 1.0958638
-0.27389392 1.1150929 0.90986353 0.35174847 1.0119759 1.7367601 0.7291774 1.1316355
0.7696451 1.5398962 1.4249082 0.1413142 1.6506426 1.8640451 1.3928754 0.6831335
1.5268579 0.78049743 0.2666577 2.021111 0.60972714 0.94357586 0.38370436 0.76763386
1.3082218 0.92137337 0.4771998 2.1454763 0.63581616 1.238308 0.543589 1.0927215
0.51599836 0.21054068 1.8736502 0.42596006 1.2552626 1.2288909 1.3185903 0.74614424
0.5502106 1.9991637 0.61234134 1.2999474 1.1699327 0.74219334 0.019224655 1.233894
0.24802251 0.9029163 1.3652424 1.7820983 0.76154304 0.74708456 0.62943065 1.9327619
1.0522804 1.2548628 1.4446119 0.75060916 0.30539277 0.52718383 1.1011802 0.800896
1.0490289 1.0522809 0.47078753 1.1235638 0.7253336 1.3506768 1.9045044 1.1614298
0.6016599 1.2576715 1.2845491 1.6273639 0.52693605 1.1438295 1.5636009 1.3370193
0.72563887 0.9996506 0.8887053 1.7214965 0.5704297 1.531171 1.4001304 0.95249593
1.1325469 0.5825692 0.87975055 0.5941473 0.691519 0.08611961 0.49878022 1.4485662
0.42743063 0.56739736 1.9186366 0.29371303 1.3276021 1.0235108 0.83828247 0.88829947
1.0934473 0.33299306 1.3865169 0.3263621 0.4559213 0.9969259 0.37392738 1.1966734
2.0563333 0.5394558 1.1438633 1.8418041 -0.3380438 1.6177369 0.80736536 0.80314946
0.26003847 1.4983073 1.5537078 1.186181 1.1849742 0.34137562 0.8865017 0.7554141
0.97973746 1.5668722 0.481459 1.4319376 0.4977658 0.8227161 1.0693772 0.9388468

fc2.s_group f4 [100, 4, 5]
00000000: 48a9 fa3f b20f b73f 1ba1 963f b3ca 883f
00000010: 7c36 943f 96c1 a73f 78b5 823f 6d37 493f
00000020: 21da 4b3f eef9 063f 270f c93f 1d52 b03f
00000030: 9129 873f 0f4c 6a3f 54ac 993f d4d0 643f
00000040: a380 173f e5d5 a53f a797 163f fdeb ec3f
00000050: 28b7 7c3f 6bcb 973f ee86 8b3c cd32 4a3f
00000060: 04e7 323f 730d fe3e a7da 7e3f 0b1b 393f
00000070: 8247 753f 37ed ce3f 5b9e 283f fc5d bc3f
00000080: 6901 e13f 0da1 163f 45fb d13f d647 b43f
00000090: eca8 d93f 2b3b 063f c3ee 133f 0616 a63f
000000a0: 6627 ec3f 5926 843f 52e8 e43e ca77 a13f
000000b0: 1d10 7c3f 2620 6b3f 1805 773f 4bc6 4c3e
000000c0: d6ac 823f a4e9 e73f 2ce7 d53f e1ea 583f
000000d0: aa7f 8e3f 7f61 2b3f 966e 5e3f 5918 df3e
000000e0: cf4a 433f d1ad ed3f c2fd 913f b80a a23c
000000f0: bf36 8a3f 1555 fe3f b153 c03f 9fb3 9d3f
00000100: bf14 833f 23c9 a83f da5f dd3e 1b90 493f
00000110: 631b 143e 3abb a93f f8d3 a23e 9450 b63f
00000120: f194 dd3f 6776 3e3f ef57 c73f 33e5 183f
00000130: 81fb 4e3f 5039 ea3e 8bba c03f b276 ad3f
00000140: 0f13 a83f 7dad 2d3f 021c 8d3f 32a1 333f
00000150: 8849 0d3f 9c39 643f 688b f53f ad22 433f
00000160: 6663 363f 9f79 4d3f 93dc 6c3f dc0e 643e
00000170: f332 963f 8dec a93f 2e9b 4e3f c81c 693f
00000180: 7363 583f 89b4 c63f 18f1 173f 08ed d83e
00000190: 204d d73f f379 413e 7ceb 463f 0ead 8b3f
000001a0: 9f46 433f b985 173f 22e4 a6bd cda1 5c3e
000001b0: d858 613f 34bf 4a3f ca20 ba3d 7b64 0a3f
000001c0: 4991 6f3f f968 e33f 5c0f 573f 1daa bf3b
000001d0: 7a85 833f 7d3e ab3e 6728 023f b374 8a3f
000001e0: af6c 613f b39e 053f 7320 cc3f 0f68 0140
000001f0: 88d8 393f 86fa 1f3f 503e 843e f3ae ca3f
00000200: 1286 693f f89d 843f 915b c43f b3bb 3f3f
00000210: 8a17 993f 6c7b a83f 5d3b 363f 884f 7d3e
00000220: 8360 8d3f a07c 423f 0bd4 933e b9d1 ab3f
00000230: c521 0fbd 9e43 8c3f ef9f 483f f530 553f
00000240: cc78 963f ad72 ed3f 8ed7 1a3f 10e3 233f
00000250: a4e1 c13f b669 4a3f 12b6 b73f b37a 993f
00000260: 4a4b a93f 4f0a 823f 192d 713f 5762 8f3f
00000270: 1202 cd3f 2799 3f3f 10a0 e63f 2b6a a23f
00000280: 2a54 e73e ba80 5b3f 1d2a 373f f519 a03f
00000290: c95e fa3e 18c0 1a3f 9b31 213f 0b45 933f
000002a0: 33d4 173f 3b9b a6bd 1ec0 423f c205 d63f
000002b0: 9c0f 863f f04c 9f3f 71e9 af3f 23dc a33e
000002c0: 0d69 b63f adae 873f d0f7 9c3f 824b 823f
000002d0: 4d02 353f 14fe ba3f 2ae4 e93e cd8c 1e3e
000002e0: 6d69 b83f 8f55 fa3d 8dc6 3d3f 0e18 633f
000002f0: 9736 c83f 012d fd3f 9ab1 8c3f 0047 ddbc
00000300: 321d ee3f 498f 953f 30c5 4f3f 3bfb cb3e
00000310: 686f 4a3e 9253 a13f 724b 963d 15b8 bc3e
00000320: 1248 a43f 3d5c e83e ac15 bf3e a873 563f
00000330: 50c6 303f 93b4 853f 2882 5d3f 70d6 2c3f
00000340: da83 3b3f 5672 233f 7030 123f 1163 423f
00000350: ac6b b53f 89f0 803f d81f 843f 4fa0 e83e
00000360: 16b5 c63f 104a c43f 9dc2 ea3e b834 2f3e
00000370: dbec 703f fd61 913f bd26 843f bca3 e53f
00000380: eeb8 c63f 0e3d bb3e 6076 813f 9b9f 333f
00000390: 44df bd3f f5aa 403f df55 5b3f d181 983f
000003a0: 1330 d83f c3bb b13f 23cb 7a3f 3429 d33f
000003b0: b592 ed3e 455f 913f 4495 8e3f b4f6 8c3f
000003c0: 7499 6c3f 2478 1e3f 4927 6b3f d390 353f
000003d0: 9c70 e43f 1d7b 0640 ebbb 893f 3693 533f
000003e0: 4909 1c3f 8c87 b53f 11f3 6a3f d388 7b3f
000003f0: 713b 5d3d 58a2 ab3f cc45 583f fa57 d03f
1.958291 1.4301665 1.1767915 1.0686859 1.1579127 1.3105953 1.021163 0.786002
0.79629713 0.5272511 1.5707749 1.3775059 1.055956 0.91522306 1.2005715 0.89381146
0.5918066 1.29559 0.58825153 1.8509518 0.98716974 1.1858953 0.017032113 0.78983766
0.6988375 0.49619636 0.99552387 0.7230689 0.9581224 1.6166142 0.6586663 1.4716182
1.7578555 0.58839494 1.6404806 1.4084423 1.7004676 0.52434033 0.57786196 1.2975471
1.8449523 1.0324203 0.44708496 1.2614682 0.98462087 0.9184593 0.9649215 0.19997518
1.0208995 1.8118176 1.6711173 0.84733397 1.113271 0.6694564 0.8688749 0.43573263
0.76286024 1.856867 1.1405566 0.019780502 1.0797957 1.9869715 1.502554 1.2320441
1.0240706 1.3186382 0.4323719 0.7873551 0.14463572 1.3260262 0.31802344 1.424334
1.7311078 0.7439942 1.557371 0.5972473 0.80852515 0.4574685 1.5056928 1.3551848
1.3130816 0.6784285 1.1024172 0.7016784 0.55190325 0.89150405 1.9183168 0.76224786
0.7124542 0.80263704 0.9252407 0.22271293 1.1734298 1.3275315 0.80705535 0.9105954
0.8452675 1.5523845 0.59352255 0.4236834 1.6820412 0.18894176 0.7770307 1.0912187
0.76279634 0.5918842 -0.08148982 0.21546097 0.8802619 0.79198 0.09088285 0.5405957
0.9358106 1.776641 0.8400781 0.0058491365 1.0275109 0.33446112 0.508429 1.0816864
0.88056463 0.5219528 1.5947403 2.0219762 0.72596025 0.62491643 0.2582879 1.583464
0.912202 1.0360708 1.5340444 0.7489578 1.1960309 1.3162665 0.7118433 0.2473737
1.1045078 0.7597141 0.28872713 1.3423377 -0.034944315 1.0958135 0.7836904 0.8327783
1.1755614 1.8550621 0.6048516 0.64018345 1.5146985 0.7906755 1.4352438 1.199057
1.3226101 1.0159396 0.9420944 1.1201886 1.6016257 0.74843067 1.8017597 1.268865
0.451814 0.85743296 0.71548635 1.2507921 0.4890044 0.6044936 0.62966317 1.1505445
0.59308165 -0.081350766 0.760744 1.6720507 1.0473514 1.2445354 1.3743116 0.32003888
1.4250809 1.0600182 1.2263126 1.0179293 0.70706636 1.4608788 0.45681888 0.15483399
1.4407173 0.1222335 0.7413109 0.8870858 1.564166 1.9779359 1.09917 -0.027011395
1.860266 1.1684352 0.8116026 0.3984011 0.1976906 1.2603629 0.07338609 0.36859193
1.2834494 0.45382872 0.37321222 0.8377023 0.690526 1.0445732 0.8652673 0.67514706
0.73248065 0.6384634 0.5710516 0.75932413 1.4173484 1.0073406 1.0322218 0.45434806
1.5524013 1.5335102 0.45851603 0.17109954 0.9411141 1.1358029 1.0324322 1.7940593
1.5525186 0.3657002 1.011425 0.70165414 1.483376 0.7526086 0.85677904 1.1914617
1.6889671 1.3885425 0.9796621 1.6496949 0.4640099 1.1357199 1.1139302 1.1012788
0.9242165 0.6190207 0.9185682 0.7092411 1.7846866 2.1012642 1.0760473 0.826465
0.6095167 1.4181991 0.9177714 0.9825565 0.054011766 1.3408918 0.844815 1.6276848

fc2.bias f4 [100, 5]
00000000: c8a4 42bd 4a1f a6bd d29a 19be 844b a43d
00000010: 07dc bc3d 5287 97bd c939 ffbb 2ad3 043e
00000020: 234e cdbc 65b0 33be 4f5c 11bd b8e6 3b3d
00000030: 9cd0 debd 3940 8cbd 4c35 29bd 5b5d 16be
00000040: e703 9b3c 8ac1 d73d a58a d1bd b875 d13d
00000050: 3e18 033d 0e8e f83d 6669 a7bd 82fe e63c
00000060: feb8 76bd dfbf 10bd ff22 afbd 1115 2cbc
00000070: d085 0d3e c11f 2dbd 2ce7 b03d 96d6 f0bd
00000080: c3c5 293d cd41 da3d adb1 873d 6356 18be
00000090: b074 293e fc8e 03be a260 003d 1709 303e
000000a0: dc48 b7bd ad6c c53d 093b 98bb d992 9abd
000000b0: afb7 f63d 573d b9bd ddf3 383d 2b1d 34be
000000c0: 34a7 d13d 62df 053e c768 2fbd 2b00 893c
000000d0: c482 14be 8af4 153e 4481 b63d 2d78 be3d
000000e0: 961b 9c3d 1a2b 8dbc e733 6f3d 7518 42bd
000000f0: 2cec 93bd ad1b b93c 8c9f 823d e399 a33d
00000100: 896a d3bd 8411 913d f87a b8bb 4f45 06bd
00000110: 6d59 f1bc 9296 9fbd ded6 e1bd e030 1ebd
00000120: 5af8 e1bd 6d55 e5bc b843 d4bc 2265 e63d
00000130: 0caf a23d f7ee ea3c ed67 753e c4e7 84bc
00000140: da00 ca3d eb5b e73b d7a0 0d3d 2d54 75bd
00000150: ee14 fcbc 6b1a cebd 12d0 c5bd a744 72bd
00000160: 2d96 6a3c ff25 00bd 6a0d 87bd e68d 0e3e
00000170: 3cee b1bd 31e3 543d d6cc b9bc b704 f1bc
00000180: ec4e 9e3d d7b6 2abe 77b1 0abc 8045 e33d
00000190: e175 323d 87e9 9cbc 696e 8d3b 8410 063e
000001a0: 3230 a53d 53ed 433b eaeb 8e3d c0bb 853c
000001b0: 574f 493b fc11 e53d b982 753d 54ed d03d
000001c0: ad3f 8abd ab68 363e e44a a23d 5e69 c03d
000001d0: 40da babd 51a2 8cbd 6b13 083e 9deb 05bd
000001e0: 8156 763c 0889 1c3e aa32 d1bd 5423 edbb
000001f0: 8477 f5bd d413 42bd 6f17 77bd a64e b5bd
00000200: b4be acbd 300d 86bd a6c2 25be bc0d 1fbd
00000210: 17e9 2e3e 4013 e8bc 6c61 583d c1d7 0dbe
00000220: f116 08be 35c4 873d 807a 88bd 5c83 ecbd
00000230: fdf0 13be 0e93 f63d 1803 a83c ea8e a4bd
00000240: ca47 623d 73d0 2abe 389e e33d bc8e f03d
00000250: 57d8 223e b107 1bbe 52f1 0cbe c866 b5bd
00000260: 9348 763d abac 323e 170e 423d f7e4 863c
00000270: aeca c03d 6b2d 93bd 5710 59bd 3b9e e53b
00000280: 06f3 cdbc 1578 ed3d 4117 a4bd 66d4 80bd
00000290: 13b1 d6bd ecad 13be 938f cc3d c967 813d
000002a0: 032b d8bb 1b76 b4bd e6d1 a93d 9371 d9bd
000002b0: 285e 763d cbad 6c3d 6163 b0bc 8257 90bd
000002c0: 46f6 4f3d 865b 66bd bea4 c9bc 91f7 833d
000002d0: 414b 053d 93b0 e0bd e739 d1bc 281e 96bd
000002e0: 45fd 08be 411e f63d a203 cbbd 452f 253c
000002f0: f6bb bb3d 8a9e e6bc 8b3c 813d 4a21 01bd
00000300: f430 103e f376 2b3e 1031 59bc 5a75 f9bd
00000310: 2f55 4a3e 2a86 b6bb 0e47 033d 06ee 83bc
00000320: 9efd f6bd 4aa0 2c3e 470c 58be 03d8 b53d
00000330: e3ca 6c3d 65cf 1abe 7d40 ca3d 8c89 6dbb
00000340: d956 0f3e dbf3 edbd 995a f1bd 0331 e6bd
00000350: 5f46 c93d 4268 3ebd 6c78 093e 5bc2 bcbd
00000360: fd9b 7f3c 1bed 8abd 8064 533e d696 0bbc
00000370: da3c 10be 3d91 f13c 25cd 29bb 21db 18bd
00000380: aa9b b93d b8b5 543d da5d acbd 3218 e3bd
00000390: 887f 2a3e 3238 7e3d f0cc 443c aec8 163e
000003a0: bea5 de3d e2d3 86bd 013f 03be f6d7 d73b
000003b0: 803a a03c 4824 953d 1a95 c83d 64d8 22bb
000003c0: 487d babd e92b 893d 6e0e 8d3d 3fd0 54bd
000003d0: 97f6 d43d 780c 953d 4777 63bd 0758 8bbd
000003e0: 777c 2a3e f3d6 2d3c 6aea 8fbd 6982 e93d
000003f0: 0b48 93bd 42f2 a63d d516 abbd e8e9 843c
-0.04752043 -0.08111437 -0.15000466 0.08022216 0.092216544 -0.07398857 -0.007788871 0.12971178
-0.025061673 -0.17547758 -0.035488423 0.045874327 -0.10879633 -0.06848187 -0.041310593 -0.1468405
0.01892276 0.105349615 -0.102315225 0.10227531 0.03200554 0.1213647 -0.081744 0.02819753
-0.060235016 -0.035339233 -0.08551597 -0.0105030695 0.13820577 -0.04226661 0.086378425 -0.11759679
0.041448366 0.10657082 0.06625686 -0.14876704 0.16548419 -0.12847513 0.031342156 0.17190968
-0.08949444 0.09639869 -0.0046457094 -0.0754754 0.120467536 -0.09044903 0.04515444 -0.17589252
0.102369696 0.13073495 -0.042824533 0.016723713 -0.14503008 0.14644065 0.08911374 0.093002655
0.07622449 -0.017232466 0.058399107 -0.047386605 -0.072227806 0.022596205 0.063780874 0.07988336
-0.10323054 0.07083419 -0.0056298934 -0.03278094 -0.029461587 -0.07792391 -0.11027311 -0.03862083
-0.110336974 -0.027994836 -0.025911197 0.11249758 0.07943544 0.0286784 0.23965426 -0.016223796
0.09863444 0.007060518 0.034577217 -0.05989473 -0.030771699 -0.100636326 -0.09658827 -0.059147503
0.014318031 -0.031286236 -0.065943554 0.13921317 -0.08688018 0.05197448 -0.022680681 -0.029421194
0.07729897 -0.1667131 -0.0084651625 0.110972404 0.04356945 -0.019154323 0.0043161404 0.13092238
0.08065833 0.0029896095 0.06978591 0.016324878 0.0030717456 0.11185071 0.05993912 0.10201517
-0.067504264 0.17813365 0.079244405 0.09395097 -0.09123659 -0.06866897 0.13288657 -0.0326954
0.015035273 0.15286648 -0.102147415 -0.0072368775 -0.119856864 -0.04738219 -0.060325082 -0.088528916
-0.08434811 -0.06545484 -0.16187534 -0.038831457 0.17081104 -0.028329492 0.052827284 -0.13851835
-0.13290001 0.066292204 -0.0666399 -0.11548492 -0.14447398 0.12039767 0.020509288 -0.08035071
0.055244245 -0.1668108 0.11114162 0.117459744 0.1590284 -0.15139653 -0.13763931 -0.088574946
0.060127806 0.1744868 0.04737672 0.0164666 0.09413658 -0.07186397 -0.0529941 0.007007388
-0.025140297 0.115951695 -0.08012248 -0.06290512 -0.10482993 -0.14421815 0.09988322 0.063186236
-0.0065969243 -0.08811589 0.08291988 -0.10617366 0.06014839 0.05778293 -0.021531763 -0.07047941
0.050771974 -0.056239627 -0.024614688 0.06443704 0.03254247 -0.10971179 -0.025540305 -0.073299706
-0.13377865 0.12017489 -0.09912802 0.010082071 0.0916671 -0.02815177 0.06310376 -0.031525888
0.14081174 0.16744594 -0.013256326 -0.12180586 0.19759057 -0.005570193 0.032050185 -0.01610471
-0.120600924 0.1685802 -0.21098433 0.088790916 0.057810675 -0.15118177 0.098755814 -0.0036245314
0.13997974 -0.11618777 -0.11784858 -0.11239817 0.09827875 -0.046486147 0.13424844 -0.09216758
0.015601155 -0.067835055 0.20643806 -0.008519849 -0.14085713 0.0294882 -0.002590963 -0.037318353
0.09062894 0.051931113 -0.08416338 -0.11088599 0.16650212 0.06206531 0.0120117515 0.1472499
0.108714566 -0.06583382 -0.12817003 0.006587024 0.019559145 0.07282311 0.09794064 -0.0024848217
-0.09105927 0.06697828 0.06887518 -0.05195641 0.10398596 0.07277769 -0.055533674 -0.06803899
0.16649042 0.01061033 -0.07027133 0.11401827 -0.071914755 0.08151676 -0.08353964 0.016224816

fc2.linear.weight f4 [5, 50]
00000000: 96d2 32bd cf85 c2bd 8fce 843b 7e5f 503d
00000010: cd9d 113d fb2f 0e3e 5d4b 74bd c1a9 553d
00000020: 96fd 5b3d 95de ac3c 82fb 0cbd 072a 15bc
00000030: 111a 783d 5f67 b43d 62bf d33b 060c fa3c
00000040: 4b8e 9a3d e4ac 223d 9e3e 1abd 001e 98bd
00000050: f713 08be 96c3 293e 6167 b0bd 9c70 babd
00000060: 9da5 cf3b 3196 4c3d 7f36 80bd ebf9 47bd
00000070: abb6 a9bc 58aa a73d 541d 3f3d fff5 7c3d
00000080: 0d2b 993c d985 9c3d 6771 a73d 647c 1bbc
00000090: 0302 a23d 5e52 01bd 4024 82bd ba04 d9bd
000000a0: 3b70 423d 19f2 993d 92a0 e3bd de2d 11bd
000000b0: fb96 bdbd 9690 eabd aaeb e8bd 07c6 23be
000000c0: 6af4 e2bc 0999 863d bbc3 9abd a820 db3d
000000d0: 6a2f 85bd a2b6 3cbe bfd0 403d 7209 0b3e
000000e0: 714f ddbc 5a2b 19be 7581 00be e5b3 37bd
000000f0: 5387 3a3d 2d62 693d 5849 82bc 5368 ccbc
00000100: fff8 713c cef6 adbd 5884 5e3d dab7 103d
00000110: 5088 78bc 399e a9bc 537f 863c 2513 8b3d
00000120: 2f43 97bd 0cd7 01bd dc24 e93d 341c 8bbd
00000130: 308d 30be d3f2 c23d 2173 afbc 2300 03be
00000140: 4783 f43c b343 bcbc 8522 3c3d b5a2 1f3e
00000150: cc35 83bc eca2 9cbc a63b 82bd 0890 a9bc
00000160: 9a8d c9bd fefa d1bd 6974 9fbc 91e6 fa3d
00000170: c8c7 573d d38c 183c b112 8cbd f416 77bd
00000180: 1745 b5bd d660 ccbc 73ed 843d 8158 e4bb
00000190: 21d2 573c 38a7 d2bc 20c1 ad3d 3009 1d3d
000001a0: 9006 3ebd db3e c43d 5d6d 23be 7aed d1bc
000001b0: 06fd 10bd 5f80 a93d 95e5 8dbd b310 3abe
000001c0: 9a28 94ba 4ede 213e 6c6f d0bc 9cc9 dfbd
000001d0: 43d2 6a3d f482 9abd 890a 72bd 4538 6b3d
000001e0: 9d19 403b d386 293c 0b47 97bd da89 e03d
000001f0: 90f8 b0bd 11d1 a3bd 9e37 d3bd 7423 263e
00000200: 0cd2 b73c e306 d6bd 02cf 0a3d 051e 923b
00000210: 86c8 d3bd 749f 003d b945 bb3d 23ee 2e3d
00000220: 5f3b 8d3d 6321 833d 94cb c73d a1d2 c0bd
00000230: d760 033d 1257 253d 75f8 b6bd b2a0 24be
00000240: d706 1fbe 70c1 1a3e e15e b6bd 8acb 043e
00000250: 78de f03b 62f7 9ebd 467a 87bc c051 03be
00000260: 1e16 46bc 4f1f 363e cbc0 8ebd 38e1 893d
00000270: fd61 083e 9831 e13b 8542 ab3c 415e 4e3d
00000280: bb3f debd a5fb db3d 9b8d 943c ed70 793d
00000290: 350c 8fbb 8d65 8e3d 02e6 08be 5d43 703d
000002a0: 8ac9 16bd 31d8 53bd 4969 303e 9ed0 023d
000002b0: 04f5 a1bd 2245 d03d ac2b 47bd 9158 e13c
000002c0: 5d52 ffbb 8cf4 9ebc b97b 5cbd 080f 953d
000002d0: 5c4c 393d 05be f03c 85d4 90bc 49a7 e33d
000002e0: 4146 bdbd ece7 713b 5130 daba 6ca2 18bd
000002f0: e2db d5bc 2238 c3bc fb77 61bd e411 a93d
00000300: d90a 20be e930 7d3d fc85 eabd 64cf 31ba
00000310: 6c8e 09be 3be4 87bd 9984 85bd 0880 563d
00000320: 180c c53d 1e49 d4bc 202c 913d 314a 0c3c
00000330: 8e0e 063d f580 eabc fa1f 30bd c751 00be
00000340: 7baa ac3d d176 d33c 6c87 4fbd 14b9 64bc
00000350: 4e62 20bc b2f6 f03c ad68 0fbe cc35 cfbd
00000360: 7548 9a3d 014c 793d d409 cfbd 81d9 b83d
00000370: 8c3e 933d 9e6b 863d 909b ebbd 863f c73d
00000380: 2d04 07bd 4cdb 053e 6b45 c03d 1930 b93d
00000390: f0b6 0d3e 4a7b a3bd 4f0f d53d a2d8 e3bd
000003a0: 10ed 0abd f297 a0bc b296 23be e2d3 b23d
000003b0: ae3c 3b3d 5ce5 12be 17ff a13c 0507 18bc
000003c0: 4df1 103d 6139 bdbd 0177 06be 900f 773d
000003d0: ed5a 9bbd ad26 11be cc5b abbd b522 29be
000003e0: ba01 b339 b183 f1bc
-0.04365786 -0.09498178 0.004052944 0.05087232 0.03555088 0.1388549 -0.059642185 0.052163843
0.053708635 0.02110223 -0.034419544 -0.009104258 0.060571734 0.08808779 0.0064620236 0.030523311
0.075466715 0.039715663 -0.037657373 -0.07427597 -0.13288866 0.16578516 -0.08613468 -0.0910351
0.0063368813 0.04994792 -0.06260394 -0.048822325 -0.020716986 0.08186787 0.04665883 0.061758038
0.018697286 0.07642717 0.08175927 -0.009490106 0.0791054 -0.031572692 -0.063545704 -0.10596605
0.047470313 0.075168796 -0.11114611 -0.035444133 -0.09257313 -0.11453359 -0.11373074 -0.1599351
-0.027704436 0.06572158 -0.07556864 0.10699588 -0.06503184 -0.18429044 0.047074076 0.13577822
-0.02701542 -0.14957944 -0.12549384 -0.044849295 0.04553921 0.056978393 -0.015904114 -0.02495209
0.014768838 -0.0849434 0.05432543 0.035331585 -0.015169218 -0.02070533 0.016418135 0.06790761
-0.07385861 -0.031699225 0.113839835 -0.06792489 -0.17241359 0.09518971 -0.021417202 -0.12793021
0.029847754 -0.0229815 0.045931358 0.15589412 -0.016016863 -0.019120656 -0.06359033 -0.020698562
-0.098414615 -0.10252951 -0.019464688 0.12251008 0.05268076 0.009310919 -0.068395026 -0.060324624
-0.088510685 -0.024948519 0.06490602 -0.0069685583 0.013172657 -0.025714502 0.08484101 0.03833884
-0.046392977 0.09582301 -0.15959688 -0.025625933 -0.035397552 0.08276438 -0.06928555 -0.18170433
-0.0011303604 0.15807459 -0.025443755 -0.10927126 0.057329427 -0.075445086 -0.05909208 0.05742671
0.0029312142 0.010347086 -0.07386597 0.10963793 -0.086411595 -0.079988606 -0.103133425 0.16224462
0.022439025 -0.10450532 0.033888824 0.004459145 -0.10340981 0.031402066 0.09144158 0.042707574
0.0689609 0.064028524 0.09755626 -0.09415174 0.032074776 0.04036624 -0.08934108 -0.16076925
-0.15529953 0.15112853 -0.089048155 0.12968269 0.007350739 -0.07762028 -0.016537797 -0.12824154
-0.012090234 0.17785381 -0.06970366 0.0673241 0.1331863 0.006872367 0.020905742 0.050382856
-0.10851999 0.10741357 0.018133929 0.06089871 -0.004365469 0.06952963 -0.13368991 0.058657993
-0.036813296 -0.051719848 0.17227663 0.031937234 -0.07908061 0.10169436 -0.048625633 0.027508052
-0.007791801 -0.019403718 -0.05382893 0.072782576 0.045238838 0.029387483 -0.017679462 0.111158915
-0.092419155 0.0036911918 -0.001664648 -0.037264273 -0.026105825 -0.023830477 -0.055046063 0.082553655
-0.15629138 0.061814222 -0.11451337 -0.0006782918 -0.13433236 -0.066353284 -0.065194316 0.052368194
0.09621447 -0.025913771 0.07088494 0.0085626105 0.032728724 -0.028625945 -0.042999245 -0.12531196
0.08430954 0.025813492 -0.050666258 -0.013960142 -0.009789063 0.029414508 -0.14004774 -0.10117683
0.07533351 0.0608635 -0.101092964 0.090258606 0.07189664 0.06563495 -0.115042806 0.09728913
-0.032962967 0.13071936 0.093882404 0.09042377 0.13839316 -0.079825 0.104033105 -0.11125304
-0.033917487 -0.019603703 -0.15975454 0.0873182 0.045712166 -0.14345306 0.019774957 -0.009279017
0.035386372 -0.0923946 -0.13131334 0.060317576 -0.07585702 -0.1417491 -0.08367118 -0.16517146
0.00034142827 -0.02948174
