experiments/classification/toy/gaussian_mixture/pretrained/2025-05-08_11-19-07/RepulsiveCrossEntropy_BatchEnsemble (rank 3).pt (torch, 155644 bytes, 8 tensors)

fc1.r_group f4 [100, 3, 2]
00000000: c561 5e3f 99a4 573f cbaa 683f fd74 553f
00000010: facc 933f bd41 5e3f 4906 853e 82cc 693f
00000020: 3b10 cc3f d40d 543f 42c6 003f 476b b33f
00000030: 2b35 d33f 31af b23f 52f7 693f c118 593f
00000040: 0d82 d43f 184f a43f bfed 7b3f c0d7 ba3e
00000050: 3f52 983f c3d6 803f 6567 ea3f 654d 7a3f
00000060: 9fb6 893f d948 9b3f cb35 aa3f 0a9b 0440
00000070: 6bcc a43f 661d 1e40 b5e8 b53f c516 b33f
00000080: 9b13 9e3f 9861 8c3f c0c8 163f fe90 063f
00000090: f110 1d3e 790e 863f f188 053f a630 df3f
000000a0: f5ff 4b3f 85c3 993f de52 a63f 17f7 e03f
000000b0: 06f6 023f 5804 403f c86a ee3e 87e8 c73f
000000c0: 708d ee3e 820b 2fbe 13a5 303f 8cca fb3f
000000d0: c3f6 a43f f4ff 0e3f da9d 593f 5dfa 6c3f
000000e0: 14d0 b93f 184f 943e 67b2 6c3f ff28 9c3f
000000f0: 32d3 6f3f 5e0c 983e 163b 4d3f ca07 883f
00000100: ddc3 093f 5334 0c3f 3a5a 923f 0de4 823f
00000110: 3f25 2a3f bb7f 533f 70a2 c93d 20ce 873f
00000120: 24d3 103e 8c65 bb3f aa8d 933f ad31 5e3f
00000130: 0d19 4b3f 488c 113f 380b 433f 5ad9 823c
00000140: a677 af3e 5f65 933f 5f53 a13f 173d c23e
00000150: 27d4 003f e8b2 573f 9fa6 123f 2e78 f03e
00000160: 30b9 da3f e324 7f3f 3038 9d3f 749e 933e
00000170: 6d2d f13f 0604 8b3f 4fff cf3f 7334 c63d
00000180: a5af d73f 252b c43f 9fe5 ad3f 9380 2d3f
00000190: 338f db3f 8b83 473f 205b 793f 5586 fe3f
000001a0: aed6 c33f 76ed e33f 40de f03f ebfd 2a3f
000001b0: 4b82 f53e c1e6 b43f 9589 fd3e 05ed f83e
000001c0: 6b62 9e3f fc94 703f bb7e c53f 62eb 0a3f
000001d0: a424 b43f a720 503f e6a8 b93e 4068 0840
000001e0: e24f 063f cfe2 f83f 332c 763f b6bf 753e
000001f0: 1218 d33f b5af 99be fe5a 873e c296 823c
00000200: f2cb 623f 82d2 893f 2d03 743f 131d b63f
00000210: b698 893f 5002 913f 0634 993f 5dea 453f
00000220: c4cb 8b3f 9178 313f d802 873f 4e7b 753e
00000230: b429 bb3f 0670 0a3e 7d7e 853f 4bb0 353f
00000240: 4268 803f a1cf 153e 5a09 8b3f f650 023f
00000250: 9fdc 1d3f c623 d83f e7e2 0040 7a01 253f
00000260: 0031 6f3f 5cd2 293f fdf0 683f 7008 af3f
00000270: 80e8 913f 1cbf cf3e 1ce5 cc3f d047 e43e
00000280: 35be 173f 1b0a dd3f 9d47 d73f ac29 a63f
00000290: 0b18 973f 8c26 b63d ccd8 a23f 3d68 563f
000002a0: a475 a03f 9bf6 9c3f fab4 0e3f 4775 9c3f
000002b0: b53e 873f b5eb 873f 4e34 733f 92b9 703f
000002c0: 631c 663f 4118 79bc 3897 ef3f f93e 713e
000002d0: ba37 8a3f 8331 ab3f ffed 8b3f f974 aa3f
000002e0: 2daa d53f 326a 973f 39e7 a63f 26c7 be3d
000002f0: 6099 9e3f f019 cd3f d756 813f bbd8 fe3f
00000300: 14cf ba3f d616 8e3f c40f 5b3f 10c2 da3e
00000310: cec4 983f 9103 4c3e 6768 af3f 7d5c 153f
00000320: d897 b73f c71b 853f 858e af3f 3218 033f
00000330: c9a8 3a3f cab9 fa3e a683 703f 32cd 563f
00000340: 013f 183f 53dc 163f b59f 8b3f d053 ac3f
00000350: 9f41 a33e 95bf f43f 2486 ab3f 8e8a db3f
00000360: d748 803f e878 5d3f b3d2 a13f c4b1 563f
00000370: db64 883f e2ce c33f 7844 b63f eb3a 4b3f
00000380: 12cb 6e3f 9e97 3a3f e055 a83f fc15 823f
00000390: cf45 893f 7040 643f 1f51 0e3f edb9 de3f
000003a0: 048b 853f b21d 5b3f 69d6 c63f a5df 313f
000003b0: 8794 e13f a3bb e3be 72c9 0540 360d 8c3f
000003c0: fb9a 6c3f 19bb 763f c1d9 4a3f a551 6e3f
000003d0: 5727 153f 9923 8b3f de8c d03e 96d5 b13f
000003e0: f364 133f 4af4 413f b52a 9b3f 0653 893f
000003f0: 7a77 343e b060 8d3f fbf3 033f 1fe3 e33f
0.86867934 0.8423553 0.9088561 0.83381635 1.1546929 0.8681906 0.25981358 0.9132768
1.5942453 0.828336 0.5030252 1.4017113 1.65006 1.3959714 0.91393006 0.84803396
1.6602188 1.2836637 0.98409647 0.3649273 1.19001 1.006554 1.8312804 0.97774345
1.0758857 1.2131606 1.3297666 2.0719628 1.2874883 2.4705443 1.4211642 1.3991324
1.2349733 1.0967283 0.5890007 0.5256499 0.15338494 1.0473167 0.5216208 1.7436721
0.79687434 1.2012793 1.2994039 1.7575406 0.5115665 0.7500663 0.46565843 1.5617837
0.46592283 -0.17094234 0.69001883 1.9671187 1.2887806 0.55859303 0.8500649 0.92569524
1.4516625 0.28966594 0.9245972 1.2200011 0.93681633 0.29696935 0.80168283 1.0627377
0.5381449 0.5476734 1.1433785 1.0225846 0.66463083 0.82616776 0.098454356 1.0609779
0.14143044 1.4640365 1.1527607 0.8679455 0.793351 0.5685468 0.76188993 0.015972782
0.34270972 1.1515311 1.2603568 0.37937233 0.5032372 0.84257364 0.57285494 0.4696669
1.7087765 0.9966566 1.2282772 0.28831828 1.8841988 1.0860603 1.6249789 0.09677973
1.6850477 1.5325667 1.35857 0.67774314 1.7153076 0.77935094 0.9740467 1.9884745
1.529989 1.7806842 1.8817825 0.667937 0.47950968 1.413292 0.4951903 0.48618332
1.2373785 0.9397733 1.54293 0.54265416 1.4073682 0.81299824 0.36261672 2.131363
0.5246564 1.9444216 0.9616119 0.23998913 1.6491721 -0.30016866 0.2643661 0.015941028
0.88592446 1.0767367 0.95317346 1.4227623 1.0749729 1.1328831 1.1969001 0.77310735
1.0921559 0.69324595 1.0547743 0.23972818 1.4622102 0.13519296 1.0429226 0.70972127
1.0031817 0.14629985 1.0862229 0.50904787 0.61664766 1.6885917 2.013849 0.6445538
0.93434143 0.6633661 0.9099272 1.367445 1.1399078 0.40575492 1.6007419 0.4458604
0.5927461 1.7268709 1.681873 1.2981467 1.1804212 0.08894071 1.2722411 0.83752805
1.2535901 1.2262758 0.557449 1.222329 1.0566012 1.0618807 0.95001686 0.9403316
0.89887065 -0.0152035365 1.8718023 0.23559178 1.0798256 1.3374485 1.0932006 1.3316947
1.6692559 1.1829283 1.3039314 0.09315328 1.2390556 1.602354 1.0104626 1.9909891
1.4594445 1.1100719 0.8557093 0.42726183 1.193506 0.19923235 1.3703736 0.5834425
1.4343214 1.0399102 1.3715369 0.51208794 0.72913796 0.4896987 0.9395088 0.83906853
0.59471136 0.5892994 1.0908114 1.3463078 0.31886002 1.9120966 1.3400311 1.7151659
1.0022229 0.86512613 1.2642425 0.83865 1.0655779 1.5297511 1.4239645 0.79386777
0.9327861 0.728876 1.3151207 1.0162959 1.0724429 0.89160824 0.5559253 1.740049
1.0433049 0.85592186 1.5534183 0.6948188 1.7623452 -0.44479093 2.0904202 1.0941532
0.9242398 0.9637924 0.79238516 0.9309333 0.5826315 1.0870239 0.40732473 1.3893306
0.5757591 0.7576338 1.2122408 1.0728462 0.17623702 1.1045132 0.5154416 1.7803687

fc1.s_group f4 [100, 3, 50]
00000000: fa9b 993f 68df a23f 9e90 8f3d 5825 e63f
00000010: 22b4 b43f c454 ac3e 8fbf 323e 2981 873f
00000020: 5e1b b73f f523 a83f b477 993f 1f69 813f
00000030: ed77 a73f d903 6c3f 230c cc3f 9fa1 353f
00000040: 5dc3 823f 93fc a43f 5128 a73f aff7 ac3f
00000050: 0483 273f 0b41 d63f 2ea8 2c3f 76a1 993f
00000060: 8668 fe3e ab6d 303e 4f7e cc3f d7dd d73f
00000070: 9f24 a23f 2028 a03f ed4d a23f 5055 b03f
00000080: fd20 3a3f b4e8 083f 1a88 9b3f 2207 fd3e
00000090: ef16 e83e 1c36 ba3f deb0 c83e 4a11 9b3f
000000a0: 57ee c63f 44fa 3b3f 58d3 abbe 5668 933e
000000b0: 2d62 503e 9b65 0c40 9382 033f 304f 0240
000000c0: 3a10 a43f d8c9 fc3e 85d4 9e3f f221 c73f
000000d0: 3cc9 153f 038b 843f 2822 833f c827 bfbe
000000e0: c1f3 e23f 2561 ed3f 30f7 563f a66c 8a3f
000000f0: c6b9 d83f a3b3 823f 00a5 5c3e 5270 a53f
00000100: 72e0 8e3f 5034 b43c 16fa 3e3f e0af 403f
00000110: ccda a93f 4e8c 793f 0bb4 0f3f f109 b03f
00000120: db71 c23f 4763 1e3f be35 8d3f 6d18 ee3f
00000130: 20db fe3f 0abc 943f 175d 863f df79 853e
00000140: 5b50 633f 20f4 ad3f 07fb 9c3f c850 b93f
00000150: f84a 053f 43de 883f 1000 ba3f fb00 7e3f
00000160: 2b70 adbd aac2 b53f 9b04 213f df85 a03f
00000170: e555 9d3f a435 533f dcc8 a63e 5934 05be
00000180: fe0f b23f 3cf7 903f bc86 d93e ed0d 353f
00000190: 21ec f43e 9e5d b73f ba8b 9c3f 5e04 863f
000001a0: 453b b43f 2ef9 2640 554f e53f 6555 f03b
000001b0: 4465 0240 01c7 de3e cc7e 2a3f 468c a33f
000001c0: e1a6 413f 47ed c03f 59a0 9b3e 7501 9b3e
000001d0: b4fd e73f c096 d03f 2937 38be b683 823d
000001e0: 7cbd 213f 6aec 753e 1612 4a3f 6e8a ce3f
000001f0: 0429 a73f 52f2 653f 11ab e33f 64ca 843f
00000200: 4d62 d53f 0632 f1bc b212 a33f 089b f33f
00000210: 10a0 b83e cbfb cf3f 177c d83d 4b71 a63f
00000220: 0a7a d83f a265 fa3e f30d a53f f700 c33e
00000230: 6222 8b3f 87e1 163f 28c8 a33f 4463 a53f
00000240: f2ff 8c3e a1fd a83f f1e0 8d3f c1fb ed3f
00000250: 2277 d83f f13d 183f d9cc 303f c190 e43f
00000260: feec c13f 0aad f13f bd4a 8d3f fc34 983f
00000270: b7c8 943d 91b7 993e c872 8b3f a912 ff3e
00000280: 34b6 db3f 7949 783f f5ba 9c3f fc53 883f
00000290: 3bd1 483e 1ad3 223f 09ff c73e 2f9a 513f
000002a0: 54b9 453f d248 6a3f 10d3 473f 30af 3a3f
000002b0: f33b 9f3f 9b3b 9a3f a79d b43f 2772 973f
000002c0: 0711 9e3f 41d8 ef3f d522 c73f 7d2c 7e3f
000002d0: b873 853f bd13 8d3f 89aa 243f cad4 983f
000002e0: 45db 0e3f 182b 5f3f 58fd 513f 55ac 433f
000002f0: 0671 6e3f 4363 953f be89 953e 1381 983f
00000300: 94a8 903d 27af a93f ccd7 b83f 06ed 003f
00000310: f238 a03f 42be 2c3e 4354 fb3e 1dcd d43f
00000320: 4486 583f 1ea1 993f c671 993f ba23 b13f
00000330: 899e ca3f c38f 8a3f e7c2 6b3f 2f8d 373f
00000340: 7992 573f 3d9e 0a3f fbd0 783f 93de 933f
00000350: cb4e 8d3f b7f4 e83f 3d96 ca3f da41 4f3f
00000360: b569 563f 3bc7 693f 17d2 6d3f 540d 323f
00000370: debc 133f af9f d83f 68c4 9a3f 942f b33f
00000380: 5869 403f 25ef 0d40 b505 563f 5095 433f
00000390: a95e 523e f977 c93e 8f28 413e 6cf5 763f
000003a0: 3fa5 9e3f 6cb1 b13e 7ab5 0d3f 0b7b c83e
000003b0: e452 c63f 6b56 7f3f 20d0 ad3f 4a24 d43e
000003c0: 7e16 f83e 9669 9e3f 358d 693f bb64 a03e
000003d0: 5c4e 5e3f 3136 a73f 0c82 463f d5d4 3b3f
000003e0: d721 e03e bd08 523f 1cf5 e23f 1c8b 563f
000003f0: a272 993f 9b07 f53e a83a 513f e69b ca3f
1.2000725 1.2724428 0.070100054 1.7980146 1.4117472 0.3365842 0.17455886 1.0586292
1.4305227 1.3135973 1.1989655 1.0110205 1.3083473 0.9219337 1.5941204 0.7094974
1.021587 1.288958 1.3059179 1.3513087 0.6543429 1.67386 0.6744412 1.2002399
0.4968912 0.17229335 1.5976046 1.6864575 1.2667426 1.2512245 1.2680031 1.3776035
0.72706586 0.53480077 1.215091 0.49419504 0.45329997 1.4547763 0.3919744 1.2114651
1.5541486 0.7342875 -0.3355968 0.2879054 0.20349951 2.1937015 0.51371115 2.0360832
1.2817452 0.49372745 1.2408606 1.5557234 0.58510184 1.0354923 1.0244799 -0.37335038
1.7730638 1.8545271 0.8397093 1.0814407 1.6931694 1.0211071 0.21547318 1.2924902
1.1162245 0.0219976 0.7460035 0.75268364 1.3269897 0.9747971 0.561341 1.3753034
1.5190996 0.61870235 1.1032026 1.8601204 1.9910622 1.1619885 1.0497159 0.26069543
0.8879449 1.3590126 1.2264107 1.4477777 0.5206752 1.0692829 1.4531269 0.99220246
-0.0846866 1.4200032 0.6289765 1.2540854 1.2291838 0.82503724 0.3257512 -0.1300825
1.391113 1.132545 0.42485607 0.70724374 0.47836402 1.4325445 1.2230141 1.0470083
1.4080588 2.6089587 1.7914835 0.0073343986 2.0374308 0.43511203 0.66599727 1.2777183
0.7564526 1.5072411 0.30395773 0.3027455 1.8124299 1.6296005 -0.17989792 0.06372778
0.63179755 0.24015966 0.78933847 1.6135995 1.3059392 0.89822876 1.778658 1.0374265
1.6670624 -0.029442798 1.274008 1.9031687 0.36059618 1.6248716 0.10570543 1.3003324
1.6912243 0.48905665 1.2894882 0.38086674 1.0869868 0.5893788 1.2795458 1.2920918
0.2753902 1.3202401 1.1084272 1.8592454 1.6911356 0.59469515 0.6906257 1.7856675
1.5150449 1.8880932 1.1038433 1.189117 0.07264846 0.30022863 1.0894403 0.49818924
1.7164979 0.9698711 1.2244555 1.065063 0.19611065 0.63603365 0.39061764 0.8187589
0.77235913 0.91517365 0.7805643 0.72923565 1.244017 1.204944 1.4110612 1.1831712
1.2348946 1.873787 1.5557505 0.99286634 1.042594 1.1021649 0.64322716 1.1939938
0.5580333 0.8717513 0.82027197 0.7643483 0.9314121 1.1670917 0.2920665 1.191439
0.07063404 1.3256577 1.4440856 0.5036167 1.2517378 0.16869453 0.49087724 1.6625096
0.84579873 1.2002294 1.1987846 1.3839028 1.5829631 1.0825123 0.9209427 0.71699804
0.84207875 0.541477 0.9719388 1.1552299 1.1039671 1.8199681 1.5827099 0.80959857
0.83755046 0.91319627 0.92898697 0.6955159 0.57710063 1.6923732 1.2091188 1.3998895
0.7516074 2.2177212 0.8360246 0.7639971 0.20543922 0.39349344 0.18863128 0.96468234
1.2394179 0.34705675 0.55355036 0.39156374 1.5494046 0.9974124 1.357914 0.41433936
0.4845466 1.2375972 0.9123109 0.3132685 0.86838317 1.3063413 0.77542186 0.7337163
0.43775818 0.82044584 1.7731051 0.83806014 1.1988108 0.47857365 0.8173013 1.5828826

fc1.bias f4 [100, 50]
00000000: 29d3 77be 7bc0 2d3f afd6 09bf 91ff 0b3f
00000010: cd73 293f 70de b23c 3de4 c53e 9587 103f
00000020: 660e 28bf c3f4 dd3e e57d bf3b bb91 2bbf
00000030: 0e55 fd3e c0c2 60be 9054 a6be a4e6 71be
00000040: ffff 633e bd45 33bf b615 4e3e 777e 5dbe
00000050: bc8a 0a3f 6910 103f 8ca7 28bf b842 ebbe
00000060: cf5e 353f 364a 55be 054b 10bf 194e 12bf
00000070: e5f6 07bf 8a17 ffbd d5b3 b23e 63f3 013c
00000080: afbf 84bd b46f 25bf 2a2e a93e f1e3 f1be
00000090: 8d89 81bd 75fd d03e c843 a4be f9a3 1a3f
000000a0: 94ca 293f 4828 3f3e be6c e23e 51df 393d
000000b0: 9988 133f 07ca 1c3f ba13 c13d 331c d8be
000000c0: 5328 c23e 4ad6 f0be c6ed 1f3f b079 c73e
000000d0: 479c 5dbe 67e3 b5be 7298 d5ba 8b78 07bf
000000e0: d279 363e 7efc f23e 64c3 c83e 02cf cf3e
000000f0: 567f 6ebe c76a 04bf 538e 8c3d 363d 023f
00000100: e8dc 17bf 24ab ac3e da0c 903d 9221 0bbf
00000110: 0ea4 fd3e c16f 8f3e 48fa 0dbf cb9c 30bf
00000120: d603 7b3e 156f dabe e93f 1fbf 6234 f1bd
00000130: b5ca 8dbe f6dc 75bd bda3 6abe d3ab 9d3d
00000140: 202a 18bf f2e9 073f afef 9b3e 0e1a 30be
00000150: eb98 2fbe 1248 e9bd 46e5 e7be 801a 853d
00000160: c25d 2b3f a109 113f a244 5a3e 923d 1a3f
00000170: 7413 163f 20a8 8b3e 7c04 2abf e71f a93e
00000180: 2331 053f 327c ee3e 19f6 1f3f e931 d03e
00000190: cf4e 82bb 0576 343f 2537 12bf cb67 223f
000001a0: 4d38 0c3f 4b31 e93e f021 5a3e 9ee1 b5be
000001b0: ebdd f03e 2892 9abe 299b 24bf ca03 f8be
000001c0: aad8 9bbd 0f1d ef3e 0a2d 9dbd 7e7a 063e
000001d0: bc5a ed3e 6c1e 47bc 29d8 a5bd a02d efbe
000001e0: 3a73 27bf 5fb5 823e b8d2 f03d 1320 393f
000001f0: 2d13 0e3d 2d75 d4be c946 a9bd af52 133d
00000200: fec4 c2be 0989 81be 9ecd cf3e 062e e03d
00000210: 3439 9dbe 85ce 8cbd 84c9 243f 6a5d 1cbf
00000220: 6114 d93e e6d5 323e cbc0 15be 97d4 3a3f
00000230: 4986 17bf ecdf ee3e 4d80 1e3f 8e1a c1be
00000240: 454d 14bf 5ad8 bf3e aed5 193f c6a2 25bf
00000250: ecc2 773e 5014 2c3f 8bc8 5c3e 3625 333f
00000260: 088f 1dbf fb66 25bf 6b14 1bbc 75db 243f
00000270: 07ef 94be ff87 b63e f3f3 d43e 69b4 f23d
00000280: c579 863e a607 11bf 522f d0be a0ee 023f
00000290: 1d43 d4be 661d e0bd 1f4a e43d 8db0 bd3e
000002a0: c513 3b3e 40c0 183f 47d7 133f cf25 953e
000002b0: 2cd5 dbbe 0499 d3bd 3145 c7be 034d 87be
000002c0: efb6 3b3e fced 193e d563 f43d 0c25 5ebe
000002d0: a589 24bf 3961 29bf e5f6 823e e4eb 183f
000002e0: 488c d1bd f364 12bf d69c 0a3f 47cf a6ba
000002f0: 3577 55be 32c0 aa3e 9cc8 17bf 3a9b a93d
00000300: 819f 213f 6bef 1cbf db9f e03e 3c07 dc3e
00000310: 525e cd3e a68e b4bc 031e 0fbf 9739 c7bd
00000320: d3b5 e93e cc5d 0c3f 13ff d43e 0edc 2f3f
00000330: 05a3 013e 51da 8abe 455f e2bd aa21 0e3f
00000340: 25f9 14bf b39a 7dbe ac8f ccbd 91ee e23e
00000350: 44fb 8cbd 7307 173f 329f 83be 7718 cb3e
00000360: 6cf9 fabe f7c6 bdbe 4d71 143e 8992 563d
00000370: e888 d7be 3bc0 d13e af85 d9be 1b36 d9bd
00000380: f866 bcbe 9230 c0be a0ca 383f 83a1 923e
00000390: 4217 033e ffa5 e8be 0080 6cbe 775b 1e3f
000003a0: 4615 94be 9a57 793e becc 02bf dc22 59be
000003b0: 42c5 1d3e 6683 3cbd 10ec 0b3f 2a5f 2b3f
000003c0: 2a31 c8be 1af7 133f 9850 04bf c426 b2bd
000003d0: 77ed 0d3f ae9b 843c 18e9 0d3f fb0d 27be
000003e0: e9d6 653e 3fcd df3e cc81 32be a417 783e
000003f0: 5bd4 a83e 4264 11bf 9b08 82be dd89 823c
-0.24201645 0.67871827 -0.53843206 0.5468684 0.6619232 0.021834582 0.38650694 0.5645688
-0.6564697 0.433508 0.005843865 -0.6701924 0.49478954 -0.21949291 -0.3248639 -0.23623139
0.22265624 -0.7002829 0.2012547 -0.21630274 0.5411794 0.5627504 -0.65880656 -0.4594934
0.7084779 -0.2082909 -0.5636447 -0.5715042 -0.53111106 -0.124556616 0.34902826 0.007931563
-0.06481873 -0.6462357 0.33043033 -0.47244218 -0.06325064 0.40818372 -0.32082963 0.6040645
0.66324735 0.1866771 0.4422359 0.045378987 0.57630306 0.6124577 0.09427591 -0.42209014
0.3792139 -0.4703849 0.6247219 0.38960028 -0.21641646 -0.35525057 -0.0016296043 -0.5291831
0.17819908 0.4745826 0.3921157 0.40587622 -0.23290762 -0.5172543 0.06863084 0.5087465
-0.5932145 0.3372432 0.07033701 -0.543481 0.49539226 0.2801495 -0.55460024 -0.6898925
0.24513182 -0.42662874 -0.62206894 -0.11777569 -0.27693716 -0.060025178 -0.22914024 0.076987885
-0.5943928 0.5309135 0.30456302 -0.17197439 -0.17148177 -0.113906994 -0.4529211 0.06499195
0.6693994 0.5665532 0.21315244 0.602502 0.58623433 0.27276707 -0.6641309 0.33032152
0.520281 0.46579129 0.6248489 0.40663078 -0.00397668 0.70492584 -0.57115394 0.63439626
0.5477341 0.4554542 0.21302009 -0.35523695 0.4704431 -0.30189633 -0.64299256 -0.4844039
-0.07609685 0.46701857 -0.07674606 0.13132665 0.46358287 -0.012153249 -0.0809787 -0.46714497
-0.65410197 0.25529 0.117589414 0.72314566 0.034686256 -0.41495648 -0.08265454 0.035967525
-0.38040918 -0.25299862 0.4058656 0.10946278 -0.30707705 -0.06875328 0.6436999 -0.6108004
0.4239836 0.17464408 -0.14624326 0.72980636 -0.5918928 0.46655214 0.6191452 -0.37715572
-0.57930404 0.3746975 0.60091674 -0.647015 0.2419545 0.67218494 0.21560876 0.69978654
-0.61546373 -0.6461026 -0.009465317 0.64397365 -0.29088613 0.35650632 0.41592368 0.11850817
0.26264778 -0.56652296 -0.40661103 0.5114536 -0.41457453 -0.10943107 0.1114695 0.3704876
0.1826926 0.5966835 0.5775036 0.29130408 -0.42936075 -0.1033192 -0.38919976 -0.26425943
0.18331502 0.1503219 0.11933104 -0.2169382 -0.6427253 -0.66163975 0.2557899 0.5973494
-0.10231835 -0.57185286 0.5414556 -0.0012726568 -0.20846255 0.33349758 -0.5929048 0.0828156
0.6313401 -0.6130282 0.4387196 0.4297427 0.40111023 -0.022040676 -0.5590517 -0.09727781
0.45646533 0.5483062 0.41600856 0.6869515 0.12659843 -0.27119687 -0.110533275 0.5552012
-0.58192664 -0.24766044 -0.09988341 0.44322637 -0.068838626 0.5899574 -0.25707394 0.39667103
-0.4901842 -0.3706586 0.14496346 0.05238584 -0.4209664 0.40966973 -0.42484805 -0.10606023
-0.3679731 -0.37537056 0.7218418 0.2863885 0.12801841 -0.45439145 -0.23095703 0.61858314
-0.2892248 0.24349824 -0.5109366 -0.21204704 0.15407279 -0.04602375 0.5465708 0.66942084
-0.3910001 0.5779892 -0.51685476 -0.086988 0.5544047 0.016187515 0.554338 -0.16313927
0.22445263 0.43711278 -0.17432326 0.24227768 0.32974514 -0.56793606 -0.2539719 0.015934879

fc1.linear.weight f4 [50, 2]
00000000: 06c6 00bf 9b66 293f ed22 013f 2d05 0ebf
00000010: 7413 22bf 7b60 933e b246 433e 10dc 913e
00000020: 56cf 08bf 04fb e93d f6e3 023d 8047 16bf
00000030: 5a9a 053f 35d3 c13e 62a0 983d 1376 8abd
00000040: 3aa1 23bf 84e2 8a3d d2ff 253d f492 bf3e
00000050: 6c98 24bf be8c f5be ea39 313c d4b2 cfbe
00000060: 3077 9a3e 7d9d 2b3e fa1a 3cbe 9ed8 a33e
00000070: 7d76 23bf fc02 9f3d de45 0c3f ed30 38bd
00000080: d8c4 1cbf 3553 83be e7ad babc 5eb1 6e3e
00000090: 0c54 0f3e a430 0b3f ef93 d6bd 3a71 f2be
000000a0: d72f cfbe 2d29 c9be 1c0c 71be 4ac3 273f
000000b0: f055 313e 9587 0b3f 8f39 f6bc 7f99 1a3f
000000c0: b0a0 2dbf 8bbc d53d d586 3a3c 7775 f23e
000000d0: eae8 903e 34c4 0abf d4bf dcbd f36e d43e
000000e0: 9a2d 863e 3a4e b63e c91f 113f 370d 21bd
000000f0: b768 b4be 6682 20bf 5e11 293f 0e5c 1d3d
00000100: 985e 713e 64c7 20bf db25 1ebe 443c cebd
00000110: e73f 243f d6df c9be 977c 403d 36a4 26bf
00000120: 6a73 c2be 4fba ae3e 941f 0bbe 9c68 043f
00000130: 0bcc 123f a812 f83e 8dbc 24bf 9ec3 113e
00000140: c4f1 d1be cc53 28bf f9f0 f6bd 933e 38be
00000150: 82c3 a8be 18c7 39be 27d4 b53e 5526 293e
00000160: 46d5 d1be a4f0 16bf 0e09 be3d b754 07bf
00000170: c0bb b4bd 0478 1a3f 9f15 f13e b62d 463e
00000180: 18e0 213f cc84 0d3e f4ae b63c 8789 b4be
-0.5030216 0.6617219 0.5044392 -0.5547665 -0.63310933 0.28784546 0.19069937 0.28488207
-0.5344137 0.114248306 0.03195568 -0.5870285 0.52188647 0.3785645 0.074524656 -0.06760802
-0.6391789 0.06781486 0.040527172 0.37416804 -0.6429508 -0.4795894 0.01081703 -0.40566123
0.30169058 0.16759296 -0.18369666 0.32001203 -0.63852674 0.07764241 0.5479411 -0.044968534
-0.6123786 -0.2564942 -0.022788001 0.23309848 0.13996905 0.54371095 -0.10477435 -0.4735201
-0.40466186 -0.39289227 -0.23539776 0.6553236 0.17317939 0.54503757 -0.030056743 0.60390466
-0.67823315 0.10436352 0.0113846855 0.47355244 0.283027 -0.5420563 -0.10778776 0.41490898
0.26206666 0.35606557 0.56689125 -0.039319243 -0.3523614 -0.6269897 0.66042125 0.03841787
0.23571241 -0.62804246 -0.15444128 -0.100700885 0.6416001 -0.39428586 0.046993818 -0.65094316
-0.3797868 0.34126517 -0.13586265 0.5172212 0.57342595 0.48451734 -0.64350206 0.14234778
-0.41004765 -0.65752864 -0.12057681 -0.1799262 -0.3296166 -0.18142354 0.35513422 0.16518529
-0.40983027 -0.5896094 0.09279071 -0.5286364 -0.08824873 0.6033938 0.47086808 0.19353375
0.63232565 0.13820189 0.022300221 -0.35261175

fc2.r_group f4 [100, 3, 50]
00000000: b2ae 463f 11c6 1b3f 389d 883f 2342 2d3f
00000010: 057c 9f3f 96b7 b83f 441b a73f e670 d53b
00000020: 7af8 5c3f dff5 933f 6041 e93f c57c 713e
00000030: 45bd eb3f fdf8 043f 1350 903f c966 6f3f
00000040: a8b9 803f b941 a03f b5d5 cb3f eb00 bf3f
00000050: 443d 6a3e c9da 813f 4a80 ce3f 6020 cf3e
00000060: d32c 943f e130 2d3f 8edc b13f 573e f4bc
00000070: 5228 db3f 24fc 953f f7dc bc3e c2b8 573f
00000080: efc2 cf3f 53c9 b03d 7c61 be3f c118 a93f
00000090: b9ec 873f 58c8 0f3f f29e 5d3b 1f5b ae3f
000000a0: 1fb6 903f ef73 433f 67d9 0a3e 9322 bc3f
000000b0: 1621 dc3f ac67 613f 3bb3 ba3f d608 023f
000000c0: 13b7 aa3f 9280 b53f cf4f 0e3f 168a 523f
000000d0: 0496 a53f b1c1 583f b358 a93f 6bce a13f
000000e0: 1411 203f 082b e33f 4d3f 153f 8a95 6e3f
000000f0: bf62 453f da3f a63f a54a 1d3f 4ebf 1b3f
00000100: bd9b 443f 4333 f63c 63a0 b33f be53 f43f
00000110: e0d0 8f3f 97ca 4d3f 7ac1 863f ef62 9e3f
00000120: c097 883f befc a93f c43e 403f 9aa0 b73f
00000130: e282 ae3f 614b 2a3f 4435 883f 968e 633f
00000140: 707f 513f 29ca ce3f 635b e03e e5c4 0a40
00000150: 1f6e c93f 4689 983f 63ea 983f 0187 a73f
00000160: 729e 543f 0cea 863f ce3d 753f 3e86 ad3f
00000170: 0736 9c3f b55d 9e3f 43fb ad3f f820 c83f
00000180: 5649 ef3e 8181 593f 9376 7c3f 33d6 033f
00000190: 46e6 a73e 7f32 a63f 8c4b af3f 5948 0c40
000001a0: 354d ad3f 4db4 303f 83ac 7c3f 4456 4b3f
000001b0: de6a 1b3f e3f4 6a3f 1335 a23f fe71 1140
000001c0: ab58 4b3f aa0f 8d3f e9e1 c23e 90a8 f13f
000001d0: 5602 d73f ac77 883f 370a ae3f 4374 2e3f
000001e0: aec8 6d3f 0a08 e63f 623f 1b3f 4353 ea3f
000001f0: a1c0 3d3f b002 6c3f 611c 893f 6b9e db3e
00000200: 2d69 3c3f 66b8 fc3e bd14 943f 0cd7 4d3f
00000210: fa35 d83f 9fb5 023f f900 0940 e205 a83f
00000220: dea0 8c3f 816e da3e 0897 4f3f 59f7 a93f
00000230: f28c 763f 7d30 4e3f 8693 be3f 83d4 283f
00000240: 0552 ca3e 60d3 763f 5ff9 ba3f 67e5 253f
00000250: cb6d 8f3f cf0b 843f 59b3 9f3f 3977 a83f
00000260: 0962 b23f 1a9e 2540 6c03 e73e 68d5 ee3f
00000270: 12da bb3f 1480 853f 95a4 ab3f d65c 823f
00000280: 41e8 8b3f fbc3 403f c661 5a3f a5ac cb3f
00000290: 1617 b33e 5af8 943f fa1f 073f 641b da3f
000002a0: 192d e43f 216e 853f fb0e 0540 767f 773f
000002b0: 55e9 633f f95b d43f 3349 533f 5708 8e3f
000002c0: fa7f 1e3f 616a 7f3f 0835 dc3f 9d7d 3b3f
000002d0: fbb9 903e 18a9 d13e 7a8a 6f3f 3924 bd3f
000002e0: b490 b03f a5c8 673f 9858 9f3f 2f11 d23e
000002f0: a6a6 3e3f af66 d03f 1c77 ea3f ddf1 da3f
00000300: e768 9b3f 2c61 c83f dc8c 47bd f9ff b73f
00000310: 2e50 85be f001 783f 1569 333e 7cbb e73f
00000320: 884c c23f 1fea 1c3f 8b2e 9b3f 1093 723e
00000330: 1ad1 5b3f 9acd 8c3f a3b2 f03f 9e07 cb3f
00000340: cff2 de3f e9a5 b3bd f190 e53f eb49 b93f
00000350: 1e7a 7d3f a5f8 163d 8988 993f 9270 b33f
00000360: b739 4e3f 2424 a33f b492 323e 6075 c13f
00000370: ba1b 7c3f 4844 f03a 208b 003f ae50 df3e
00000380: b26b 133f e299 813f 8f72 8f3d e960 0740
00000390: 06a5 df3f 3917 423f c0a0 0440 28aa e43f
000003a0: ba17 523f 8cf5 243f 8630 193f 41d3 563f
000003b0: 931d 793f d9a4 803f 6ad7 913f af49 b03f
000003c0: 56a6 903f 6b90 a63f 3c38 943d 3666 783f
000003d0: 625c b63f 47ba 633f 4307 4e3e a467 a53f
000003e0: 7000 6c3f afc4 6c3f 8ecd ba3f 0d9b 823f
000003f0: 92d4 ca3f 1d6a 673f fd18 323f e3c8 c43e
0.77610314 0.608491 1.0672979 0.6767904 1.2459723 1.4431026 1.3055196 0.0065137027
0.86316645 1.1559409 1.8223076 0.23582752 1.8417135 0.51942426 1.1274437 0.9351621
1.0056658 1.2520057 1.5924593 1.4922155 0.22874933 1.0144893 1.6132901 0.40454388
1.1576179 0.6765271 1.3895433 -0.029814882 1.712168 1.1717572 0.36887333 0.84266293
1.6231364 0.086321495 1.48735 1.3210679 1.0619117 0.56165075 0.0033816663 1.3621558
1.1305579 0.76348776 0.13559495 1.4698051 1.7197597 0.88048816 1.4585947 0.5079473
1.333712 1.4179862 0.5559053 0.8224195 1.2936406 0.8467055 1.3230194 1.2641119
0.6252606 1.7747507 0.58299714 0.9319693 0.771038 1.2988236 0.61442024 0.6083878
0.7680014 0.03005374 1.4033321 1.9088056 1.1235619 0.8038725 1.0527794 1.2373942
1.067131 1.3280256 0.7509577 1.4345887 1.3633692 0.6652127 1.0641255 0.88889444
0.8183508 1.6155444 0.43819723 2.1682675 1.5736731 1.1916893 1.1946529 1.3088075
0.8305427 1.0540175 0.9579743 1.3556592 1.2203988 1.2372347 1.3592304 1.5635061
0.46735638 0.8496323 0.9861843 0.5149872 0.32792872 1.298416 1.369493 2.1919158
1.3539187 0.6902512 0.9870073 0.79428506 0.6070994 0.9177992 1.2672447 2.2725825
0.7943217 1.1020405 0.3806298 1.8879566 1.6797588 1.0661521 1.3596867 0.6814615
0.9288434 1.7971203 0.6064359 1.830666 0.74122053 0.921916 1.0711786 0.428943
0.73597986 0.49359435 1.1568829 0.8040626 1.6891472 0.5105838 2.1406844 1.3126795
1.0986593 0.42662433 0.8108983 1.327861 0.96308815 0.8054274 1.488877 0.6594927
0.395157 0.9641628 1.4607352 0.64803165 1.1205381 1.0316104 1.2476608 1.3161384
1.3936168 2.5877748 0.45119798 1.8658876 1.4675925 1.0429711 1.3409601 1.0184581
1.0930253 0.7529904 0.8530544 1.5912062 0.3497855 1.1638291 0.5278317 1.7039609
1.7826263 1.0424234 2.0790393 0.96678865 0.8902791 1.6590568 0.8253357 1.1096295
0.61914027 0.99771696 1.7203684 0.73238546 0.28266892 0.4094932 0.93570673 1.4776679
1.379416 0.90540534 1.2448912 0.41028735 0.74473035 1.6281337 1.8317599 1.7105061
1.2141389 1.5654655 -0.04871832 1.4374992 -0.26037735 0.96877956 0.17520554 1.8104091
1.5179605 0.6129474 1.2123579 0.23688912 0.8586594 1.1000245 1.8804516 1.58617
1.7417849 -0.08771879 1.7934858 1.4475683 0.9901446 0.03685822 1.1994792 1.4018729
0.80556816 1.2745404 0.17438775 1.5113945 0.9847981 0.0018330896 0.5021229 0.4361624
0.57586205 1.0125086 0.07004272 2.11529 1.7472236 0.75816685 2.0723114 1.7864428
0.82067454 0.64437175 0.59839666 0.839161 0.9731075 1.0050308 1.1393864 1.3772486
1.1300762 1.3012823 0.07237288 0.9703096 1.4246943 0.8895611 0.20119958 1.2922254
0.9218817 0.92487615 1.459398 1.0203568 1.5846121 0.9039629 0.6956938 0.38434514

fc2.s_group f4 [100, 3, 5]
00000000: c2d5 753e ea02 b23f d356 f83e 1e2b ab3f
00000010: 016b 203f d4ef fe3f 4844 a73f 0b6e f63e
00000020: 87fc ae3f 4848 4c3f 8c35 363f 99e0 d33f
00000030: d1d3 cd3f cc74 883f 05d5 8d3f d798 473f
00000040: 5da7 b73f 199b 873f 78c1 2b3f 563d 733d
00000050: d70b 843f 29e5 343f aba7 573f af84 5a3f
00000060: 24c6 0c3d 7f1d a93f 81de 683f 9309 8b3f
00000070: a049 bc3f 8668 c03f 244f 993f 6acf 9c3f
00000080: 4d28 3b3f e557 863e 9cf7 de3e a530 1b3f
00000090: c20c f13f 032c 853f f530 1b3f a5f5 a43f
000000a0: 48f4 613f 508b f13f ab70 1e3f d92f 1e3f
000000b0: 0b9c cf3e 4f87 e13e 8524 893f fcaa b73f
000000c0: 31ed 083f 80f5 133f 5364 a53f 4315 d23e
000000d0: c84a 733f 42f4 633f 5aeb 963f d6ae 7b3e
000000e0: 786f a63f b45f c33f 3b83 cd3f 10a8 1b3f
000000f0: eaed fa3e 64de c63f d3c2 913f d2fa df3e
00000100: 7801 843f 1483 a73f 9314 bc3f 7a59 803f
00000110: a786 fe3d 7aad 463f 5198 b03e 644e ed3e
00000120: 2e46 7e3f 4859 ce3f be8f b33f 42c0 d73f
00000130: 67ad b43f 7b3c fc3f bda9 973f 72c0 803f
00000140: f9ea 8e3f 7628 0b40 8a34 773f d34a 8e3f
00000150: 1b2b 963f 6798 bc3f b334 803f de50 763f
00000160: 1ac3 7f3f 5695 3f3f f8aa a03e 6bef 103f
00000170: eaa6 ed3f 327f 8f3f 260d 1a3f 66e1 42be
00000180: a240 a93f 7a4c a73f cc49 4e3f af5a d43f
00000190: 035a 9b3f 0f83 543f fbef 4dbe d350 8e3f
000001a0: f578 853f a538 d83f a79e 9c3f 78ca fa3e
000001b0: d922 d03f f720 7b3f 0720 9f3e 7964 643f
000001c0: b149 a23f afd7 9d3f fea4 c23f 45ee 863f
000001d0: 33f8 e73f 9fed c93f c126 013f 4cfc 3e3e
000001e0: 0002 9a3f 0caa 1a3f 708b f93f 6f97 d83f
000001f0: d85b 973f 40aa 9e3f 69b2 8c3f b448 593f
00000200: cdf8 ba3f 8b09 a23f cac0 f33e b2ea 813f
00000210: 7232 8d3f 9724 a83f 1047 363f f8ae 283f
00000220: 5679 9c3f f6c3 963f 7b1f 343f aff3 913f
00000230: 41b9 5e3f 16aa a83e 9f3a 363f 04a7 a63f
00000240: 718b dd3e be9f e13f e5b6 1d3f 719f 363e
00000250: b87c 8a3f c9c4 aa3f 5e8f 1b3f d255 f63f
00000260: c0a6 653f 3e1b 993f b0ef a33f 1e78 8e3f
00000270: c5c9 413f fcd2 0f3e 1c94 783e 8510 7b3e
00000280: ac46 5f3f bdd7 a13f 63f5 103f a546 903f
00000290: deb9 af3f 0c41 d53f 13ae 803f 4949 bc3e
000002a0: 471e a63f 7e26 7dbd f7d5 a53f 2996 d63f
000002b0: 7e9c 7a3f dabc 2fbe a0fe 0f3e af63 f93f
000002c0: 01f1 8c3f 3de4 3e3f 5570 9e3e 696b 353f
000002d0: 80b6 993f 5ee4 223f 6e33 1d3f 6d5b 233f
000002e0: dfaf 6d3f c196 643f 3477 9f3f 437f ff3f
000002f0: 19d5 3d3f 85cb 573f 11cc 853f b3fe 4c3f
00000300: e571 e23f 6c21 133f c4fd bc3f 09b8 6f3f
00000310: 8229 b83f e645 41ba 91a9 723f 0a77 c23f
00000320: 6072 873f 1473 633f c075 69bf e644 b23e
00000330: 942f 0b3f 9610 c73f 2407 943f 043a 683f
00000340: 99ca 353f 3378 753f b879 d23f fb13 953f
00000350: c583 853f 4769 9c3f c658 fe3e 1cf5 a53f
00000360: d35c dd3f 7714 733f edc4 893f d6c7 cb3f
00000370: e646 033f ebb8 733f e8fe 2d3f 4097 a13f
00000380: e3ce 093f d512 8b3e 3765 e63f 2fb5 953f
00000390: 33e4 8b3f 9b00 543f 5e9a 993f 7e18 bf3f
000003a0: 760c a43f 4701 dc3f 3ab9 e53f 66ab 9a3f
000003b0: ba40 ae3f 978d 793f 6623 dc3f 6cc9 743f
000003c0: a9f6 793f cc59 393f 5a10 733f 2168 d13f
000003d0: 8e63 e83e 42cd 763f 08be 783f a567 3dbe
000003e0: b114 493f 9434 233f 640e 553f 7f93 9d3f
000003f0: 634b f53d 713c 2f3f dde4 753f 011a cf3e
0.24007323 1.3907139 0.48503742 1.3372533 0.62663275 1.991694 1.3067713 0.4813083
1.3670815 0.7979779 0.71175456 1.6552917 1.6080266 1.0660644 1.1080633 0.7796759
1.434795 1.0594207 0.67092085 0.059384666 1.0316113 0.7066217 0.84240216 0.8535871
0.03436865 1.3212126 0.90964514 1.0862297 1.4709969 1.5031898 1.1977277 1.2250798
0.7310837 0.26238933 0.43548286 0.606211 1.8832018 1.0404056 0.6062158 1.2887465
0.8826337 1.887064 0.6189067 0.6179176 0.4054874 0.44048545 1.071427 1.4349055
0.53486925 0.5779648 1.2921242 0.41031846 0.9503598 0.8904458 1.1790574 0.24578413
1.3002768 1.5263581 1.6055673 0.6080332 0.4900964 1.5536618 1.1387581 0.43746048
1.0312948 1.3086877 1.4693779 1.0027306 0.12428027 0.77608454 0.34491208 0.4634887
0.99325836 1.6120996 1.4028242 1.6855547 1.4115418 1.9705957 1.1848675 1.005873
1.1165458 2.1743445 0.96564543 1.1116585 1.1731905 1.473401 1.0016083 0.96217144
0.99907076 0.74837244 0.3138044 0.5661532 1.8566563 1.1210692 0.6017631 -0.19031295
1.3222849 1.3070214 0.80581355 1.6590174 1.2136844 0.8301248 -0.20111077 1.1118416
1.0427538 1.6892287 1.2235917 0.48982596 1.6260635 0.98097175 0.31079122 0.8921581
1.2678739 1.2331446 1.5206602 1.0541464 1.8122619 1.5775641 0.5044976 0.18650931
1.203186 0.6041572 1.9495678 1.6921214 1.1824903 1.2395706 1.0991946 0.8487656
1.4607178 1.2659162 0.47608024 1.0149748 1.103102 1.3136166 0.7120218 0.6589198
1.2224529 1.1778553 0.70360535 1.1402491 0.87001425 0.32942265 0.711832 1.3019719
0.43270448 1.7626874 0.616072 0.1783426 1.0819311 1.3341304 0.60765636 1.924494
0.89707565 1.1961439 1.2807522 1.1130407 0.756985 0.14045328 0.24275249 0.2451802
0.8721721 1.2643963 0.5662443 1.1271559 1.3728597 1.6660476 1.0053123 0.36774662
1.297799 -0.061804287 1.2955922 1.6764575 0.9789504 -0.17161885 0.14061975 1.9483546
1.1011049 0.74567014 0.30945078 0.7086702 1.200882 0.6362971 0.614066 0.6381138
0.92846483 0.8929253 1.2458253 1.9960712 0.74153286 0.8429492 1.0452901 0.8007614
1.7691008 0.5747287 1.4764943 0.9364019 1.4387667 -0.00073727814 0.9478999 1.5192578
1.058178 0.8884747 -0.911953 0.3481819 0.54369473 1.5551937 1.1564679 0.90713525
0.71012264 0.95886534 1.6443396 1.1646723 1.0430838 1.2219628 0.49677104 1.2965426
1.7293953 0.949531 1.0763222 1.592036 0.5128006 0.9520404 0.6796708 1.2624283
0.5383131 0.27162805 1.7999638 1.1695918 1.0929016 0.82813424 1.2000234 1.492935
1.2816303 1.718789 1.7947152 1.2083557 1.3613503 0.97481674 1.7198303 0.95619845
0.97642 0.72402644 0.94946826 1.6359903 0.45388454 0.9640695 0.97164965 -0.18496569
0.785472 0.637521 0.83225083 1.2310637 0.119772695 0.684516 0.9605234 0.40449527

fc2.bias f4 [100, 5]
00000000: e2d0 9dbd fc27 af3d ed54 393e acd6 b73c
00000010: 7d46 d9bd 6475 61bc 2f1e 33bd 5343 0b3d
00000020: 0db2 d9bd 6535 86bd d9c1 793d 1bf5 f43d
00000030: b6fb cf3d bb38 893c 5bac d4bd b2e7 0f3e
00000040: 545a b3bd 72b2 323c 91d4 6c3d cef7 17be
00000050: 6b30 0a3e 2517 59bc 86f6 ebbb 97d7 bfbd
00000060: d3a0 553d a313 323e 1def 4dbc 962f eebd
00000070: 4e04 723c 706f f6bc 7d18 1e3e bf23 3cbc
00000080: 978d e13d 2b7c 30bd 54a5 b5bc 550c 0b3e
00000090: 98e7 2f3c 4dd3 603d eeb1 ac3d de40 2bbe
000000a0: be66 903d efdc ee3d c573 c8bd 8612 c1bd
000000b0: e839 d73c d2f5 24bc 3719 993c 06d3 b0bd
000000c0: ada5 713d 4234 053e 5258 d5bd 642e b2bd
000000d0: 6082 fdba c7ab 933d 49a3 493d 3fbd 953c
000000e0: 55b9 c7bd 453f 56bb d99f c4bd 725d 803d
000000f0: 9351 8a3c 1e6f 233e 60fb ef3d dbf2 00be
00000100: f8be bdbd c623 453d 3c5b dcbd af9d 703d
00000110: 3279 1ebe ce0c 653d 470a e93d cc7e 4fbd
00000120: 7730 99bb 216f 55bc 8d64 a6bc dc46 f9bc
00000130: 89be aa3c 1362 62bd d857 163d c050 cbbd
00000140: 313a e6bd aee7 c83d b3b9 0dbd 89eb 81bc
00000150: 47ec 18bd 5324 75bd 3c6d 91bd 4788 a83d
00000160: 2739 c93c 5e3f 67bc f6c5 f73d bda8 0f3e
00000170: 344a 4b3c 5704 2f3d 9e10 f33d 4840 883d
00000180: aa17 20bd d792 513d bcc4 dd3c d290 c63d
00000190: 7d63 51bd f3cc 84bd dc95 c83d eb1a bdbd
000001a0: 7568 2ebd ceac f6bd d9e1 a53d 7a88 023e
000001b0: afff a9bd 92e1 03be 025f e53d 9140 a3bd
000001c0: c8ec efbd 5c71 b3bd 5048 6c3b f38c 1a3e
000001d0: 61cf 013e 5081 ab3d 8681 31bd 2830 08be
000001e0: 2afc ad3c 3fc2 b73d 4bcb 813d 3401 a43d
000001f0: 7eff 013e c8d3 f0bc f476 183e e2f5 99bd
00000200: 099f 90bd 1601 53bb 2586 b1bd 0398 6c3d
00000210: c39b 733d 2ab9 2d3e ff94 85bd 7414 5b3d
00000220: 7cfa 6e3d 8751 e43d dc45 13be 9e1b 223c
00000230: 31fd 873d 7ad2 06bd 0142 76bd 54c1 ac3d
00000240: 14be 243d dc0b 4fbe 8d09 5a3d 6f04 41bd
00000250: 2529 8abd a647 c23d b0af 5e3d eb31 b83d
00000260: 844a e93d ad2f cabd d83f 72bd db51 babb
00000270: 6615 82bd b09e fdbd ba24 ebbd 5c4c 3bbc
00000280: b15b f73d a635 f33d 1a6e 6e3c 9d78 84bd
00000290: 9b82 cabc 68e8 fcbd a793 023e 57de cb3c
000002a0: dd97 e53d 38c6 e83d e0eb 98bd 349d 98bd
000002b0: 3091 233b ac13 78bc 82cc bcba 8c71 e13d
000002c0: 5975 7fbd 23bd b1bd 8a0e 4a3d 2702 b93a
000002d0: 7d4e 973c b167 82bc 6ba1 503d fb69 c2bd
000002e0: 7875 10be dd9c 0c3e afc5 04bd db5e 053d
000002f0: ff25 66bd 945f 1ebd d5d0 ccbd e6aa e83c
00000300: f9ae cdbd d15f d9bd 4483 63bc d843 9e3d
00000310: efbb 3d3e df87 49bd 611e 773d 1115 213e
00000320: 77d9 ca3d f9b4 dabc 6923 bd3d 1971 db3d
00000330: ac66 843d b197 febc 8354 b83d 9d5b 4a3e
00000340: 4bbf 11bd 1899 e03c 6910 ba3b 1bde 333e
00000350: 0a60 cc3d d9b3 c4ba 8708 1cbe 8c40 973d
00000360: 3a35 043e 2096 11bb 508e 0d3e 8811 f93c
00000370: be0e ee3d bf47 c63d 8db1 e53d af27 b23d
00000380: d5ae 963c 55b6 ddbc 1ae5 b43d 501f 08be
00000390: 9e78 f6bd 1be0 9d3d 0c13 0f3b 2ebc 05be
000003a0: 0387 6f3d 8297 7abd cf8c b3bd df18 86bd
000003b0: be5f 9cbd 432f 953c 4679 d1bc 242b 213e
000003c0: cce7 d93d 077f cabd a803 883d 18f7 c1bd
000003d0: 8025 85bd 6e8a f33c a0e0 1e3d addf 17be
000003e0: bf59 e3bd c8f4 f23d c36f 4f3d 4cdd 4d3c
000003f0: 2ea5 43be e0bb 78bc 003f fb3d 92aa 913c
-0.07705857 0.08552548 0.18098803 0.02244123 -0.10609148 -0.013760898 -0.043729957 0.033999752
-0.106296636 -0.06553153 0.060975883 0.11960813 0.10155432 0.016750684 -0.10384437 0.14053228
-0.08757463 0.0109068025 0.057819907 -0.14840624 0.13495032 -0.013250147 -0.0072010187 -0.093672924
0.052155327 0.17390303 -0.012569216 -0.1163017 0.014771534 -0.030082434 0.15439029 -0.011483132
0.11013334 -0.043087166 -0.022173561 0.13578923 0.010736369 0.054889012 0.08432375 -0.16723964
0.070508465 0.116632335 -0.09787706 -0.09427361 0.026272729 -0.010068374 0.018688781 -0.086339995
0.05899589 0.13008216 -0.104172364 -0.087002546 -0.0019341223 0.07210498 0.049227986 0.018278716
-0.09752146 -0.003269152 -0.09600801 0.06267823 0.0168846 0.15960357 0.11717868 -0.12592642
-0.0926494 0.04812982 -0.10759589 0.05874413 -0.1547592 0.055920415 0.113789134 -0.050658032
-0.004674967 -0.0130269835 -0.020311618 -0.030429296 0.020842807 -0.055269312 0.036704868 -0.09927511
-0.11241568 0.098098144 -0.034600925 -0.015859382 -0.037334707 -0.059849095 -0.07100913 0.08229118
0.024563385 -0.014114229 0.12098305 0.14029212 0.012407828 0.04272875 0.11868404 0.06652886
-0.039085068 0.051165428 0.02707135 0.09695591 -0.05112027 -0.064844035 0.097942084 -0.0923365
-0.042580087 -0.12044679 0.08099718 0.12747374 -0.08300721 -0.12879017 0.11199762 -0.079712994
-0.11715084 -0.08761856 0.0036053844 0.1509283 0.12676765 0.08374274 -0.043336414 -0.1329962
0.021238405 0.089725964 0.06337603 0.08008042 0.12695119 -0.02939786 0.14889127 -0.075176015
-0.070615835 -0.0032196692 -0.08668164 0.057762157 0.059474718 0.16965166 -0.065225594 0.053486302
0.05834435 0.111483626 -0.14382118 0.00989428 0.06640089 -0.03291557 -0.06012154 0.08435312
0.040220335 -0.20219368 0.053231765 -0.04712337 -0.06746129 0.09486322 0.054366767 0.08993896
0.11391166 -0.09872375 -0.059142917 -0.0056860275 -0.06351738 -0.12383783 -0.114816144 -0.01143178
0.120780356 0.11875467 0.014552617 -0.06468318 -0.02472048 -0.123490155 0.12751637 0.024886293
0.11210606 0.11365932 -0.074668646 -0.07451859 0.0024958365 -0.015141409 -0.001440421 0.110079855
-0.06236777 -0.08678653 0.04933027 0.0014115021 0.018470043 -0.015918585 0.05093519 -0.094928704
-0.14107311 0.13731714 -0.03241509 0.032561164 -0.05618858 -0.03866537 -0.10000769 0.028401803
-0.10043139 -0.10613979 -0.013886277 0.07727784 0.18528722 -0.049201842 0.060331706 0.15730692
0.099047594 -0.026697623 0.092352696 0.10714931 0.064648956 -0.031078191 0.09000494 0.1976151
-0.03558282 0.02741675 0.005678226 0.17565195 0.099792555 -0.0015007212 -0.15237628 0.07385358
0.1291093 -0.0022214726 0.13823819 0.030403867 0.116239056 0.09681653 0.11215506 0.08698975
0.018393913 -0.027064482 0.0883276 -0.13293195 -0.12034725 0.0770876 0.0021831421 -0.13060066
0.058478367 -0.061179645 -0.087670915 -0.065477125 -0.07635449 0.018211013 -0.025570523 0.15739113
0.10639915 -0.0988751 0.066413224 -0.094709575 -0.06501293 0.029729094 0.038788438 -0.1483142
-0.11101102 0.118630946 0.050643694 0.012564968 -0.1910598 -0.015181512 0.12267876 0.01778153

fc2.linear.weight f4 [5, 50]
00000000: a45f babd a26a 603c 1d4a 853d 0801 983d
00000010: dfaf d83b b99d c93b 8a72 99bd 9344 a8bd
00000020: 8f0f e4bd f218 ed3d b0a9 91bd 831b 273d
00000030: dda4 eb3d ab76 42bd 5c9c f0bc 065c e8bc
00000040: da2c 373d 48c4 f73d 062c cebd ffb1 703d
00000050: 0f65 22be d433 debd c53e 90bd 69a8 013e
00000060: 0f4d 3dbd b118 f3bd 3eaf 35bd be5f dbbd
00000070: 749c 90bd 4db0 a93c 202e 54bd 6483 773d
00000080: 6780 c53c 1972 f0bd d8f8 7b3d 173a babd
00000090: 0cde 71bd 29d9 9a3a 0c07 1dbc 253a ebbd
000000a0: 577d 18be 1777 853d 102f c1bd 67e1 d2bb
000000b0: 1415 01be b4a4 bbbc 8ecf 61bb 7397 0a3d
000000c0: 8d2a f13d 47fa 37bb c76f b6bd 9df5 3bbe
000000d0: 26ec 48bd c838 3c3d 3be8 3abe c8af 3c3d
000000e0: 237d 163e 5558 f03d b102 f8bb c9a2 b03c
000000f0: 939e a73a 3578 6a3d 39e7 bcbd e206 15bc
00000100: 2b3b 26be 5c9a 1dbc 10d0 0fbe be04 aabd
00000110: 1ad1 363b 9bd6 0dbe b397 31be 7be6 023d
00000120: 3005 0f3e c4d9 2d3e 906b 5abd 7efa 2c3e
00000130: 7dfa e7bd 11f1 573d b0b4 063e 6b1a 57bd
00000140: be74 93bc 899f 99bd 849c b1bd 0364 01be
00000150: 07f7 b73c 7b68 37be ccdc af3d e78f 62bd
00000160: e48c 95bd f98f 4cbc 7910 b5bd a0f7 2b3c
00000170: 7862 ddbd 5fcd d43d 99f8 e3bd 68c9 37bd
00000180: e59d f93d 77f4 98bd 339c b2bd 1309 10bd
00000190: 0b9b a33c 9269 17be 20c1 4dbd 6a35 40be
000001a0: 67ff d53d 4d00 b83d 0193 c5bb 242a 853d
000001b0: 953d 06bd 1da1 ef3d a159 03bd 4db3 74bd
000001c0: 08bd e7bd ca56 013e e833 bf3d b99c afbb
000001d0: bafe feba eb6e b6bd 399d 9dbd ef9b 84bd
000001e0: e298 7abd ede6 e43d 7e19 afbd 33ae 493d
000001f0: 0f1f cd3d 2f89 023d 473f 24be 89eb 353d
00000200: a003 743d b4c3 a83c 4686 d13c c5f7 be3d
00000210: 8a00 e03c 76f5 7bbc 569f 803c f30a a2bc
00000220: e8f0 a73d d849 ac3d 2db0 11bd 5cf5 57bd
00000230: 1fd6 1abe 8bed eebd 82f8 5eb9 766e 1fbc
00000240: 50a0 743d f276 d6bc 9461 db3c 39e9 21be
00000250: 9545 7f3d 5df4 0abe 7950 13be 4444 1ebe
00000260: be62 db3d c298 b2bd 0353 b0bd ef21 d43d
00000270: 8109 973d 51c5 1039 973a 383d 096f 633d
00000280: dc09 69bd 00b5 fe3b 4f25 aabd 63f2 bc3d
00000290: ee2f acbd fcbe 22bd 6e2e 523d 127b fd3c
000002a0: 8d4e bf3d 6c25 523d 7079 a9ba 0f5e 513d
000002b0: e568 d1bd 0cb8 573d 91f8 a83d ca9f ab3a
000002c0: 5518 8abd fd69 483c 14df 94bd 79c5 a1bd
000002d0: ca84 dc3d d003 fbbd d051 1dbc d312 e83d
000002e0: cd5a 9bbd d258 d5bc 610a e5bd 6837 a93c
000002f0: d033 c73d fde7 3cbd b881 773a bcfa 87bd
00000300: 2b41 9e3d a20d 90bc a11e 93bc 7206 e23d
00000310: 882f e7bc d4fc b53d 13a5 c33d 3fee ee3d
00000320: c8e9 18bd 1471 2dbd 756c 03bd 1272 56bd
00000330: c4b3 703b 56b6 4e3d c431 933c cda2 0c3e
00000340: a290 93bd 7fa4 a6bd 1b15 7c3d 76ac a53d
00000350: 5288 4c3d 5946 403b aaed 1ebe 4aff 82bd
00000360: eac1 ab3d 7932 88bd e824 04be 5e26 9d3d
00000370: d2a8 b83b c467 bdbd 13e0 04be 7f5f d13a
00000380: 1b06 323d f3cb 63bb fd92 9fbd 54b5 c13d
00000390: 0ab1 36be b2c0 6cbd 1e88 94bd 4697 d03d
000003a0: e78f c03d e32b 37be afff da3d f33b 033e
000003b0: 1332 e0bd f9f3 b53c 7bde ca3c 965c 90bd
000003c0: d22b ccbd c964 003c fd80 cdbd 2280 14be
000003d0: 510d d1bc c5d1 913c 3c86 e93d e84f 593d
000003e0: e8da cfbd b47b aa3d
-0.09100273 0.013697298 0.065082766 0.07422072 0.0066127623 0.006152835 -0.0749255 -0.082162045
-0.1113578 0.115770236 -0.071124434 0.04079772 0.115060546 -0.04747645 -0.029371433 -0.028364193
0.04472051 0.120979846 -0.100669906 0.0587635 -0.15858863 -0.10849729 -0.07043222 0.126619
-0.046216067 -0.11869944 -0.044356577 -0.10711621 -0.07061091 0.02071395 -0.0518018 0.06042804
0.024109079 -0.117405124 0.061516613 -0.09093111 -0.05904965 0.0011813986 -0.0095842 -0.114856996
-0.14891563 0.06516855 -0.094328046 -0.0064355615 -0.12605697 -0.022905685 -0.0034455988 0.03383584
0.11775694 -0.002807276 -0.089080386 -0.18355413 -0.049053334 0.04595259 -0.18252651 0.046066076
0.14696173 0.11735598 -0.00756868 0.021561997 0.0012788348 0.057243545 -0.0922379 -0.009095879
-0.16233508 -0.009619322 -0.14044213 -0.08301686 0.002789563 -0.13851397 -0.17343025 0.031958085
0.13966823 0.16977602 -0.053325236 0.1689243 -0.11327074 0.052720133 0.13154864 -0.05251543
-0.018000003 -0.07501132 -0.08672431 -0.12635808 0.022456659 -0.1791095 0.085870355 -0.055313017
-0.073022634 -0.012485498 -0.088410325 0.01049605 -0.10809797 0.10390734 -0.111314006 -0.04486981
0.12188319 -0.07468503 -0.08721199 -0.035164904 0.019971391 -0.14786366 -0.050233006 -0.18770376
0.10449105 0.08984432 -0.006029487 0.06502178 -0.032773573 0.11700652 -0.0320679 -0.059741307
-0.11315352 0.12630764 0.09336072 -0.005359259 -0.0019454577 -0.08907875 -0.076960035 -0.064750545
-0.061180957 0.11176858 -0.08549784 0.049238395 0.100156896 0.03186911 -0.16039763 0.044414077
0.05957377 0.020601131 0.025576722 0.09324602 0.027344007 -0.015378347 0.015700977 -0.019780612
0.08200246 0.08412522 -0.035568405 -0.052724227 -0.15120743 -0.116664015 -0.00021264146 -0.009730926
0.0597232 -0.026179764 0.026779927 -0.15811624 0.062322218 -0.1356978 -0.14386167 -0.15455729
0.10712193 -0.087205425 -0.08609583 0.10358035 0.073748596 0.00013806416 0.04497775 0.055525813
-0.05689417 0.0077730417 -0.08307897 0.09225919 -0.08407579 -0.03973292 0.05131381 0.030942474
0.09341154 0.05130522 -0.0012929868 0.051115092 -0.10225085 0.052665755 0.08250535 0.0013093885
-0.06742922 0.012232301 -0.07269111 -0.07898993 0.10767515 -0.122565866 -0.009602025 0.113317154
-0.07585678 -0.02604333 -0.1118362 0.020656303 0.09726679 -0.04611968 0.0009441632 -0.06639621
0.077272736 -0.017584626 -0.017958941 0.110363856 -0.028220907 0.08886114 0.0955297 0.116665356
-0.037332326 -0.042344168 -0.032085855 -0.05235488 0.0036728242 0.050466858 0.017968066 0.13733979
-0.07205321 -0.08136844 0.061543565 0.08089535 0.049934693 0.0029338805 -0.15520349 -0.06396349
0.083865955 -0.06650252 -0.12904704 0.076733336 0.0056353593 -0.09248307 -0.12976103 0.0015973895
0.043462854 -0.0034759014 -0.07791708 0.09458414 -0.17840973 -0.057800956 -0.07252525 0.10185103
0.09402447 -0.17887835 0.10693299 0.12815838 -0.10947051 0.022211062 0.02476429 -0.07048909
-0.099692956 0.007836529 -0.10034368 -0.14502004 -0.025519045 0.017800221 0.11402556 0.05305472
-0.10149175 0.08324376
