experiments/classification/toy/gaussian_mixture/pretrained/2025-05-08_11-19-07/RepulsiveCrossEntropy_BatchEnsemble (rank 2).pt (torch, 112764 bytes, 8 tensors)

fc1.r_group f4 [100, 2, 2]
0	0x3f97c0da	1.1855729
1	0x3f40484c	0.75110316
2	0x3ef9b87c	0.48773563
3	0x3fdde76f	1.7336253
4	0x3fda7ba1	1.7068979
5	0x3faf902d	1.3715874
6	0x3f222cdc	0.633497
7	0x3f946e23	1.1596111
8	0x3fa5fc35	1.2967592
9	0x3f6ef692	0.93344986
10	0x3f931ac0	1.1492538
11	0x3fabec9b	1.3431581
12	0x3f129a70	0.572669
13	0x3f940181	1.1562959
14	0x3f535245	0.8254741
15	0x3ec731ec	0.38905275
16	0x3f5c3dfe	0.8603209
17	0x3f35c9ac	0.7101085
18	0x3f1d3da7	0.614222
19	0x3f82257b	1.0167688
20	0x3f2db6ee	0.67857254
21	0x3f190e2d	0.59787256
22	0x3e55e3ac	0.20887631
23	0x3efe9ee5	0.49730602
24	0x3f5fa1bc	0.8735616
25	0x3ec5075b	0.38482174
26	0x3f033cfa	0.5126492
27	0x3f5e19cc	0.8675811
28	0x3f80d54b	1.0065092
29	0x3f91e3de	1.1397665
30	0x3f645a2d	0.892001
31	0x3fafe090	1.3740406
32	0x3f208e1a	0.6271683
33	0x3f7bb7de	0.98327434
34	0x3f2af1aa	0.66775
35	0x3ef3567b	0.47526917
36	0x3f84560f	1.0338763
37	0x3f021bdd	0.50823766
38	0x3f320854	0.6954396
39	0x3ef8d547	0.48600218
40	0x3ea11b0d	0.3146595
41	0x3fa2ba0b	1.2713026
42	0x3fed101b	1.852054
43	0x3eccb96f	0.39985225
44	0x3fbedf7e	1.4911954
45	0xbd1f44d0	-0.038883984
46	0x3fa43fc5	1.2831961
47	0x3f67cf28	0.9055047
48	0x3fca35b3	1.5797638
49	0x3f29ce7f	0.66330713
50	0x3f4491f2	0.76785195
51	0x3f70261a	0.9380814
52	0x3fd9c926	1.7014511
53	0x3fbedda0	1.4911385
54	0x3f8eff16	1.1171596
55	0x3fc0effd	1.5073239
56	0x3f702b32	0.9381591
57	0x3fa83d81	1.314377
58	0x3f34ef92	0.70678055
59	0x3f23ffc9	0.6406217
60	0x3f3d35a6	0.73909986
61	0x3e93cc6a	0.28866893
62	0x3f9b3653	1.2125953
63	0x3f159f2f	0.5844602
64	0x3fe42ded	1.7826515
65	0x3f5a9041	0.85376364
66	0x3f317ac7	0.6932797
67	0x3fd59340	1.6685562
68	0x3fa4c176	1.287154
69	0x3feda240	1.856514
70	0x3fcc2d0f	1.5951251
71	0x3f94b2fd	1.1617123
72	0x3fa27a07	1.269349
73	0x3fd11320	1.6333961
74	0x3f39c95b	0.7257287
75	0x3e9db9d7	0.30805847
76	0x3f87de0f	1.0614642
77	0x3fe6edb9	1.8041297
78	0x3f8ad2a0	1.0845528
79	0x3ec07ae7	0.37593767
80	0x3f8f175f	1.1179007
81	0x3f6807a7	0.90636677
82	0x3fa783cf	1.30871
83	0x3f8b07e3	1.0861782
84	0x3f95efb2	1.1713774
85	0x3f83bbe0	1.029171
86	0x3f36a763	0.7134916
87	0x3cecb2ca	0.028893847
88	0x3f909db3	1.1298126
89	0x4000d262	2.0128407
90	0x3fa68f47	1.3012475
91	0x3f1be636	0.6089815
92	0x3f18910e	0.59596336
93	0x3f7d317c	0.9890363
94	0x3fde9ba2	1.7391245
95	0x3ecf21aa	0.4045537
96	0x3f82014b	1.0156645
97	0x3f15e05b	0.58545464
98	0x3f73616e	0.9507054
99	0x3f657e37	0.89645714
100	0x3e785321	0.24250461
101	0x3f9fda1f	1.248844
102	0x3f84f5d6	1.0387523
103	0x3f04796d	0.5174778
104	0x3f93d624	1.1549726
105	0x3f9a7417	1.2066678
106	0x3ef760a6	0.48315924
107	0xbd6313fd	-0.055438984
108	0x3fdcbe7a	1.7245629
109	0x3fffe1be	1.9990766
110	0x3f42e7f7	0.761352
111	0x3f1f13e6	0.6213974
112	0x3fdf8884	1.7463536
113	0x3f6e233e	0.93022525
114	0x3f5aea9b	0.8551423
115	0x3ec8e682	0.39238364
116	0x3f8aff71	1.0859205
117	0x3ec96b79	0.39339808
118	0x3e1a303f	0.15057467
119	0x3fabe644	1.3429646
120	0x3fc402ac	1.5313315
121	0x3fba9f95	1.457995
122	0x3f05348d	0.5203331
123	0x3f2f1e21	0.6840535
124	0x3e88d3e2	0.26724154
125	0x3f3c4778	0.7354655
126	0x3f8b9a13	1.0906395
127	0x3f15f2fe	0.585739
128	0x3f270cd7	0.6525397
129	0x3f4116ff	0.75425714
130	0x3f5006ea	0.8126055
131	0x3f9578f1	1.1677533
132	0x3ecb8ac8	0.3975432
133	0x3fd9320f	1.6968402
134	0x3f692bba	0.91082346
135	0x3f85926a	1.0435307
136	0x3f27f2cd	0.6560486
137	0x3fd763b0	1.6827297
138	0x3f8438c7	1.0329827
139	0x3f08dd7f	0.53462976
140	0x3f5f6ff4	0.872802
141	0x3f8703c4	1.0548024
142	0x3fc58232	1.5430357
143	0x3f4be824	0.79651093
144	0xbe964ec1	-0.2935696
145	0x3f000731	0.50010973
146	0x3f810f1e	1.0082738
147	0x3f753a9f	0.95792574
148	0x3f8c12f2	1.0943282
149	0x3f7bc652	0.9834949
150	0x3f3317cd	0.6995819
151	0x3f1062d1	0.5640078
152	0x3eb8ac4d	0.36068955
153	0x3f6f3dfb	0.9345395
154	0x3f87e8ab	1.061788
155	0x3e8062be	0.25075334
156	0x3fc6002e	1.5468805
157	0x3f6ee8f3	0.933242
158	0x3fc19093	1.5122246
159	0x3f8490b6	1.0356662
160	0x3fdb0c5c	1.7113147
161	0x3f97450b	1.1817945
162	0x3fe70be6	1.8050506
163	0x3f0bd615	0.5462354
164	0x3f91ce19	1.1391021
165	0x3f7a03ef	0.9766225
166	0x3f7a130d	0.9768532
167	0x3f9e784c	1.2380462
168	0x3fcdb5ff	1.6071166
169	0x3f4db3a3	0.8035223
170	0x3f340dba	0.70333445
171	0x3e7a8703	0.24465565
172	0x3f16e5ad	0.5894421
173	0x3e209817	0.15683018
174	0x3faaa9de	1.3333089
175	0x3e1eaedd	0.15496393
176	0x3f0df200	0.5544739
177	0x3f2bd59e	0.6712283
178	0x3f729793	0.94762534
179	0x3fef2dd7	1.8685864
180	0x3f863dd3	1.0487617
181	0x3f387bda	0.7206398
182	0x3f9651a3	1.1743664
183	0x3f4572e8	0.7712846
184	0x3f479561	0.7796231
185	0x3f059768	0.5218415
186	0x3f73ee1c	0.952852
187	0x3f791d14	0.97309995
188	0xbd566b12	-0.052348204
189	0x3f20a788	0.6275563
190	0x3f6087d4	0.8770726
191	0x400f5836	2.239759
192	0x3fea2eae	1.8295496
193	0x3f995bb7	1.1981114
194	0x3ff7467a	1.9318383
195	0x3d941bf3	0.072318934
196	0x3f487103	0.7829744
197	0x3f9fce85	1.24849
198	0x3f84ea3e	1.0383985
199	0x3fd66e03	1.6752323
200	0x3f88d403	1.0689701
201	0x3eb5a3d4	0.35476553
202	0x3fb93d51	1.4471837
203	0x3ff77a54	1.9334207
204	0x4013145c	2.2981176
205	0x3fcf902f	1.6215876
206	0x3f78a9d6	0.9713415
207	0x3fa54e3d	1.2914501
208	0x3f40d886	0.7533039
209	0x3f05ae1c	0.52218795
210	0x3f2d26a5	0.6763709
211	0x3e3e0489	0.18556418
212	0x3f47eea9	0.7809854
213	0x3f7a44f8	0.9776149
214	0x3f1557ee	0.58337295
215	0x3f879893	1.0593437
216	0x3fbba6a1	1.4660226
217	0x3fca7368	1.5816469
218	0x3f584167	0.84474796
219	0x3f28f1ae	0.65993774
220	0x3ec0fcd7	0.37692901
221	0x3f97086f	1.1799449
222	0x3f84bbec	1.0369849
223	0x3f896fde	1.0737264
224	0x3f9fe1e4	1.2490811
225	0x3f0ae955	0.54262286
226	0x3f958e42	1.1684039
227	0x3f1ae47c	0.6050489
228	0x3ea074fe	0.31339258
229	0x3fbc2b04	1.4700627
230	0x3f725064	0.94653916
231	0x3f90aa8e	1.1302049
232	0x3fe3ef58	1.7807417
233	0x3f8620b5	1.0478731
234	0x3f0f3490	0.5593958
235	0x3f4da913	0.8033611
236	0x3e1650d8	0.14679277
237	0x3f3c3331	0.7351561
238	0x3e560494	0.20900184
239	0x3f0c6378	0.5483928
240	0x3f81733b	1.011329
241	0x3f367c36	0.7128328
242	0x3fbaf95c	1.4607348
243	0x3f0655f4	0.52474904
244	0x3fa63a94	1.2986627
245	0x3fde9746	1.7389915
246	0x3f8dd0c2	1.1079333
247	0x3fa737ac	1.3063865
248	0x3ee2641e	0.44217008
249	0x3fcf1c87	1.6180581
250	0x3fd3de64	1.6552243
251	0x3f4ecf2b	0.80784863
252	0x4018656e	2.3811908
253	0x3eb3aaea	0.35091335
254	0x4005e29d	2.0919564
255	0x3f7bff02	0.98435986

fc1.s_group f4 [100, 2, 50]
0	0x3f424f81	0.75902563
1	0x3fd4bb26	1.6619613
2	0x3fb466d4	1.4093881
3	0x3f9cb36d	1.2242256
4	0x3fcffd01	1.6249086
5	0x3fb9792e	1.4490106
6	0x3fb5b54c	1.4195952
7	0x3f8bc3f2	1.0919173
8	0x3f2fd54b	0.68684834
9	0x3f9116c5	1.1335074
10	0x3f9919d9	1.1961013
11	0x3f6e1e3c	0.93014884
12	0x3fbeb83e	1.4899976
13	0x3f7898a0	0.9710789
14	0x3fc8b1b9	1.5679237
15	0x3fe01441	1.7506181
16	0x3fb82300	1.4385681
17	0x3f9be0bc	1.2177958
18	0x3f979973	1.1843704
19	0x3f4b2b52	0.79362977
20	0x3f87a04c	1.0595794
21	0xbf4a400e	-0.7900399
22	0x3fa596a1	1.2936593
23	0x3f8e14f9	1.110015
24	0x3fa7dbbe	1.3113935
25	0x3f209f46	0.6274303
26	0x3fd0887b	1.629165
27	0x3f447896	0.767465
28	0x3fe00550	1.7501621
29	0x3f2a31f8	0.66482496
30	0x3f56c471	0.83893496
31	0x3f49fc6b	0.78900784
32	0x3f0f0aac	0.5587566
33	0x3f9d9214	1.2310205
34	0x3fb76742	1.4328387
35	0x3fa2beb6	1.271445
36	0x3ff31f9d	1.8994023
37	0x3f5c13ff	0.8596801
38	0x3f906ae3	1.1282619
39	0xbf0e9f60	-0.55711937
40	0x3f86a48d	1.0518967
41	0x3f9f5726	1.244847
42	0x3fa331ab	1.2749532
43	0x3f90642b	1.1280569
44	0x3faafb3c	1.3357921
45	0x3fbe97bf	1.4890059
46	0x3ee8c90d	0.4546589
47	0x3f432bf0	0.7623892
48	0x3e62fab4	0.22165948
49	0x3e709301	0.23493578
50	0x3eaca175	0.33716932
51	0x3f354011	0.7080088
52	0x3fb7a518	1.4347258
53	0x3f53c50e	0.82722557
54	0x3f80ccd5	1.006251
55	0x3ecf67f0	0.40508986
56	0x3f7b1a12	0.98086655
57	0x3f83b743	1.0290302
58	0x3dd18627	0.10230666
59	0x3fec46ca	1.8459103
60	0x3f4c18b5	0.797252
61	0x3f5fb364	0.87383103
62	0x3f31ad94	0.69405484
63	0x3f270f89	0.6525808
64	0x3fe647e3	1.7990688
65	0x3fe3924e	1.7779024
66	0x3fc91706	1.5710151
67	0x3ea20b50	0.31649256
68	0x3ff25266	1.8931396
69	0x3f9d250e	1.2276933
70	0x3fa4fea6	1.2890213
71	0x3fa91249	1.3208705
72	0x3fa9b624	1.325871
73	0xbe6408eb	-0.22269027
74	0x3f464f28	0.7746453
75	0x3d0a74b3	0.0338027
76	0x3fd0d6dd	1.6315571
77	0x3fab4bbc	1.3382487
78	0x3f2d2fb4	0.67650914
79	0x3fc996f3	1.5749191
80	0x4006dc50	2.1071968
81	0x3fbdc23f	1.4824904
82	0x3e939daf	0.2883124
83	0x3f4ef427	0.80841297
84	0x3f5aeef9	0.85520893
85	0x3f5df867	0.86707157
86	0x3fc28ca2	1.5199168
87	0x3f958b84	1.1683202
88	0x3f71736f	0.9431676
89	0x3ec911de	0.39271444
90	0x3ebc9a97	0.36836693
91	0x3fa1440e	1.2598894
92	0x3f89186f	1.0710582
93	0x3f915419	1.135379
94	0x3f74b534	0.95588994
95	0x3eb4e069	0.3532746
96	0x3fb24304	1.3926702
97	0x3f70d3f7	0.9407343
98	0x3ff5a03f	1.9189528
99	0x3f6d705a	0.9274956
100	0x3f06bcc1	0.52631766
101	0x400d311e	2.2061229
102	0x3f8502de	1.03915
103	0x3f02fdc5	0.5116847
104	0x3fb5e2a4	1.420979
105	0x3f6629ce	0.8990754
106	0x3edda938	0.43293166
107	0x3e86a017	0.26294014
108	0x3f318616	0.69345224
109	0x3f1f8974	0.6231911
110	0x3ecf46d4	0.40483725
111	0x3f5d36d9	0.86411816
112	0x3f606826	0.8765892
113	0x3f8a3f6b	1.0800604
114	0x3fa15410	1.2603779
115	0x3fee0f0e	1.8598344
116	0x3f88dae8	1.0691805
117	0x3f940f88	1.156724
118	0x3d4957f9	0.049156163
119	0x3f184028	0.59472895
120	0x3faa9824	1.332768
121	0xbeb3134c	-0.3497566
122	0x3ec0693a	0.37580281
123	0x3f923f18	1.1425505
124	0x3f78bc60	0.9716244
125	0x3fa834d2	1.314112
126	0x3ecb50ca	0.39710075
127	0x3f097e14	0.53708005
128	0x3f8d4ed6	1.1039684
129	0x40109449	2.2590506
130	0x3fa2a39f	1.2706183
131	0x3fa9128c	1.3208785
132	0x3fc4607c	1.5341945
133	0x3f99eab2	1.2024748
134	0x3fa5fdcb	1.2968076
135	0x3f687e0f	0.9081735
136	0x3f622c44	0.88348794
137	0x3f1adb6e	0.60491073
138	0x3fbe2c4b	1.4857267
139	0x3fb02838	1.3762274
140	0xbeb5244e	-0.3537926
141	0x3fa6687f	1.300064
142	0x3f87bdf1	1.060484
143	0x3fa3cba6	1.2796524
144	0x3f5c6022	0.8608419
145	0x3f1b3784	0.60631585
146	0x3efca594	0.49345076
147	0x3f23d352	0.63994324
148	0x3f47c388	0.7803273
149	0x3fcad057	1.584483
150	0x3fae2c8e	1.3607347
151	0x3f9678ae	1.1755579
152	0x3f56e078	0.8393626
153	0x3f8baa6e	1.0911386
154	0x3ec0477a	0.37554532
155	0x3f1334af	0.57502264
156	0x3efcb222	0.49354655
157	0x3f80544b	1.0025724
158	0x3f9a9996	1.2078121
159	0x3ea941a0	0.3305788
160	0x4006c1fb	2.1055896
161	0x3f13c8a3	0.5772802
162	0x3f714ecb	0.94260854
163	0x3fa84967	1.3147401
164	0x3f1e9d5f	0.6195888
165	0x3f3b8210	0.73245335
166	0x3ea5dd34	0.32395327
167	0x3f20b232	0.62771904
168	0x3f8a3ef7	1.0800465
169	0xbedc77a0	-0.43060017
170	0x3fa00e6b	1.25044
171	0x3f82d62d	1.0221611
172	0x3f683457	0.90704864
173	0x3ffe1e56	1.9853008
174	0x3f7f0d71	0.99629885
175	0x3fc0ac0b	1.5052503
176	0x3cddd3c8	0.027078524
177	0x3fab9d84	1.3407445
178	0x3ffd6004	1.9794927
179	0x3d9e4ccb	0.07729491
180	0x3f565126	0.8371757
181	0xbd488bf6	-0.048961602
182	0x3ff0f7f7	1.8825673
183	0x3f36675b	0.7125146
184	0x3de71f95	0.11285321
185	0x3ea5ca05	0.3238069
186	0x3f95a64d	1.1691376
187	0x3f22265b	0.63339776
188	0x3fa6e686	1.30391
189	0x3f9fa48c	1.2472091
190	0x3f997aaa	1.1990559
191	0x3f90da64	1.1316648
192	0x3f4072b1	0.75175005
193	0x3f0b008d	0.54297715
194	0x3f88f8b2	1.0700896
195	0x3fb4e9ae	1.4133813
196	0x3f6b8bb9	0.92010075
197	0x3f4ec483	0.80768603
198	0x3f5e78a4	0.86902833
199	0x3fd1e85c	1.6399035
200	0x3f884289	1.0645305
201	0x3f7ee9fd	0.9957579
202	0x3f305e47	0.68893856
203	0x3f34fb3f	0.7069587
204	0x3fb56285	1.4170691
205	0x3e91bee6	0.28465956
206	0x3f882b5a	1.063823
207	0x3e88657c	0.26639926
208	0x3f83bf81	1.0292817
209	0x3f9f7780	1.2458344
210	0x3f156d3f	0.5836982
211	0x3f9ed508	1.2408762
212	0x3f20a046	0.6274456
213	0x3fe6cac4	1.8030629
214	0x3f504452	0.8135425
215	0x3fc0b382	1.5054781
216	0x3e06a75d	0.13149782
217	0x3fec167f	1.8444365
218	0x3f81ea74	1.0149674
219	0x3f7fcaf1	0.9991904
220	0x3f6b3718	0.9188094
221	0x3f86553a	1.0494759
222	0x3ef7bf1c	0.48387992
223	0x3fdee9fd	1.7415158
224	0x3fe71c6a	1.8055546
225	0x3f922199	1.1416503
226	0x3e6f1ff2	0.2335203
227	0x3e6920d7	0.22766434
228	0x3f97f2fc	1.1871028
229	0x3f6680d8	0.9004035
230	0x3f4f169d	0.8089388
231	0x3f0298b6	0.5101427
232	0x3fbcbc24	1.4744916
233	0x3fc885ab	1.5665792
234	0x3f21678b	0.6304862
235	0x3ec6f2dd	0.38857165
236	0x3f9f07cf	1.2424258
237	0x3ed6fb0c	0.4198841
238	0x3f768afc	0.96305823
239	0x3f19d480	0.60089874
240	0x3f666192	0.8999263
241	0x3f23ae28	0.63937616
242	0xbe3e2948	-0.18570435
243	0x3f402c06	0.75067174
244	0x3d9be6e3	0.076123975
245	0x3f2222da	0.6333443
246	0x3f880be3	1.0628628
247	0x3f521e5f	0.8207759
248	0x3d18a022	0.03726209
249	0x3f9778a9	1.1833698
250	0x3fa2ee93	1.2729057
251	0xbd880f32	-0.06643523
252	0x3f8d22a9	1.1026202
253	0x3f92bb5e	1.146343
254	0x3fa0b56b	1.2555364
255	0x3fccc68d	1.5998093

fc1.bias f4 [100, 50]
0	0xbdc86355	-0.09784571
1	0x3e7eb547	0.2487384
2	0x3e411643	0.18856148
3	0x3e12c644	0.14333445
4	0x3f20eb55	0.6285909
5	0xbf2d3263	-0.6765501
6	0x3e923cff	0.2856216
7	0xbea7731b	-0.32705006
8	0xbe82857b	-0.25492463
9	0xbe683f85	-0.22680481
10	0x3e656e00	0.22405243
11	0x3f104da5	0.56368476
12	0xbdaebf8b	-0.08532628
13	0x3e763a0a	0.24045578
14	0xbdbe09f3	-0.092792414
15	0x3e410444	0.18849283
16	0xbdf7dc0f	-0.1210252
17	0xbf436be9	-0.7633653
18	0x3f1cf777	0.613151
19	0xbee99650	-0.45622492
20	0xbdbebda4	-0.09313515
21	0x3e9e4122	0.30909067
22	0x3e2b3973	0.16721134
23	0x3d5bd7fe	0.053672783
24	0x3e40bf45	0.18822964
25	0x3eb43606	0.35197467
26	0x3ef974a6	0.48721808
27	0xbe5b5ffa	-0.21423331
28	0xbea223cc	-0.31667936
29	0x3e642256	0.22278723
30	0xbc027f07	-0.007964856
31	0x3f19ae49	0.60031563
32	0xbea90fbd	-0.3301982
33	0xbeb66644	-0.35624897
34	0x3d94b7a9	0.07261593
35	0xbd5715bc	-0.052510962
36	0x3e7d0a95	0.24711068
37	0x3d41fc02	0.047359474
38	0x3edd84b0	0.43265295
39	0xbd374cda	-0.044751026
40	0x3f02a8c1	0.5103875
41	0x3e8f1a6f	0.27949855
42	0xbe1ba5d2	-0.15199974
43	0xbd509e7b	-0.05093239
44	0x3f0a8b41	0.54118735
45	0xbeb8cff3	-0.36096153
46	0x3e89635d	0.2683362
47	0x3e038303	0.12842946
48	0x3e9a907d	0.3018836
49	0xbb91ffe0	-0.0044555515
50	0x3f18553e	0.5950507
51	0x3f2111f6	0.6291803
52	0x3e8a1613	0.26969966
53	0x3df3c93a	0.11903615
54	0x3ea99aa6	0.331258
55	0x3c205712	0.009786384
56	0xbf10d664	-0.56577134
57	0x3e689dde	0.22716472
58	0x3e9e8961	0.30964187
59	0xbd3b62ee	-0.045748644
60	0xbee5d432	-0.44888455
61	0x3c4eea94	0.01262917
62	0x3f21daca	0.6322447
63	0xbef8997e	-0.48554605
64	0xbf1050a9	-0.5637308
65	0x3e873956	0.2641093
66	0x3f2d3f71	0.6767493
67	0x3ec14689	0.37749127
68	0x3f00b278	0.5027232
69	0xbc4a8675	-0.012361159
70	0x3e2433b3	0.16035347
71	0x3f2c769e	0.67368495
72	0x3d1b8910	0.03797251
73	0xbf24493f	-0.64174265
74	0x3e1de91b	0.15420954
75	0x3de41283	0.11136343
76	0x3f304b67	0.68865055
77	0x3cbf66d3	0.02336446
78	0xbea16783	-0.31524286
79	0x3e81d6a7	0.2535908
80	0x3f238ed5	0.6388982
81	0xbe8b2378	-0.27175498
82	0xbf0eb409	-0.5574346
83	0xbf0d9d95	-0.55318576
84	0xbf056840	-0.521122
85	0x3f14537f	0.57939905
86	0xbd18d79a	-0.03731499
87	0x3f08645e	0.5327815
88	0xbe4b73da	-0.19868413
89	0xbe191e38	-0.14952934
90	0xbebfe07a	-0.3747595
91	0x3e39016c	0.18066949
92	0xbe853f42	-0.26024824
93	0xbeab4cc7	-0.33457014
94	0xbed90019	-0.42382887
95	0xbd15a1f4	-0.036531404
96	0x3d9836c1	0.074323185
97	0xbc262bda	-0.010142291
98	0x3db5adea	0.08871062
99	0x3f046a29	0.5172449
100	0xbf301ef8	-0.68797255
101	0xbe1e1ff0	-0.1544187
102	0x3e191a88	0.14951527
103	0xbf1dd4a1	-0.6165257
104	0x3ec94ac9	0.3931487
105	0x3f16b1c0	0.58864975
106	0x3ea85e02	0.32884222
107	0x3ded67b7	0.11592048
108	0xbf1b5bac	-0.60686755
109	0xbf475381	-0.7786179
110	0x3f062733	0.52403563
111	0xbe6fb48a	-0.23408714
112	0x3d4f287c	0.05057572
113	0xbf0930e9	-0.53590256
114	0xbdaf0f79	-0.08547873
115	0xbebbbfa1	-0.3666964
116	0xbf27b283	-0.6550676
117	0x3f44bc87	0.7685017
118	0x3f152712	0.5826274
119	0x3f33b46b	0.7019717
120	0x3ed5e0f3	0.41773185
121	0x3f2e08dd	0.67982274
122	0x3e71ce99	0.23613967
123	0x3ee579b2	0.4481941
124	0x3d8768b5	0.06611768
125	0x3f037200	0.51345825
126	0x3e03299a	0.12808838
127	0xbf1df3e6	-0.61700284
128	0x3eba9655	0.3644282
129	0x3ecb1a73	0.39668617
130	0x3d83b317	0.06430643
131	0x3ee36466	0.44412535
132	0xbf0d0173	-0.55080336
133	0xbee1956a	-0.44059306
134	0xbdc769b0	-0.09736955
135	0xbeb177a5	-0.34661594
136	0x3e975a02	0.29560858
137	0xbf3e3ff5	-0.7431634
138	0xbe24a832	-0.16079786
139	0xbf2539b7	-0.6454119
140	0x3f0b5693	0.54428977
141	0x3f006c83	0.50165576
142	0x3f25143b	0.64483994
143	0x3f06a7e2	0.5259992
144	0xbe3cfb34	-0.18455201
145	0x3f25afdd	0.6472147
146	0x3e3f29ae	0.18668243
147	0x3f191050	0.59790516
148	0x3e8adf70	0.27123594
149	0x3eced9dd	0.40400591
150	0xbf05cdb0	-0.5226698
151	0xbf3f6d2e	-0.7477597
152	0xbe962f34	-0.29332888
153	0x3d53aed8	0.051680416
154	0x3e1c5ca9	0.15269722
155	0x3f0550b4	0.5207627
156	0xbee9402b	-0.4555677
157	0x3ed1d3a0	0.4098177
158	0xbed405cf	-0.41410682
159	0xbea4912c	-0.32142007
160	0xbea9896d	-0.3311266
161	0x3e9a0812	0.30084282
162	0x3eca4d20	0.39511967
163	0x3ef4f799	0.47845152
164	0x3ee40a3d	0.4453906
165	0x3d30ac42	0.043133028
166	0xbd94c796	-0.072646305
167	0xbf2aa8c5	-0.6666377
168	0xbf277b4a	-0.654225
169	0xbe2070d4	-0.1566804
170	0x3f09d40c	0.5383918
171	0xbe5c1c7f	-0.21495245
172	0xbe0e7aa0	-0.13913965
173	0xbf278c1c	-0.65448165
174	0xbe9b3026	-0.30310172
175	0xbf188bda	-0.59588397
176	0xbf3944fc	-0.72370887
177	0x3f01cc18	0.5070205
178	0x3f3edbeb	0.7455432
179	0x3ed3ebe7	0.41390917
180	0x3ec54d40	0.385355
181	0xbecd67ec	-0.4011835
182	0xbe33e8f5	-0.17569335
183	0x3ec688df	0.387763
184	0x3ef16bf6	0.4715268
185	0x3eda6046	0.42651576
186	0x3f1fab2c	0.6237056
187	0x3f0c0dfb	0.5470883
188	0xbc9eaa6d	-0.019368375
189	0x3ec2b2d4	0.3802706
190	0xbdcc6734	-0.09980622
191	0xbedd5b2e	-0.43233627
192	0xbf33f837	-0.7030062
193	0xbe33d4fe	-0.17561719
194	0xbf0687fd	-0.5255125
195	0xbd17ff81	-0.037108902
196	0xbebb6ea5	-0.36607853
197	0xbe119d01	-0.14220048
198	0x3bff2650	0.0077865496
199	0xbed8a38a	-0.4231227
200	0xbeb94527	-0.36185572
201	0x3f2e3e60	0.68063927
202	0x3e5bb4a0	0.21455622
203	0x3ea09052	0.31360108
204	0x3ee702cb	0.45119318
205	0xbf104bc5	-0.56365615
206	0x3da74038	0.08166546
207	0x3f026255	0.5093129
208	0x3f1a0de0	0.6017742
209	0xbe96721e	-0.2938394
210	0x3e0a3d9e	0.13500068
211	0xbf0212eb	-0.50810117
212	0x3ee6040c	0.44924963
213	0xbe5189e4	-0.20462757
214	0xbf04c48c	-0.51862407
215	0xbdba0d44	-0.090845615
216	0xbf2c7d81	-0.67379004
217	0xbe18a88f	-0.1490805
218	0x3e9a5f05	0.3015062
219	0xbf1e6912	-0.61879075
220	0xbf272845	-0.6529582
221	0xbf1e154a	-0.61751235
222	0x3eb4c5cc	0.35307157
223	0xbdf8596a	-0.121264294
224	0x3dece3b9	0.11566872
225	0xbe031c0e	-0.12803671
226	0xbf2411ac	-0.64089465
227	0xbe5c31c4	-0.21503359
228	0xbe11c68f	-0.142359
229	0xbeb2bbde	-0.34908956
230	0x3f11b4f8	0.5691676
231	0xbeaf370b	-0.34221682
232	0xbd3e3024	-0.04643263
233	0xbf0d1431	-0.55108935
234	0xbdc714bb	-0.09720751
235	0xbf19b412	-0.6004039
236	0x3d861083	0.06546118
237	0xbf3be5b8	-0.733974
238	0x3ace47a6	0.0015737906
239	0x3ec8ffef	0.39257762
240	0xbd1fabe1	-0.038982276
241	0x3e2c759e	0.16841742
242	0xbecd864e	-0.4014153
243	0x3eab0513	0.3340231
244	0x3f0f8f9d	0.5607851
245	0x3f36f934	0.71474004
246	0xbf1ff6fd	-0.6248625
247	0xbe5ad039	-0.21368493
248	0xbe922c8b	-0.2854961
249	0xbe584e89	-0.21123709
250	0xbe9ae4e2	-0.3025275
251	0xbf26cc48	-0.6515546
252	0x3eee33be	0.4652385
253	0xbee4ebcc	-0.4471115
254	0x3f257d25	0.6464408
255	0xbf138df8	-0.576385

fc1.linear.weight f4 [50, 2]
0	0xbef05343	-0.46938524
1	0xbe7d5504	-0.24739462
2	0xbe669459	-0.22517528
3	0x3e5dcb25	0.21659525
4	0x3eec890f	0.46198317
5	0x3e4c31e2	0.19940904
6	0x3f3db056	0.7409719
7	0xbf0f1f4c	-0.5590713
8	0xbee4bd82	-0.44675833
9	0xbd2aa380	-0.041659832
10	0xbe21ce02	-0.15801242
11	0x3ee18470	0.44046354
12	0x3d1aca4e	0.03779059
13	0x3d3d1a87	0.046167877
14	0xbdac41fe	-0.084110245
15	0x3f452b57	0.77019256
16	0xbefd9537	-0.49527904
17	0xbe1d0494	-0.15333778
18	0xbdd3da66	-0.103443906
19	0xbf0c4833	-0.5479767
20	0x3de179a7	0.110095315
21	0xbecb546c	-0.39712846
22	0xbebd00df	-0.36914727
23	0x3e287bdf	0.16453503
24	0x3f19728e	0.5994042
25	0x3eff7720	0.49895573
26	0xbef0fc65	-0.47067562
27	0x3eb371f8	0.3504789
28	0x3f0d1282	0.55106366
29	0xbf19e34b	-0.60112447
30	0xbdb8020f	-0.08984768
31	0xbf2a31d8	-0.66482306
32	0x3ea42674	0.32060587
33	0xbe443921	-0.19162418
34	0xbf2d90d6	-0.6779913
35	0xbf253ecd	-0.6454895
36	0x3e2b9a2a	0.16758028
37	0xbf13bbc8	-0.57708406
38	0x3ac58632	0.00150699
39	0xbe6db04d	-0.23211785
40	0xbf16fd65	-0.589804
41	0x3f10215e	0.56300914
42	0xbf055121	-0.5207692
43	0xbe3bbd66	-0.18333969
44	0xbecaa395	-0.39577928
45	0xbf31a23d	-0.6938818
46	0x3f2bb8e2	0.67078984
47	0xbe23030a	-0.15919128
48	0xbe8bef6e	-0.27331108
49	0xbe5a6139	-0.2132615
50	0x3e603cd8	0.2189821
51	0x3f1e8098	0.6191497
52	0x3e85922c	0.26088083
53	0xbe03570a	-0.12826172
54	0x3eb08486	0.34476107
55	0xbe156f24	-0.14593178
56	0x3e5e0a6d	0.21683665
57	0x3f117d11	0.5683146
58	0xbf030759	-0.51183087
59	0xbdba12a7	-0.09085589
60	0xbf072bc9	-0.52801186
61	0xbe7027d8	-0.23452699
62	0xbf1e1e68	-0.61765146
63	0x3d55c9ec	0.05219452
64	0x3ee68e5f	0.45030496
65	0x3e0d1901	0.1377907
66	0xbef03c10	-0.46920824
67	0x3f381db8	0.7192035
68	0x3ded2828	0.11579925
69	0xbdb7e40b	-0.089790426
70	0x3e282d33	0.16423492
71	0xbebc4e8f	-0.36778685
72	0x3f03b2e6	0.5144485
73	0x3eec2b62	0.46126848
74	0xbebcebed	-0.36898747
75	0xbf13633a	-0.5757328
76	0xbe8942bb	-0.26808724
77	0xbe6764b7	-0.22597013
78	0xbf083b9a	-0.53215945
79	0x3d35b2a8	0.044359833
80	0xbeea3b9a	-0.45748597
81	0xbf1e7a90	-0.61905766
82	0x3e9617ca	0.29315025
83	0x3e051cbe	0.12999246
84	0xbeda7a98	-0.42671657
85	0x3d27c9cc	0.040963933
86	0x3dd8c4eb	0.10584434
87	0xbde79015	-0.11306778
88	0x3e8f47fd	0.2798461
89	0xbe7794a7	-0.241778
90	0xbed11672	-0.40837437
91	0x3f23dc64	0.64008164
92	0x3be70c4f	0.007051028
93	0x3e811efc	0.25218952
94	0x3bb5fc46	0.005553755
95	0xbf2a58a3	-0.665415
96	0x3edaf526	0.42765158
97	0x3d8b8d74	0.068140894
98	0x3ee9179e	0.4552583
99	0xbea92278	-0.3303411

fc2.r_group f4 [100, 2, 50]
0	0xbe9f9524	-0.31168473
1	0x3efa9cf4	0.4894787
2	0x3fbfac1e	1.4974401
3	0x3f4b34ce	0.7937745
4	0x3f994f52	1.1977332
5	0x3f68efd6	0.9099096
6	0x3e9c46d1	0.3052278
7	0x3fb41326	1.4068344
8	0x3f4d44c7	0.8018307
9	0x3f6d4c33	0.92694396
10	0x3f88d4fa	1.0689995
11	0x3f9eb719	1.2399627
12	0x3f6f683b	0.9351842
13	0x3f6e1741	0.9300423
14	0x3f9b17af	1.2116603
15	0x3fc93536	1.5719364
16	0x3fa4aec3	1.2865833
17	0x3fcf69a6	1.6204116
18	0x3f66d8db	0.90174645
19	0x3c2ccb72	0.010546552
20	0x3f573854	0.84070325
21	0x3f1a0846	0.60168874
22	0x3e962cdd	0.29331103
23	0x3f949e2c	1.161077
24	0x3f87f58d	1.0621811
25	0x3f4d76b1	0.80259234
26	0x3f98bc07	1.1932381
27	0x3f4c16e3	0.7972242
28	0x3fc2cb78	1.5218344
29	0x40006c3c	2.006606
30	0x3f4bc6b4	0.7960007
31	0x3f4e07f5	0.8048089
32	0x3f1dea1c	0.6168535
33	0x3f9779ff	1.1834105
34	0x3f50334b	0.81328267
35	0x3f981088	1.1880045
36	0xbe6fa583	-0.23402981
37	0x3f630c5d	0.8869074
38	0x3fa4f00b	1.2885755
39	0x3f2bfac1	0.67179495
40	0x3f234bd8	0.63787603
41	0x3f3932a2	0.72342885
42	0x3fe64c2c	1.7991996
43	0x3f3c30ca	0.73511946
44	0x3ff496ad	1.9108483
45	0x3f8ea661	1.1144525
46	0x3f7be542	0.98396695
47	0x3f1218e4	0.5706923
48	0x3f3fd13a	0.7492863
49	0x3fa762d8	1.307704
50	0x3fa30cf4	1.2738328
51	0x3fc0b509	1.5055248
52	0x3fb69755	1.4264933
53	0x3f5c2526	0.85994184
54	0x3ef5930e	0.47963756
55	0x3fcd4ad6	1.6038463
56	0x3fd36333	1.6514648
57	0x3fa51bd3	1.2899116
58	0x3e1d237b	0.15345566
59	0x3f7516ef	0.9573812
60	0x3ea18c46	0.31552333
61	0x3f68007b	0.90625733
62	0x3f3551d8	0.7082801
63	0x3f757011	0.95874125
64	0x3fc648ec	1.5491004
65	0x3f8afa59	1.085765
66	0x3fb754f3	1.43228
67	0x3f841883	1.031998
68	0x3f91a0ac	1.1377158
69	0x3f495fd3	0.7866184
70	0x3f0d4b3b	0.5519292
71	0x3f8bd353	1.0923866
72	0x3f4485ab	0.7676646
73	0x3f317514	0.6931927
74	0x4007738e	2.116428
75	0x3f0096aa	0.50229895
76	0x3f02f5a8	0.5115609
77	0x3b853c6f	0.004066042
78	0x3e9fd48f	0.31216857
79	0x3fc60709	1.5470897
80	0x3f8145d6	1.0099437
81	0x3fda42f8	1.7051687
82	0x3f537838	0.82605314
83	0x3fc3dc03	1.5301517
84	0x3f908e45	1.1293417
85	0x3f021a88	0.50821733
86	0x3f5a116d	0.8518284
87	0x3f6959da	0.9115273
88	0x3fcd690a	1.604768
89	0x3fb66c53	1.4251808
90	0x3f9795b5	1.1842562
91	0x3fb6a867	1.4270142
92	0x3f3d69cc	0.7398956
93	0x3f61cf7c	0.8820722
94	0x3f490524	0.7852347
95	0x3f460728	0.7735467
96	0x3f35ff80	0.7109299
97	0x3f06ae14	0.5260937
98	0x3f092eb2	0.53586876
99	0x3fb39575	1.4029986
100	0x3fc29167	1.5200623
101	0x3f4134f7	0.7547144
102	0x3f66ae98	0.9011016
103	0x3f2b0699	0.6680694
104	0x3fd2f93b	1.6482309
105	0x3f37deb5	0.718242
106	0x3f5842c6	0.8447689
107	0x3fa5e3c6	1.2960136
108	0x3fd1945c	1.6373401
109	0x3fcaf4c8	1.5855951
110	0x3f8cbc99	1.0995055
111	0x3f3a85a7	0.7286019
112	0x3f297bef	0.6620473
113	0x3f2cbfe9	0.6748033
114	0x3fad5948	1.3542871
115	0x3fadbe16	1.3573635
116	0x3f7193f4	0.94366384
117	0x3ecd26d5	0.4006869
118	0x3fb7ee41	1.4369584
119	0x3f83e141	1.0303117
120	0x3f2ffcbd	0.68745023
121	0x3f8e00ca	1.1093991
122	0xbea095f6	-0.3136441
123	0x3f7d0036	0.98828447
124	0x3f96301a	1.173343
125	0x3f61f48b	0.8826377
126	0x3eeb156e	0.45914787
127	0x3f41beec	0.7568195
128	0x3ff0c282	1.8809359
129	0x3f3490a4	0.70533204
130	0x3fc7c18a	1.5605938
131	0xbab9eda7	-0.0014185206
132	0x3f0c5fde	0.5483378
133	0x3ebca969	0.36848
134	0x3ee7a1e4	0.452407
135	0x3f51da64	0.8197386
136	0x3f163fec	0.5869129
137	0x3f893ff6	1.0722644
138	0x3fc0369a	1.5016663
139	0x3eb393b4	0.35073626
140	0x3f9c412d	1.220739
141	0x3f7199fd	0.9437559
142	0x3fc6c665	1.5529295
143	0x3fb3708c	1.4018722
144	0x3f3b41f2	0.731475
145	0x3f97d377	1.1861409
146	0x3fa86fc9	1.3159114
147	0x3faf92f2	1.3716719
148	0x3ef266c6	0.47344035
149	0x3f688b95	0.90837985
150	0x3fa3c97a	1.2795861
151	0x3f4e36f2	0.8055259
152	0x3ef72017	0.4826667
153	0x3f4a708a	0.7907797
154	0x3f8aa1d5	1.0830637
155	0x3f9f0b6c	1.2425361
156	0x3f5c7179	0.86110646
157	0x3f73058f	0.94930357
158	0x3fd3a72a	1.653539
159	0x3f3ad3bf	0.7297935
160	0x3f825d45	1.0184714
161	0x3f9a27d0	1.20434
162	0x3f1291c3	0.57253665
163	0x3f9404eb	1.1564001
164	0x3fe014b6	1.750632
165	0x3f446361	0.7671414
166	0x4004b153	2.073323
167	0x3fad0afb	1.3518976
168	0x3f610b37	0.8790774
169	0x3fa6c714	1.3029504
170	0x3f6851c2	0.9074975
171	0x3f8eaf30	1.1147213
172	0x3f9160a1	1.1357614
173	0x3f4fe2b9	0.81205326
174	0x40192615	2.3929493
175	0x3f3719b0	0.7152357
176	0x3f480857	0.78137726
177	0x3ee4eaa8	0.4471028
178	0x3f569196	0.83815897
179	0x3f671bbd	0.902767
180	0x3f6a8e73	0.9162361
181	0x3fac0f35	1.3442141
182	0x3f0b2f22	0.54368794
183	0x3f76474c	0.9620254
184	0x3f7943f8	0.9736934
185	0x3e22a304	0.15882498
186	0x3fdeedf9	1.7416373
187	0x3fe2f698	1.7731504
188	0x3f03b357	0.51445526
189	0x3ff0fe29	1.8827564
190	0x3f96a726	1.176976
191	0x3f19bda5	0.60055
192	0x3f878b4f	1.0589389
193	0x3f6cb072	0.92456734
194	0x3f60da71	0.87833315
195	0x3f813bc6	1.0096366
196	0x3f81035d	1.0079151
197	0x3f96a5ea	1.1769383
198	0x3fe476e5	1.7848784
199	0x3fa90c22	1.3206828
200	0x3e81abd4	0.25326407
201	0x3f8f1ca3	1.1180614
202	0x3f915832	1.135504
203	0x3f9736b6	1.1813571
204	0x3ea9052d	0.3301176
205	0x3f96d264	1.1782956
206	0x3feee339	1.8663093
207	0x3f81ab1a	1.0130341
208	0x3fa30a80	1.2737579
209	0x3f9a5d5d	1.2059742
210	0x3fb13fc1	1.3847581
211	0x3ea98f4a	0.33117133
212	0x3fb3af7b	1.4037927
213	0x3f6aa5d9	0.91659313
214	0x3f88d94d	1.0691315
215	0x3fc9c316	1.576266
216	0x3e5418e5	0.20712622
217	0x3dde1dbd	0.10845516
218	0x3f3433c1	0.7039147
219	0x3fcd5c6b	1.6043829
220	0x3ec6ce5f	0.38829324
221	0x3faa0059	1.3281356
222	0x4019b58e	2.4017062
223	0x3fcb9c9e	1.5907171
224	0x3f274811	0.6534434
225	0x3f589088	0.8459554
226	0x402227b5	2.5336735
227	0x3f8a9c74	1.0828996
228	0x3fd12ec1	1.6342393
229	0x3fb49a45	1.4109579
230	0x3f7ece99	0.99533993
231	0x3f3e12a7	0.7424721
232	0x3fb819cf	1.4382876
233	0x3f302ba6	0.688166
234	0x3fb5d39a	1.4205201
235	0x3f2dd465	0.67902213
236	0x3feda63d	1.8566357
237	0x3f865192	1.0493643
238	0x3e87bb0f	0.26509902
239	0x3f1ef424	0.6209128
240	0x3fceadfc	1.6146846
241	0x3f52bc41	0.823185
242	0x3f8ca7b7	1.0988683
243	0x3f7c8acc	0.9864929
244	0x3fadbdc3	1.3573536
245	0x3fd12764	1.6340146
246	0x3faa9d13	1.3329185
247	0x3faac88c	1.3342452
248	0x3f3a7e0e	0.72848594
249	0x3fa8e3fc	1.3194575
250	0x3e1dccc6	0.15410146
251	0x3eb4aea3	0.35289487
252	0x3fd0fc9c	1.632709
253	0x3f4a4131	0.79005724
254	0x3f9155c9	1.1354305
255	0x3f706c2d	0.93915063

fc2.s_group f4 [100, 2, 5]
0	0x3f9a2df9	1.204528
1	0x3fbdbe3f	1.4823684
2	0x3fe816c7	1.8131951
3	0x3f863877	1.0485982
4	0x3fc33df1	1.5253278
5	0x3f7b5377	0.9817423
6	0x3fb7f23a	1.4370797
7	0x3fd7faa2	1.6873362
8	0x400672eb	2.100764
9	0x3f16c200	0.5888977
10	0x3f6d55a3	0.92708796
11	0x3eaf99ac	0.3429693
12	0x3fd3003f	1.648445
13	0x3fe56b2a	1.7923329
14	0x3f84c465	1.0372435
15	0x3f73f0ae	0.95289123
16	0x3fec8c61	1.848034
17	0x3fb50c9d	1.4144474
18	0x3f7a4472	0.9776069
19	0x3f9e1956	1.2351482
20	0x3e9b1740	0.30291176
21	0x3ebf6ba1	0.37386802
22	0x3fb5f068	1.4213991
23	0x3fbd1c7a	1.4774315
24	0x3fd0dfbe	1.6318281
25	0x3f1e6fe6	0.61889493
26	0x3f8ada70	1.0847912
27	0x3ea9a71f	0.33135316
28	0x3edfd868	0.43719792
29	0x3f761615	0.96127445
30	0x3ec1e157	0.37867233
31	0x3fa50df6	1.2894886
32	0x3f91316e	1.134321
33	0x3f236cea	0.63838065
34	0x3f78daca	0.97208846
35	0x3fa9cf70	1.326643
36	0x3fad1384	1.3521581
37	0x3f4ebd67	0.80757755
38	0x3fb71e21	1.430607
39	0x3f3e8c39	0.7443271
40	0x3f70fd17	0.94136184
41	0x3faa396d	1.3298775
42	0x3fa68ef7	1.301238
43	0x3f939ec3	1.1532825
44	0x3f6e27e3	0.9302961
45	0x3f524cb5	0.82148296
46	0x3fd53140	1.6655655
47	0x3f8cd408	1.1002207
48	0x3fece1af	1.8506373
49	0x3f2e1edc	0.6801584
50	0x3e86f595	0.2635924
51	0x3fad0b7f	1.3519133
52	0x3f36bb3a	0.71379435
53	0x3f87e0c4	1.0615468
54	0x3f9fd8fa	1.2488091
55	0x3ebb97dc	0.36639297
56	0xbe6ada05	-0.2293473
57	0x3fb17c96	1.3866146
58	0xbc940be6	-0.01807208
59	0x3ff1dd03	1.8895572
60	0x3ff31264	1.8989987
61	0x3faa30dd	1.3296162
62	0x3fa58032	1.2929747
63	0x3f80904a	1.0044034
64	0x3f588ca9	0.8458963
65	0x3f2411ac	0.64089465
66	0x3fa6f473	1.304335
67	0x3fb83989	1.4392558
68	0x3f573485	0.84064513
69	0x3f932481	1.1495515
70	0x3f94f0b4	1.1635957
71	0x3fb519be	1.4148481
72	0x3e55d6e9	0.20882763
73	0x3dcc1ca4	0.099664
74	0x3fbbc367	1.4669007
75	0x3fc0db55	1.5066935
76	0x3ef4cb81	0.4781151
77	0x3efb1a68	0.49043584
78	0x3fae9c76	1.3641498
79	0x3fbb8d25	1.4652449
80	0x3f3b4264	0.7314818
81	0x3f56ca17	0.83902115
82	0x3f84f163	1.0386165
83	0x3f80db57	1.0066937
84	0x3f837831	1.0271055
85	0x3f88ca78	1.0686789
86	0x3fa0f9ea	1.2576268
87	0x3f8987fc	1.0744624
88	0x3f7c17ca	0.984738
89	0x3fccd722	1.6003153
90	0x3ec7125c	0.38881195
91	0x3f746d3f	0.95479196
92	0x3e526bb6	0.20548901
93	0x3fa0fd95	1.2577387
94	0x3f9a650a	1.2062085
95	0x3f725423	0.9465963
96	0x3fa4055c	1.2814136
97	0x3ec326dd	0.38115588
98	0x3fa0d5a6	1.25652
99	0x3f8d2a18	1.1028471
100	0x3d30f6ff	0.043204304
101	0x3f533a0a	0.82510436
102	0x3fe871af	1.8159693
103	0x3f96dab9	1.1785499
104	0x3ee27d63	0.44236287
105	0xbeb99668	-0.36247563
106	0x400c3aa3	2.191079
107	0x3f59b8cb	0.85047597
108	0x3f4de95b	0.804342
109	0x3f4ad6c7	0.79233974
110	0x3d1e5cbe	0.038662665
111	0x3fc9c0db	1.576198
112	0x3fb55cb2	1.4168913
113	0x3fb78fc1	1.4340745
114	0x3f5fb5f3	0.8738701
115	0x3f59c6a4	0.85068727
116	0x3f2e961f	0.68197817
117	0x3f50e6ab	0.8160197
118	0x3f83be0d	1.0292374
119	0x3f821704	1.0163274
120	0x3fc33322	1.524998
121	0x3e2ac617	0.16677128
122	0x3f6188d5	0.88099414
123	0x3f9ca504	1.2237859
124	0x3fa2fd0c	1.2733474
125	0x3fa63672	1.2985365
126	0x3fbf52a8	1.49471
127	0x3ff182de	1.8868062
128	0x3fb56b98	1.417346
129	0x3fd10548	1.6329737
130	0x3fae32cd	1.3609253
131	0x3f3af10e	0.7302407
132	0x3f69a372	0.9126502
133	0x3f90b402	1.1304934
134	0x3fbdbe64	1.4823728
135	0x4002b20b	2.0421169
136	0x3fb0c307	1.3809518
137	0x3f8c1874	1.0944963
138	0x3dcda5d8	0.10041398
139	0x3f8d649b	1.1046327
140	0x3f56739d	0.8377016
141	0x3f13cbee	0.57733047
142	0x3f9d4444	1.2286458
143	0x3fa42a8a	1.2825482
144	0x3f9e0d24	1.234776
145	0x3f519d76	0.8188089
146	0x3f451950	0.7699175
147	0x3f38893f	0.7208442
148	0x3feabc89	1.8338786
149	0x3f7e842c	0.9942043
150	0x3f99a234	1.2002625
151	0x3f651833	0.8949005
152	0x3f21b534	0.6316712
153	0x3ff22f17	1.8920621
154	0x40037796	2.054174
155	0x3f89cbc4	1.0765309
156	0x3f05c07a	0.5224682
157	0x3eee53b7	0.46548244
158	0x3f20694f	0.6266069
159	0x3ed57706	0.4169237
160	0x3f28f6d8	0.66001654
161	0x3f2f4702	0.68467724
162	0x3edc87ff	0.43072507
163	0x3e4ee401	0.20204164
164	0x3fbd0750	1.4767857
165	0x3f76b1b5	0.9636491
166	0x3f8bf1b4	1.0933137
167	0x3fae9556	1.3639324
168	0x3f84122e	1.0318048
169	0x3f6a7196	0.9157957
170	0x3fac5cbf	1.3465804
171	0x3f8c6673	1.0968765
172	0x3fbaf8fc	1.4607234
173	0x3f6b31f2	0.91873085
174	0x3f6f309e	0.9343356
175	0x3f095d81	0.536583
176	0x3f7b7951	0.9823199
177	0x3f894c58	1.0726423
178	0x3ea44b13	0.32088527
179	0x3ec6d264	0.3883239
180	0x3f6c6106	0.92335546
181	0x3faad8f3	1.3347458
182	0x3fc3bf19	1.5292693
183	0x3fa87563	1.3160824
184	0x3f32a125	0.6977714
185	0x3f4b26e1	0.793562
186	0x3fb243b5	1.3926913
187	0x3f8a669f	1.0812567
188	0x3f13a1c6	0.5766872
189	0x3f7ec78b	0.9952323
190	0x3eaef32d	0.34169903
191	0x3f239d92	0.6391231
192	0x3f3f2b35	0.74675304
193	0x3f665466	0.8997253
194	0x3fa09e0e	1.2548234
195	0x3ec476d4	0.3837191
196	0x3f82109a	1.0161316
197	0x3fc6afff	1.552246
198	0x3fac7a5f	1.3474845
199	0x3ff50f50	1.9145298
200	0x3fa63dea	1.2987645
201	0x3ea98cea	0.3311532
202	0x3fc793b6	1.5591953
203	0x3f879e8b	1.0595258
204	0x3f861609	1.0475475
205	0x3fff1ced	1.9930702
206	0x402b5098	2.676794
207	0x3f97967a	1.1842797
208	0x3ea0f7e9	0.3143914
209	0x3f3165c7	0.69295925
210	0x401626ba	2.3461137
211	0xbc5804a1	-0.013184697
212	0x3fa6410b	1.29886
213	0x3f58adc7	0.84640163
214	0x3f8941ea	1.072324
215	0x3f8ddc02	1.1082766
216	0x40152812	2.3305707
217	0x3fb9f282	1.4527133
218	0x3f8b6deb	1.0892919
219	0x3e801d42	0.25022322
220	0x3f8764fb	1.0577692
221	0x3de9d6dd	0.11417935
222	0x3f866be1	1.0501672
223	0x3fbecfa6	1.4907119
224	0x3f6e5ec6	0.9311336
225	0x3fbbc562	1.4669611
226	0x3feb0b4b	1.8362821
227	0xbe48ccb4	-0.19609338
228	0x3f91fb43	1.1404804
229	0x3f16610e	0.58741844
230	0x3fb85720	1.4401588
231	0x4002c788	2.0434284
232	0x3f9b7615	1.2145411
233	0x3f0f66dc	0.56016326
234	0x3f818965	1.0120054
235	0x3f97b7b8	1.1852942
236	0x3fbb9512	1.4654868
237	0x3f539376	0.8264688
238	0x400014c1	2.0012667
239	0x3eece30f	0.46266982
240	0x3f251aff	0.6449432
241	0x3f99d955	1.201945
242	0x3f7255a5	0.94661933
243	0x4007558a	2.114596
244	0x3f6a6bc3	0.9157068
245	0x3e5f94ca	0.21834102
246	0x3f4d472a	0.8018671
247	0x3fb024f0	1.3761272
248	0x40105338	2.2550793
249	0x3fbedc60	1.4911003
250	0x3f8ca418	1.0987577
251	0x3f9c21be	1.2197797
252	0x3fe48265	1.7852293
253	0x3f602cd8	0.87568426
254	0x3f09557d	0.5364607
255	0x3f0b80d4	0.5449345

fc2.bias f4 [100, 5]
0	0xbd6d7381	-0.05797148
1	0xbe1830d4	-0.14862376
2	0x3df94268	0.12170869
3	0xbcaf743e	-0.021417733
4	0x3dd0a26c	0.101872295
5	0x3c322d3b	0.010875042
6	0x3d146fa9	0.0362393
7	0xbdc18b55	-0.094504036
8	0xbd7cae99	-0.061689947
9	0xbd2ab129	-0.04167286
10	0x3d9a6052	0.07537903
11	0x3dbe45d2	0.09290661
12	0xbd0d8798	-0.03455314
13	0x3d31d225	0.0434133
14	0xbe1a0de2	-0.15044358
15	0xbc250308	-0.0100715235
16	0x3d6b42cd	0.057436753
17	0x3c80a58e	0.015703943
18	0x3d9e518d	0.07730398
19	0xbdedd414	-0.11612716
20	0x3e1e482e	0.15457222
21	0xbdf89f7b	-0.121397935
22	0xbba71be5	-0.005099761
23	0x3ceab279	0.028649556
24	0xbd13bfc8	-0.03607157
25	0x3d7a9cbc	0.06118463
26	0xbcb87acf	-0.022519497
27	0x3dd31627	0.103069596
28	0x3c08503a	0.008319909
29	0xbccb060d	-0.024783159
30	0xbd2308fb	-0.039803486
31	0x3db3a7a2	0.08772208
32	0x3b9a3f86	0.0047072796
33	0x3d8e2536	0.06940691
34	0xbc351559	-0.011052453
35	0xbdf74eb4	-0.12075558
36	0x3ddae4b1	0.10688151
37	0xbd9b1340	-0.07572031
38	0xbc546afd	-0.012964961
39	0xbd1d4657	-0.03839716
40	0xbd8b5cff	-0.06804847
41	0xbdb4bc4a	-0.08824976
42	0xbd2e9d46	-0.042630456
43	0xbca527d5	-0.020160595
44	0xbdbe3fb4	-0.09289494
45	0xbd72e430	-0.059299648
46	0x3d254330	0.040347278
47	0xbe0481b1	-0.12940098
48	0x3dd5a962	0.10432698
49	0xbbbe0891	-0.005799361
50	0x3cddc86d	0.02707311
51	0xbd7de3c7	-0.061984804
52	0x3d97f1ce	0.074191675
53	0x3d60231e	0.05472099
54	0x3d49ca7e	0.049265377
55	0xbd9e609c	-0.077332705
56	0x3e0250b5	0.127261
57	0x3d553fcf	0.052062806
58	0x3d131611	0.035909716
59	0x3d5afd56	0.053464256
60	0xbd93b8db	-0.07212993
61	0xbe1c3d48	-0.15257752
62	0x3dbd9615	0.092571415
63	0xbc0ce1b3	-0.008598733
64	0x3e130afe	0.14359662
65	0xbba755f7	-0.0051066834
66	0x3d9b856e	0.07593809
67	0xbdf5689d	-0.11982844
68	0xbc2ad57c	-0.010426875
69	0x3d52d09c	0.051468477
70	0x3d1045e6	0.03522291
71	0xbd8922ba	-0.06696077
72	0xbcabf6bd	-0.020991677
73	0xbd9ea6d2	-0.07746662
74	0xbdda5308	-0.10660368
75	0xbd90dafd	-0.07073019
76	0x3cc0ea66	0.02354927
77	0xbd8b550f	-0.06803333
78	0x3d39bd97	0.045346823
79	0x3dbd7dcb	0.09252509
80	0x3e093844	0.1340037
81	0x3d804aa9	0.0626424
82	0x3d9a5519	0.07535762
83	0xbc7c8b2c	-0.015414041
84	0xbdc899c5	-0.09794954
85	0x3d7d0195	0.061769087
86	0xbd8e5b27	-0.0695098
87	0xbd81306e	-0.06308065
88	0xbcc0b5bc	-0.023524158
89	0x3cecfd80	0.028929472
90	0xba3f4a91	-0.0007297183
91	0x3c157691	0.009122507
92	0xbb8d4835	-0.0043115863
93	0xbd658559	-0.056035373
94	0x3c8927fc	0.016742699
95	0x3e25753e	0.16158006
96	0x3cbc80b5	0.023010591
97	0xbdb13ff2	-0.08654775
98	0x3e194ec9	0.1497146
99	0xbc89f7c0	-0.01684177
100	0x3da1dace	0.07903062
101	0xbb0b2e2b	-0.0021237235
102	0xbe0c80cb	-0.13721006
103	0x3e0d672f	0.13808893
104	0xbe019196	-0.12653193
105	0xbddbf595	-0.107402004
106	0xbd317f25	-0.043334145
107	0x3cb83c5b	0.022489717
108	0x3e298972	0.16556337
109	0x3d2519db	0.04030786
110	0xbd928ac0	-0.07155371
111	0x3d1c0592	0.03809125
112	0xbcb8c488	-0.02255465
113	0x3d083a0b	0.03325848
114	0xbd8dc9be	-0.06923245
115	0x3bab0d62	0.005220101
116	0xbe117da5	-0.14208086
117	0xb92078a7	-0.00015303736
118	0xbe087366	-0.13325271
119	0xbdb913fc	-0.09037015
120	0x3e158303	0.14600758
121	0xbdd55edc	-0.104184836
122	0x3dd51b92	0.10405649
123	0x3d9364a2	0.071969286
124	0x3d5925b9	0.05301449
125	0x3e095751	0.13412215
126	0xbd5bb29a	-0.053637125
127	0x3db46e64	0.08810118
128	0x3cf98114	0.030457057
129	0x3d5115a5	0.051046032
130	0x3df39730	0.11894071
131	0xbdb367b1	-0.08760012
132	0x3d9a8d3e	0.07546471
133	0xbd78b5d0	-0.060720265
134	0xbda45ad1	-0.08025134
135	0x3dabcb7d	0.08388422
136	0x3d7604e7	0.06006327
137	0x3dd73895	0.10508839
138	0x3e464292	0.19361332
139	0xbd768d7b	-0.06019352
140	0xbdac3717	-0.08408945
141	0xbde27c9e	-0.11058925
142	0x3d81172a	0.06303246
143	0xbdf8e25d	-0.1215255
144	0x3d64da3f	0.0558722
145	0x3d9d91e3	0.07693841
146	0x3e12d1cd	0.14337845
147	0xbd53e448	-0.051731378
148	0xbe1915a1	-0.14949657
149	0x3a88d004	0.001043797
150	0x3dfa0180	0.12207317
151	0xbd834846	-0.064102694
152	0xbcdc5cea	-0.026899774
153	0x3d8135c3	0.06309082
154	0xbdb31174	-0.08743563
155	0x3c20d4a1	0.00981632
156	0xbd4ca035	-0.049957473
157	0xbc915bd6	-0.017743986
158	0xbc71e4c7	-0.014764017
159	0x3d3cc911	0.04609019
160	0xbd9ed6f0	-0.0775584
161	0xbe028e8b	-0.12749688
162	0x3b49cb1f	0.0030791236
163	0x3e1d4626	0.15358791
164	0xbdd514f9	-0.10404391
165	0xbd77c26a	-0.060488142
166	0xbcb999a9	-0.022656279
167	0x3e003d80	0.1252346
168	0x3dc4f830	0.096176505
169	0x3df04907	0.11732679
170	0xbd15099b	-0.036386114
171	0x3dc1c534	0.09461442
172	0xbcd5f891	-0.026119502
173	0x3db2c6b1	0.08729304
174	0xbe59c1df	-0.21265362
175	0xbd91599b	-0.07097169
176	0xbde3b335	-0.111181654
177	0xbe33ef00	-0.1757164
178	0x3df5861b	0.11988469
179	0x3e3201b4	0.17383462
180	0x3d766bb2	0.0601613
181	0xbc241101	-0.01001382
182	0xbd5f3236	-0.054491244
183	0xbda5b517	-0.08091181
184	0x3ddab1a8	0.106784165
185	0xbdc97ebb	-0.09838625
186	0x3db0bb27	0.086294465
187	0xbe05eb63	-0.13078074
188	0x3e116522	0.14198735
189	0xbd66c963	-0.0563444
190	0xbc2f7c4f	-0.01071079
191	0x3d545498	0.051838487
192	0x3c5aef3d	0.013362703
193	0xbc58c5ee	-0.013230784
194	0x3e47a97c	0.19498247
195	0xbca1907b	-0.019722214
196	0xbd062030	-0.03274554
197	0xbdde1c29	-0.10845215
198	0x3c989151	0.01862398
199	0xbd94afd8	-0.07260102
200	0xbe4a6140	-0.1976366
201	0xbd2de9b5	-0.04245921
202	0x3ce87e95	0.028380672
203	0x3e16f2dd	0.14741082
204	0x3d81a4cd	0.063302614
205	0x3df0f80d	0.11766062
206	0x3d0ce7d7	0.034400787
207	0x3d07a125	0.033112664
208	0xbda19ffb	-0.07891842
209	0xbd6c93dc	-0.057758197
210	0xbc9eec5c	-0.019399814
211	0x3d9c43c4	0.07630113
212	0xbde75d8a	-0.11297138
213	0x3d8140ae	0.06311165
214	0xbd87b596	-0.06626432
215	0xbdc3f6ef	-0.09568583
216	0x3dff0906	0.12452893
217	0xbe91a1d9	-0.28443792
218	0x3e338d94	0.17534477
219	0x3e469575	0.19392951
220	0x3c8fd8ef	0.017559497
221	0x3d79bd47	0.060971525
222	0x3d93658e	0.071971044
223	0x3dfde2f6	0.12396805
224	0xbd9105b6	-0.070811674
225	0x3cd9b3d3	0.026575005
226	0x3dbdbb60	0.092642546
227	0x3cfb72f1	0.030694457
228	0x3db9ca5e	0.090718016
229	0xbd30ddf0	-0.043180406
230	0x3dd5235f	0.10407137
231	0xbe29dff8	-0.16589344
232	0x3d0cd6e8	0.034384638
233	0x3d44d794	0.048057154
234	0xbdfd54ce	-0.12369691
235	0x3de55242	0.1119733
236	0x3dbac4c5	0.09119562
237	0x3deed924	0.1166251
238	0x3e0aeeef	0.13567708
239	0x3c906473	0.017626023
240	0xbdf5e37d	-0.120062806
241	0x3d226123	0.039643418
242	0xbd2652c0	-0.04060626
243	0xbdc51644	-0.096233875
244	0xbdf30f2e	-0.1186813
245	0x3ce100a5	0.027466128
246	0xbdd4c353	-0.10388818
247	0x3e0ee5c2	0.13954833
248	0x3d466bd1	0.048442665
249	0x3da3c8d9	0.07997293
250	0x3c5670a0	0.013088375
251	0x3db8a09a	0.09015007
252	0xbd3be275	-0.045870263
253	0x3df897a3	0.121382974
254	0x3de4ede8	0.111781895
255	0xbcb7c093	-0.022430694

fc2.linear.weight f4 [5, 50]
0	0xbdde0579	-0.108408876
1	0xbe1ebdc6	-0.1550208
2	0x3e09a4ce	0.13441774
3	0x3d15ae61	0.036543254
4	0x3c9b3104	0.01894427
5	0xbdb83b17	-0.089956455
6	0x3cdde714	0.027087726
7	0xbd3f07f2	-0.046638437
8	0xbd997fe9	-0.074951
9	0xbdf1b521	-0.11802126
10	0xbe2cad3b	-0.16862957
11	0x3c78e0c4	0.015190307
12	0xbd14671b	-0.03623114
13	0xbdedfe3c	-0.11620757
14	0x3c6eb6a1	0.014569909
15	0x3b1e8684	0.0024189064
16	0x3d81bc1d	0.06334708
17	0x3d06a595	0.032872755
18	0xbdfac5c5	-0.12244753
19	0xbd50d56b	-0.05098478
20	0xbbba21d1	-0.0056803008
21	0xbd0c182f	-0.03420275
22	0xbe4c7176	-0.19965157
23	0x3e026505	0.12733848
24	0xbe57b5f4	-0.21065503
25	0xbd9f3f3f	-0.07775735
26	0xbc4cc98a	-0.0124992225
27	0x3e0cf96a	0.13767019
28	0x3dc03d93	0.09386744
29	0xbd0e22d0	-0.03470117
30	0xbe24c8e1	-0.16092254
31	0xbd12a7ab	-0.035804432
32	0xbd66ae72	-0.056318708
33	0xbe38efcc	-0.18060225
34	0x3d85d09e	0.06533931
35	0x3cfec1fb	0.031098356
36	0x3bcd1cc7	0.006259534
37	0xbccd8219	-0.02508645
38	0xbdb22053	-0.086975716
39	0x3d10bc68	0.03533593
40	0xbdeec8fd	-0.11659429
41	0x3e145a78	0.14487636
42	0xbce704b8	-0.028200492
43	0xbd827054	-0.06369081
44	0x3dbcd7d0	0.092208505
45	0x3bbdb367	0.0057892087
46	0xbd4511ae	-0.048112564
47	0xbda17663	-0.078839086
48	0xbbd65f08	-0.0065420903
49	0x3cc04b21	0.023473324
50	0xbd0ba769	-0.0340952
51	0xbd85384e	-0.0650488
52	0xbd312012	-0.043243475
53	0xbe0c2769	-0.13686909
54	0xbe541207	-0.20710002
55	0xbdc88f28	-0.0979293
56	0x3d6813c3	0.05665947
57	0x3da63346	0.081152484
58	0x3d236245	0.03988864
59	0xbd25647d	-0.040379036
60	0xbb940f05	-0.004518392
61	0xbd2f92cd	-0.04286461
62	0xba30072a	-0.0006714935
63	0xbd902ab8	-0.07039398
64	0xbdd9e044	-0.106384784
65	0x3d328cf1	0.043591443
66	0x3cb258f2	0.021770928
67	0xbd0eaf9e	-0.03483545
68	0x3d98eda5	0.07467202
69	0x3d6ac582	0.057317264
70	0x3d976ef9	0.07394213
71	0xbc9e78ec	-0.01934477
72	0xbc96680e	-0.018360164
73	0x3d12e091	0.035858694
74	0xbd358572	-0.044316716
75	0x3cc2f35b	0.023797682
76	0xbbb1be7c	-0.005424319
77	0x3d187288	0.0372186
78	0xbd000fd2	-0.031265087
79	0xbc968476	-0.01837371
80	0x3c76c3fb	0.015061374
81	0xbe450b2b	-0.19242541
82	0x3db018fc	0.085985154
83	0x3d18bb5a	0.037288047
84	0xbb6c6c2c	-0.0036075218
85	0xbe2cc338	-0.16871345
86	0x3db342af	0.08752953
87	0xbd9284a3	-0.07154205
88	0x3dcd0fdf	0.10012793
89	0xbdd079dc	-0.10179493
90	0x3c2e0a2d	0.010622543
91	0x3d873312	0.06601538
92	0x3c921d9c	0.017836384
93	0x3d5f5ad3	0.054529976
94	0xbe286e97	-0.16448437
95	0x3de7d684	0.113202125
96	0x3cfd721d	0.030938203
97	0xbe03c472	-0.12867907
98	0xbd79906b	-0.060928743
99	0xbcfdb5c6	-0.030970465
100	0x3d19006d	0.03735392
101	0x3e3437b8	0.1759938
102	0xbe228ed9	-0.15874805
103	0xbdcaf02f	-0.09909093
104	0x3d11b078	0.035568684
105	0xbdde1b07	-0.10844999
106	0xbda2b368	-0.07944375
107	0x3c5c2f17	0.0134389615
108	0xbda8d951	-0.08244575
109	0xbe26b878	-0.16281307
110	0x3d5435ec	0.051809236
111	0x3d88aac1	0.06673194
112	0x3d09f9e2	0.033685572
113	0x3e07bbf5	0.13255294
114	0xbe1ac087	-0.15112506
115	0xbe40fa70	-0.18845534
116	0xbdfae921	-0.12251497
117	0xbe14567e	-0.14486119
118	0xbe374789	-0.17898382
119	0xbe09bd09	-0.13451017
120	0x3e0eb275	0.13935263
121	0x3dd18e8c	0.10232267
122	0x3d076770	0.03305763
123	0xbbbf3faa	-0.005836447
124	0x3c48f1ee	0.012264712
125	0xbc169ef1	-0.009193168
126	0xbd57d660	-0.05269468
127	0xbe380326	-0.17969951
128	0xbdd6105f	-0.10452341
129	0xbd20c235	-0.03924771
130	0xbc71c433	-0.01475625
131	0xbd268e97	-0.040663328
132	0xbd8ee740	-0.06977701
133	0xbd90fdae	-0.070796356
134	0x3d929283	0.07156851
135	0x3d8a274d	0.06745777
136	0x39fa2f65	0.00047719027
137	0x3d9c2d4c	0.07625827
138	0xbd33d288	-0.04390195
139	0x3da7ae5d	0.08187554
140	0xbd91b44d	-0.07114468
141	0xbd01b699	-0.03166828
142	0x3e19e41d	0.15028425
143	0xbdb71db1	-0.0894121
144	0x3c936df5	0.017996768
145	0x3d9d4a63	0.07680204
146	0xbdeb3140	-0.11484003
147	0xbd981d16	-0.07427423
148	0xbc97c1fb	-0.018525114
149	0xbe1ea815	-0.15493806
150	0xbd2c682e	-0.04209154
151	0x3ce72c10	0.028219253
152	0xbde38ad9	-0.111104675
153	0xbde9c6f2	-0.11414899
154	0x3d9ff02b	0.0780948
155	0x3d2d2d6f	0.042279657
156	0x3d5a9d7c	0.053372845
157	0xbd981b60	-0.07427096
158	0xbc96f2d4	-0.018426336
159	0x3bb2099b	0.005433274
160	0xbd9c9d95	-0.07647244
161	0xbd6c42e0	-0.057680964
162	0x3c33608c	0.010948312
163	0xbe14e7c8	-0.14541543
164	0xbd0a3434	-0.03374119
165	0x3d83c0e2	0.06433274
166	0x3cf5b97c	0.029995672
167	0x3d9d4c98	0.07680625
168	0xbd5c29d0	-0.053750813
169	0x3de7e621	0.113231905
170	0x3d4973ec	0.049182817
171	0x3c74f365	0.014950608
172	0xbd5cfad0	-0.05395013
173	0xbdacde2e	-0.08440815
174	0x3d50c2a0	0.05096686
175	0x3cc4cfc5	0.024024853
176	0xbe28b0b8	-0.16473663
177	0xbe7d342d	-0.24726935
178	0x3cbfd768	0.023418143
179	0x3ddfb3b2	0.10922946
180	0x3dcd2813	0.10017409
181	0x3db13a09	0.086536475
182	0xbcd5ebdf	-0.026113449
183	0xbe298443	-0.1655436
184	0xbda3a66a	-0.07990725
185	0x3d1b48eb	0.037911337
186	0xbd79b207	-0.060960796
187	0xbd189ee1	-0.037260894
188	0x3de1d8ee	0.11027704
189	0x3d5bf7e3	0.0537032
190	0xbd101673	-0.03517766
191	0x3d7758da	0.06038747
192	0x3d46ca1c	0.04853259
193	0xbdd6ddfd	-0.1049156
194	0xbdcf0e89	-0.10110194
195	0xbe059492	-0.13044956
196	0x3d9c1f82	0.07623197
197	0x3de786ec	0.11305031
198	0xbd8b24ac	-0.06794104
199	0xbe36830e	-0.17823431
200	0xbd478202	-0.04870797
201	0xbd74202a	-0.059600987
202	0xbe3ddd93	-0.18541555
203	0x3bb0af6c	0.0053920057
204	0x3d29ec53	0.041485142
205	0xbde1e353	-0.11029687
206	0xbe04ea9e	-0.12980124
207	0xbe2f461c	-0.17116588
208	0xbe49e80a	-0.19717422
209	0x3dd66fa9	0.10470516
210	0xbd1b62d2	-0.03793604
211	0x3a8eb0bb	0.001088641
212	0x3c88f8cd	0.0167202
213	0xbdf63e08	-0.1202355
214	0x3d2d0261	0.042238597
215	0xbc9edca1	-0.019392313
216	0xbdd0fd66	-0.10204582
217	0xbda9d77f	-0.08293056
218	0x3db06895	0.086136974
219	0x3d1678e3	0.03673638
220	0x3d880560	0.0664165
221	0xbd3a6d88	-0.045514613
222	0x3df09165	0.11746482
223	0x3b82b5f7	0.003988977
224	0xbd6d08dc	-0.057869777
225	0xbb8e7bcb	-0.0043482534
226	0xbcacc62b	-0.021090588
227	0x3dd51334	0.10404053
228	0xbe020abe	-0.1269941
229	0xbe402a9c	-0.18766254
230	0x3d1f2521	0.03885377
231	0x3cd3e549	0.025866168
232	0xbd836d47	-0.064173274
233	0xbc42924d	-0.011875701
234	0xbcbb6b11	-0.022878202
235	0xbd82e264	-0.06390837
236	0xbda20951	-0.07911933
237	0xbcadc634	-0.021212675
238	0xbdbe8a10	-0.09303677
239	0x3d3b8040	0.045776606
240	0x3af73c5a	0.0018862591
241	0xbe1be90a	-0.15225616
242	0x3cd5883f	0.026065944
243	0xbc969ac5	-0.018384347
244	0x3e178222	0.14795735
245	0xbe211417	-0.1573032
246	0x3ca56b32	0.020192716
247	0xbd415703	-0.04720212
248	0xbd4a9ac0	-0.049463987
249	0x3defd767	0.117110066
