experiments/classification/toy/gaussian_mixture/pretrained/2025-05-08_11-19-07/RepulsiveCrossEntropy_Deep Ensemble.pt (torch, 299330 bytes, 400 tensors)

models.0.fc1.weight f4 [50, 2]
00000000: 20ff f63e 0175 2fbf 28e7 61be 49ca 1dbf
00000010: e884 a53e fc40 da3e 7c6c 143f d27c 03bc
00000020: 4325 1fbf 439b e63e e808 003e 1512 41bd
00000030: 98d5 14bf 68b6 0d3d a803 1cbe b200 973e
00000040: 8fd0 953e a19c 0b3f 3703 bcbe 21bd 073f
00000050: f5fc 893c 22b4 b0bd 6a4d b53d fd9d 573e
00000060: df49 44bf 0e5b c7be ac08 153f 8b3c cabe
00000070: 407d 0a3f 6c5a 873d 5d10 05bf 1008 5c3e
00000080: cfcf 793e 587b 503e 681a 91be 1bf3 25bf
00000090: d77a 0d3e 5f64 233f e21a 1ebe 5672 c7be
000000a0: 5358 03bf bafd f1be 4f17 12bf fbb0 003e
000000b0: f297 10be 5feb a6be c77a 183f 1f33 39bf
000000c0: 94c1 b33e dcc4 0dbf 31aa e33d 1f0a 283f
000000d0: a399 403e 65c6 16bf a743 023e 83fd 2b3e
000000e0: c173 c23e c718 4fbe f396 05be dc58 033f
000000f0: d92b bc3e 1eda 333c 46e4 1dbf 5fa5 0d3f
00000100: 4226 a23e 2e20 3b3f bf1b 56be 5edb 6dbe
00000110: 1bb2 03bc 9fb9 cabe c049 8c3d f922 2ebe
00000120: 3104 d2be 4ae4 ae3e 0450 08bf bd17 27bf
00000130: ce1e 2dbe a5ac 0abf 201e 20be 7abc c73d
00000140: c83a f2be 4726 a2be 5e45 343a 73ad e6be
00000150: 2d91 db3c 27bc b0be 1a07 32bf 6467 093f
00000160: abd8 b1be 9753 e63e 165e 05be 5f0c 1abf
00000170: 8b75 5bbc 4c06 cb3d 28a5 28bf 907b d03e
00000180: 8316 de3e 219c 2cbf b986 f8be 132d b3be
0.4824152 -0.6853791 -0.22060835 -0.6163679 0.32327962 0.42627704 0.57978034 -0.008025365
-0.6216623 0.4504033 0.12503397 -0.047136385 -0.5813842 0.034597784 -0.1523577 0.29492718
0.2926068 0.5453587 -0.36721203 0.5302296 0.016844252 -0.086281076 0.08852656 0.21056361
-0.7667522 -0.38936657 0.5821636 -0.39499316 0.54097366 0.066090435 -0.51978093 0.2148745
0.24395679 0.20359552 -0.2834046 -0.64824075 0.13816391 0.6382503 -0.15439942 -0.3895442
-0.5130665 -0.4726389 -0.57066816 0.12567513 -0.14120463 -0.3260145 0.59562343 -0.7234363
0.35108626 -0.5537851 0.11116446 0.65640444 0.18808608 -0.58896476 0.1272112 0.16795926
0.37978938 -0.20224296 -0.13045864 0.51307464 0.36752203 0.010977296 -0.6167644 0.5533046
0.31669813 0.7309598 -0.20909022 -0.23228213 -0.008038069 -0.39594743 0.06850004 -0.17005529
-0.41018823 0.34158546 -0.53247094 -0.65270597 -0.16906282 -0.54169685 -0.15636492 0.09752746
-0.47310472 -0.31669828 0.00068767916 -0.45054206 0.026802624 -0.3451855 -0.69542086 0.53673387
-0.34735617 0.4498565 -0.13024172 -0.60175127 -0.013394724 0.099133104 -0.6587701 0.4071927
0.4337655 -0.67425734 -0.48540285 -0.34995326

models.0.fc1.bias f4 [50]
00000000: d079 80bd 08ea 253f d368 08bf a228 eebe
00000010: fedb c6bc 50a6 193d d0fa 1dbf eb22 783e
00000020: a09f 09bb 40a0 57be 4c4a ae3e bc74 07bf
00000030: 4f83 a13e b054 a1be c86f 983e 4d0e d63e
00000040: 6970 373f 8b91 ac3e 086a 8bbe 3d1f 313f
00000050: 1908 f93e 97d0 f33e afd8 b03e 90bf 01bf
00000060: ed67 443e 9b3c 16bf 7fdb 29bf 1213 21bd
00000070: 6df7 a2be 0741 583d ee62 a93e 8c78 063f
00000080: bf59 223f 9b7b 6a3d 3ae8 443e 37fb 87be
00000090: d8ac 29bf 361e 7f3d d459 76be 176d 38bf
000000a0: 09ef cbbd 007d 053f 2bec 483c d8b7 91be
000000b0: 0e3c d6be 838f 073f 00a6 cf3d 71bd 2ebf
000000c0: 2eb6 9eba 8631 3b3f
-0.06273234 0.6481023 -0.5328495 -0.46515375 -0.024274822 0.037512124 -0.61710835 0.2423207
-0.0020999685 -0.21057224 0.3404106 -0.529125 0.31545493 -0.31509924 0.29772782 0.41807786
0.716559 0.3370479 -0.27229333 0.6918829 0.4863899 0.4762008 0.34540316 -0.50682926
0.1918027 -0.58686227 -0.6635055 -0.039324827 -0.31829396 0.05279639 0.3308329 0.5252769
0.6341819 0.057246786 0.19229212 -0.2655885 -0.66279364 0.06228467 -0.24057704 -0.7204146
-0.09957702 0.5214386 0.012263338 -0.28460574 -0.41842693 0.52953357 0.10139084 -0.68257815
-0.0012108737 0.7312244

models.0.fc2.weight f4 [5, 50]
00000000: 2862 0cbd 3e6f 3cbe 83a4 95bd 8f52 313e
00000010: fe04 b4bc c62f 533d 5a09 01be bf0f b1bb
00000020: a1db 7e3c 283f ccbd ee2e 0f3d e948 24bd
00000030: 9c38 a6bd 520c 603e 8d7e 2bbc 04c6 ddbc
00000040: 6408 6bbd 50a8 1dbe 771c 873d 1e13 e9bd
00000050: 712e 3a3d c4a0 0ebe 7cae fe3c 1016 ca3d
00000060: c366 1b3e b07c c03c 8d51 e33c 9da7 b8bd
00000070: 5541 973d 34b0 333d 49dc 333e f1bc 253d
00000080: 4c65 043e cfca 25be a5e7 89bd 17d0 abbd
00000090: 6888 a63d 3ff6 013c 6f34 39be 25f7 023c
000000a0: 718a fabd 38ca 173d 686b 6e3c 62e7 bbbd
000000b0: 227d 00bd d855 fdbd 0bc3 c2bd 04e7 813d
000000c0: fe1d a3bc 8e3c 263d 602d 593d ebc7 0f3d
000000d0: f748 e63d e278 ecbd 0331 d13b 9614 01be
000000e0: a4e0 913d fd45 8abd 08bc 0d3e 1d30 023e
000000f0: ff42 28be f059 d13d 9b9c b93d ea54 9cbd
00000100: e84e 303d b84d 2bbe b6a4 82bd b2d3 c33d
00000110: c105 283e 7af0 22be 4b7f a03d 420e 04be
00000120: 0b91 293d 7c6a 2ebe 2426 9cbd d78a 233e
00000130: 3661 23be 43c9 2a3d 190b 273d 8aa4 053e
00000140: 808d 92bd 7861 47bd 1255 f63d 4794 c83d
00000150: cead b13d cf1e 053d 883f 12bd 9075 25bd
00000160: 4550 45bd e1ed 35be 85c3 2e3d b6d0 cc3d
00000170: 1f43 993d ec85 80bd 0394 cebd 9175 c73d
00000180: 3eec f2bc daa2 cdbd afe4 0c3d e9f0 a9bd
00000190: f657 20be 479e 173d b267 0ebd 53f4 903c
000001a0: b8a5 d73d 8c16 a8bd eb32 acbc cc1a 01bd
000001b0: 2131 1c3d f323 43bd 9604 30be f48e 33be
000001c0: 943b 233e b6f1 febd 8d69 1abe 0a45 abbc
000001d0: 39c0 d8bd 1114 20bd 2e3c bfbb 4bcc 34be
000001e0: 6487 ac3d 831f 88bd 25e7 edbd e287 05be
000001f0: 9117 3abd 9b3b b7bc ce30 b9bb 534e 0fbe
00000200: 5e66 eb3c 6458 203d b1ed a23c 2686 f83c
00000210: b924 463d 1df0 4e3d 1296 4bbe 02a1 1bbe
00000220: 72c9 2abc aa9c eebd 8eb9 1fbe 02da 77bd
00000230: f08c ab3d e2b1 8b3d ca2d 6dbd 2cbb ecbc
00000240: 3077 643b ed28 38be 9e62 8dbd 8b3d df3c
00000250: 6c93 35bd 28d7 0e3d 53c5 33be 81f4 c03d
00000260: 3431 1cbe eb50 54be c008 363c 2c7b 9e3d
00000270: 10ed 533c be58 35be b5e9 ec3c 8599 1abe
00000280: 3f39 533d 8a05 e1bd 1d6c df3d 6aae 0fbe
00000290: 9e31 a8bd d334 c33c c87b 3bbe 8671 f13d
000002a0: c330 c53c 8790 bc3d c352 693d 2196 4c3d
000002b0: c295 0d3e 2237 cebd 1599 24bc 65f1 c4bd
000002c0: a2d4 96bd 5b02 88bc 3f52 6bbd faed c9bd
000002d0: 515a 11be 44c8 95bd 9269 44be e26f 1f3d
000002e0: a36a c7bd 99d3 3abe 40f1 a63d 4eda 0e3e
000002f0: e0a4 6cbb e23a 683d 1d72 fa3d 8b2a 233e
00000300: abb0 a83c 3a22 d8bb a72f 3cbe 4bea b1bd
00000310: ba63 f5bd a566 3cbd eec0 af3d 92c5 81bc
00000320: 82a9 383e 4a8b c1bd 4c59 fcbd 9090 683d
00000330: 90ab 48be 3e11 05bd 8df1 0ebe 2705 823d
00000340: 4221 b7bc bc70 32be fa6f 303d 532a b2bc
00000350: 2186 f1bd 3ddc 8dbd 7ce4 debd a4b3 39be
00000360: 4add 33be da52 903c a8cb 5e3d 22bb babd
00000370: a945 233d 1bb7 2ebd 550d 303e 2d24 a13c
00000380: 9a23 2f3d e7cc 9ebd 2826 71bc e286 20be
00000390: 6e38 9fbd f58d 1dbe c40c 1f3d 602e 6a3d
000003a0: 6249 edbd 4cbf 203e ae29 1e3e e7fc e93d
000003b0: fd26 f0bd c704 d4bd 5a08 443d 68e5 09be
000003c0: 0a94 8ebc 401d b23d 0dbe b2bd 53bd 48be
000003d0: 895f 03bd 6912 7b3d caa6 a5bd 2f8b debd
000003e0: bb51 333b 126c c53d
-0.034273297 -0.1840181 -0.07306769 0.1731665 -0.021975037 0.051559232 -0.12601224 -0.0054034884
0.015555293 -0.099729836 0.034956865 -0.040108595 -0.08116266 0.218797 -0.010467184 -0.02707196
-0.05738105 -0.15396237 0.06597226 -0.113805994 0.045454446 -0.13928515 0.03108906 0.09867489
0.15175919 0.023496956 0.027748847 -0.09016345 0.07385508 0.043869212 0.17564501 0.04046339
0.12929267 -0.16190647 -0.06733636 -0.08389299 0.08131486 0.007932245 -0.18086408 0.007993494
-0.12233437 0.037058085 0.014551975 -0.09174992 -0.031369336 -0.12369889 -0.09509858 0.06342891
-0.019911762 0.040585093 0.05302179 0.035102766 0.11244386 -0.11546494 0.0063840165 -0.12605509
0.07122925 -0.067516305 0.1384126 0.12713666 -0.16431807 0.10222232 0.09063073 -0.076333836
0.043044 -0.16728866 -0.06379072 0.09561862 0.16408445 -0.15912047 0.07836779 -0.12896064
0.04139809 -0.17032808 -0.07624462 0.15970932 -0.15955052 0.041695844 0.040782068 0.13051048
-0.07155895 -0.048676938 0.120279446 0.09793907 0.08675729 0.032500084 -0.03570512 -0.04039532
-0.048172254 -0.17766525 0.04266693 0.10000746 0.074835055 -0.062755436 -0.10086825 0.09739221
-0.029653665 -0.10040827 0.034397777 -0.08297903 -0.15658554 0.03701618 -0.03476686 0.017694628
0.10529655 -0.082074255 -0.021020373 -0.031519696 0.03813279 -0.047641706 -0.1718925 -0.17535001
0.15940696 -0.124484465 -0.15079327 -0.020906944 -0.105835386 -0.039081637 -0.0058360314 -0.17656057
0.08424261 -0.066466354 -0.11616353 -0.13040116 -0.04543263 -0.02236729 -0.00565157 -0.13994722
0.028735336 0.039146796 0.01988873 0.030337404 0.048374865 0.05052196 -0.19881466 -0.15198138
-0.010424005 -0.11650975 -0.15598127 -0.060510643 0.08376491 0.06821038 -0.057904996 -0.028897844
0.003486108 -0.17984362 -0.06903575 0.027251026 -0.044330046 0.034873158 -0.17555742 0.094216354
-0.15253145 -0.20733993 0.011110485 0.07738337 0.012934938 -0.17709634 0.028920034 -0.15097626
0.051568266 -0.109873846 0.10909293 -0.14031377 -0.08212589 0.0238289 -0.18308938 0.11789231
0.024071103 0.09207254 0.056963693 0.04994786 0.1382666 -0.100691095 -0.010046263 -0.09616355
-0.07364775 -0.016602686 -0.057451483 -0.098598436 -0.14194609 -0.07313588 -0.19180897 0.03892506
-0.09737136 -0.1824478 0.081514835 0.13950464 -0.0036109015 0.05669678 0.12228797 0.15934198
0.020592054 -0.006595877 -0.18377553 -0.08687266 -0.11981912 -0.045996327 0.0858172 -0.01584128
0.18033412 -0.094503954 -0.123217195 0.05677849 -0.19596696 -0.032487147 -0.13959332 0.06348639
-0.022354726 -0.17425817 0.04307554 -0.021748697 -0.11793161 -0.06926773 -0.10883424 -0.18134934
-0.17564884 0.017617632 0.05439344 -0.09117724 0.039861355 -0.04265509 0.17192586 0.01967057
0.04275856 -0.07753926 -0.01471857 -0.15676454 -0.07774435 -0.15386184 0.038830534 0.057173133
-0.11586262 0.15697974 0.15445587 0.114251904 -0.117261864 -0.10352474 0.047859527 -0.13466418
-0.017404575 0.08696985 -0.087276556 -0.19603471 -0.03207353 0.061296854 -0.08088453 -0.10866391
0.0027361948 0.096397534

models.0.fc2.bias f4 [5]
00000000: 2ab0 843d 0e12 c73c 323e ae3d 4bbc cebd
00000010: 7f95 c8bc
0.06478913 0.024300601 0.085079566 -0.10094508 -0.024485348

models.1.fc1.weight f4 [50, 2]
00000000: 5b01 7e3e 7260 c53e c0df 1b3f 4770 0e3f
00000010: 3cba cb3d bacf fa3e e9b7 02bf 1f86 dbbd
00000020: 28b5 e33d 26c9 efbe c02f 333f e210 183f
00000030: ddd9 353f a63f 6bbe 6013 fb3e 3f5d f53e
00000040: 5947 eb3c 579e 2ebe dcd5 e03e da0e 273f
00000050: c715 293f 4618 2cbf 71d8 253f 4a1b a3be
00000060: ae3a e63e 015a d93e 0c78 09bf 9252 dbbe
00000070: 0e65 4abc c9ab b4be 8a49 f2be 1343 0cbf
00000080: 2baa 783e a782 47be aa98 f13e 9b1a 70be
00000090: 021e cc3b b00e eebd 859f aabe 393e 9c3d
000000a0: 01e4 7ebe 37ba 9cbe 063e 0abf 8855 54be
000000b0: 3c87 cdbc 1162 aabd b07a db3e f58d 83bd
000000c0: e607 94be 78bf 043f 643a d5be 3cc4 e13e
000000d0: d25c 26be 72f4 08bf 633e b93e a91c 173f
000000e0: 5100 23bf 45bd 38bf 1b27 29bf 8d71 1d3f
000000f0: 11c7 fabe eddd f3be 3953 9cbe 402c 5dbe
00000100: 495e 383f 14b5 243f 00ea fb3e a90c 213f
00000110: 92aa 90be 3c09 dfbe 981a 563e 00b2 9433
00000120: 69f2 e03e 8dfc ebbe be13 c2be f325 bdbc
00000130: fe76 5ebe cf85 ff3e 73c6 aa3e b746 b43c
00000140: 9a2d 87bd bb0e 0cbf a73a c23d 00fe d5be
00000150: 1549 2e3f f187 c8be 4dca b93c 6b3c 8e3d
00000160: d660 1f3f 6c27 b23e 28ef 11bf c783 e33e
00000170: 9ebe c03e 5fd4 bbbe 4598 e4be bef4 bcbe
00000180: 58c2 71be fe97 30bf da3b 173f 2a80 05be
0.24805205 0.38550144 0.6088829 0.5564007 0.09947631 0.48986608 -0.51061875 -0.10718941
0.11118537 -0.46833152 0.69994736 0.5940076 0.7103556 -0.22973499 0.4903822 0.47922704
0.028720545 -0.1705259 0.43913162 0.65257037 0.66048855 -0.6722454 0.6478339 -0.31856757
0.44966644 0.4245148 -0.536988 -0.42836434 -0.012353195 -0.35287312 -0.4732173 -0.5478985
0.24283664 -0.19483434 0.47186786 -0.23447649 0.006229163 -0.11623895 -0.3332483 0.076290555
-0.24891664 -0.3061082 -0.5400089 -0.20735753 -0.025088899 -0.08319486 0.4286704 -0.064235605
-0.28912276 0.5185466 -0.4164611 0.44095027 -0.16246346 -0.53497994 0.3618041 0.59028107
-0.6367236 -0.721638 -0.66075295 0.6150139 -0.4898 -0.47630253 -0.30532244 -0.21598911
0.7201887 0.64338803 0.49201965 0.6290994 -0.28255135 -0.43561733 0.20908582 6.924165e-08
0.43934944 -0.46091118 -0.37905687 -0.023089385 -0.2172508 0.49906775 0.3335453 0.022006376
-0.06600495 -0.54709977 0.09483843 -0.4179535 0.68080264 -0.39166215 0.022679472 0.069451176
0.62257135 0.34795702 -0.5700555 0.44436476 0.3764543 -0.36685464 -0.44647422 -0.36905473
-0.23609293 -0.6898192 0.590757 -0.13037172

models.1.fc1.bias f4 [50]
00000000: b12a 0dbe 80bf ca3d 4707 db3e b892 0dbf
00000010: 2682 03bf e64a b2be dc79 0b3e fed0 ffbe
00000020: e836 27be 7c7c 2fbf 78bd 863e 0efa 263f
00000030: b0e7 82be 2563 c13e 5508 2a3f dec6 123e
00000040: 92f8 0ebe 93bd c2be 2484 a0bd 342a 4dbe
00000050: a004 22bf fca7 bfbe 2ad4 09be bf6c e73e
00000060: 140c 2a3e 3aaa d9be 07f8 29bf 7a62 9a3e
00000070: eaa2 62be 3df6 1f3f ae71 293f b0bb 7e3e
00000080: 48f9 66be 622c 9bbd 3748 20be 99b8 08be
00000090: 125f 2fbf 9e24 13bf 185a dabe e74f 34bf
000000a0: ac89 c03e 5724 e4be f064 b63e 6b2d 1cbf
000000b0: 08be 8dbe 86fc 9a3c fe2e 233f 11b1 243e
000000c0: cf8c 42be d192 0b3f
-0.13785817 0.09899807 0.4277899 -0.55302 -0.51370466 -0.34822768 0.13620704 -0.49964136
-0.16329539 -0.68549323 0.26316428 0.65225303 -0.2556739 0.37770954 0.66418964 0.14333674
-0.1396201 -0.3803526 -0.07837704 -0.2003563 -0.6328831 -0.3743285 -0.1345984 0.45200154
0.1660617 -0.42512685 -0.66394085 0.30153257 -0.2213246 0.62485105 0.66189086 0.24876285
-0.22556031 -0.07576825 -0.15652548 -0.13351668 -0.6850444 -0.5747775 -0.4264686 -0.7043442
0.37605035 -0.44558975 0.35623884 -0.610068 -0.27684045 0.01891924 0.6374358 0.1608317
-0.18999027 0.545209

models.1.fc2.weight f4 [5, 50]
00000000: e17a d0bc 03c9 e8bc 208e cd3c de18 ee3d
00000010: e54a 973d 6383 5e3c 56d9 743d eb17 fd3d
00000020: df90 703d f59f 09be c074 923d 78a7 b4bd
00000030: 19fc e8bd 9a9b a7bd 215e 1e3d af0d 24be
00000040: 4ec8 153e 8dd2 363e b226 6dbd 98a5 d5bc
00000050: e211 2abe d15e 203d 0445 683d d454 a9bd
00000060: d0c6 c73d c0fe bb3d c7cc b2bc c040 b13d
00000070: def9 1fbe ddf8 b93d b577 1f3c f435 803d
00000080: 6d6c bf3d ec20 9f3d 3c14 0dbd 17ab 90bd
00000090: 743a 083d f2c0 f83d 87fa 17bd f318 c13d
000000a0: aa83 1dbe 9f99 1dbe c8ed 6a3c 4bc3 38bd
000000b0: 794e 60bd 9aac d43d b35a 113e 4095 aa3d
000000c0: 9a85 21be 26e6 c13d bc9e 4e3e 73e3 85bc
000000d0: d6bf e93d 1fa8 78bc 3b85 19be dade 293e
000000e0: b654 ecbd d943 293e 8e8e b2bd 61ea fa3d
000000f0: c607 84bd 440d 60be a690 2f3e fe08 4fbe
00000100: d43e 633d 4246 683b c580 70be 4872 783c
00000110: aeaf f93c 1b74 71bd e644 e7bd ced0 67be
00000120: e888 5dbc 34dd 9c3c e867 92bd b5c9 07bd
00000130: d94b 0e3d 1ff9 1e3e 5224 333d e331 b43d
00000140: e173 03be d1c1 4cbe 3128 c3bc e057 86bd
00000150: c20a 79bd 3e2e 09be d406 02be caa3 95bd
00000160: a136 683d 02eb f1bd a020 453d 367c 25be
00000170: 9067 7dbc a5d5 ab3d ada8 0c3e b75d 023c
00000180: 6aa6 6bbd 33cd 45be 05d1 563c c842 31be
00000190: 3f59 673d f58f a4bd 5238 083e 73c4 c93d
000001a0: 41f9 d23d 3d39 96bd e109 0e3d 663f 1abe
000001b0: 8454 03be 7c03 0fbd 31a7 31bc 26f8 90bd
000001c0: ddde 35bd 350f 9b3d 3f16 f8bd e0b3 1a3d
000001d0: 0fdb 003d 2a6d 90bd 5598 94bd 17c4 803b
000001e0: f235 f3bd 7eda 8f3d 14a6 273d c0bd 24bd
000001f0: 2809 8c3d e0b7 e83d 557a 72bd 4f60 8dbd
00000200: 12ba 043e 3a2e 783d 750c 9dbd a4b5 633d
00000210: 0623 22bb 691c 03bb bfb1 69bd cf5b 5c3d
00000220: 411d 66bd 21fb b33b a47d 93bc 6958 da3c
00000230: f4d8 083d 4c5b bd3d cdb4 67bc 53a5 c9bd
00000240: 7386 0c3d b948 8b3c 8560 c23d b84b aa3d
00000250: 84a0 f13d 5bd0 1abe 652e 9ebd e430 c43d
00000260: f7ae 35be 533c ab3d 06e8 28bd 2450 e1bd
00000270: 43c3 3cbd b3ae e03c ab03 f33d 4f10 bfbd
00000280: 8993 153d 92e5 c23d 10a4 44bd 2f2d 913c
00000290: fdd4 d4bc 4c91 0cbc 8039 a83c a95e 30bc
000002a0: bec5 bdbd ac15 c1bd b38d d53d b6d4 bdbd
000002b0: 9527 b1bd e316 9a3d a062 0fbe 7349 f13c
000002c0: 9013 f4bd fd20 b03c 4301 a83d aeaa e53d
000002d0: ada5 963d 9eae eb3d 5774 373d 7f56 35be
000002e0: 64ea f8bb 4c07 ed3d f497 cd3d df4a 15bd
000002f0: a5ff 993d 6684 b33c 02ce 80bd ac69 11bd
00000300: deb6 0e3d 8793 90bd 3dca 75bd 9e9b 3f3d
00000310: 45f6 963d e1f8 93bc 0254 dc3d 0e3d ccbd
00000320: a74a f73d e8d7 29bd fe71 fe3d ff68 5cbe
00000330: 5efa e4bc a006 093e 8504 9f3d 4900 8d3d
00000340: 6374 07bd 8936 9a3d 3c6b 4c3d 6a8c 1c3c
00000350: fda7 13be 376d bbbd 2280 163e 9992 193e
00000360: 290d 0e3e e059 393d 6610 303e 8647 41bc
00000370: 191a 7abd 40c6 31be 68fa 183e 0c47 4c3d
00000380: 5955 14be 2e34 503c eb3c a3bc e87c 183d
00000390: 1e9a b63d 287b 83bd 8c9a bf3c e86a babc
000003a0: 62a1 2cbc 17f2 5cbd cea1 f43d 6caa eebd
000003b0: 7235 493d f389 53be 4838 cebd ae1c 3d3d
000003c0: 80f7 203c 0b76 2b3e 8ee0 ed3d 2c41 9e3d
000003d0: c04d 873d 8647 33be 2c4b 5a3d 85cd b3bd
000003e0: 1f68 c73c 0c4b 4f3c
-0.025449218 -0.028416162 0.025092185 0.11625837 0.07387332 0.01358113 0.05977758 0.123580776
0.05873191 -0.13439925 0.071511745 -0.08821005 -0.11376209 -0.081839755 0.038663987 -0.16020845
0.14627191 0.17853756 -0.05789823 -0.026079938 -0.16608384 0.039152924 0.056706443 -0.08268133
0.09754717 0.09179449 -0.021826161 0.08654928 -0.1562266 0.0908067 0.00973313 0.06260291
0.093468525 0.07769951 -0.034443125 -0.07063883 0.03325887 0.121461764 -0.037104156 0.09428587
-0.15382257 -0.15390633 0.014338918 -0.04510812 -0.054762337 0.10384484 0.14194755 0.083292484
-0.15773621 0.094677255 0.2017774 -0.016343808 0.11413543 -0.015176802 -0.1499223 0.16588917
-0.11539595 0.16529788 -0.087185964 0.122517355 -0.06446795 -0.2188006 0.17145023 -0.20218274
0.05547984 0.0035442268 -0.23486622 0.0151639655 0.030479278 -0.058948617 -0.11292438 -0.22638246
-0.0135214105 0.019148447 -0.07148725 -0.033151347 0.034740303 0.1552472 0.04373581 0.08798578
-0.12837173 -0.1999581 -0.023822876 -0.065597296 -0.060801275 -0.13396546 -0.12697917 -0.07306631
0.056692723 -0.11812402 0.048126817 -0.16160664 -0.015466586 0.08390359 0.1373622 0.007956914
-0.05753175 -0.19316559 0.013111358 -0.17310631 0.056481596 -0.0803527 0.13302734 0.09851923
0.10301448 -0.07335136 0.03467739 -0.15063247 -0.12825209 -0.034915432 -0.010843084 -0.070785806
-0.044401992 0.0757126 -0.12113618 0.0377692 0.03145891 -0.070520714 -0.072556175 0.0039296257
-0.118755236 0.07024096 0.04092987 -0.040220022 0.06837684 0.113631964 -0.059198696 -0.06903135
0.12961605 0.06059096 -0.076683916 0.055593148 -0.0024740114 -0.0020005947 -0.057054278 0.053798493
-0.056180242 0.0054925834 -0.018004246 0.026653485 0.033410028 0.09245929 -0.014142227 -0.09845986
0.03430791 0.01700245 0.09491066 0.083152235 0.11798194 -0.15118544 -0.07723693 0.09579638
-0.17742525 0.08361115 -0.0412369 -0.11001614 -0.046084654 0.027427053 0.11865934 -0.093292825
0.036517654 0.09516443 -0.048008025 0.01772174 -0.025980467 -0.008579563 0.02053523 -0.010764756
-0.09266232 -0.09427962 0.104274176 -0.09269087 -0.08650128 0.075238965 -0.14002466 0.029453969
-0.11917794 0.021500105 0.08203366 0.11214195 0.07355819 0.11507915 0.044788685 -0.17708777
-0.007596301 0.115736574 0.100387484 -0.036448356 0.075194634 0.021913718 -0.06289293 -0.035501167
0.034842364 -0.070593886 -0.060007323 0.046779267 0.07371191 -0.01806301 0.10758211 -0.09972583
0.12074786 -0.04146567 0.12424086 -0.21524428 -0.027951416 0.13381433 0.07764534 0.0688482
-0.03306998 0.07529933 0.049906954 0.009554962 -0.14419551 -0.091516905 0.14697316 0.14997329
0.13872208 0.045251727 0.17193756 -0.011796838 -0.061060045 -0.17360783 0.14939272 0.049872443
-0.14485683 0.012707753 -0.019926509 0.037228495 0.08916114 -0.064199746 0.023389123 -0.022756055
-0.010536524 -0.053941812 0.11944924 -0.11653599 0.049123235 -0.20658092 -0.100693285 0.04616993
0.009824634 0.16744249 0.11615096 0.07727274 0.066066265 -0.17507753 0.053294346 -0.08779434
0.024341641 0.01265217

models.1.fc2.bias f4 [5]
00000000: 30a8 b0bc f428 10be 856f d2bd a272 cfbd
00000010: 9052 873c
-0.021564573 -0.14078122 -0.10275177 -0.10129286 0.016518861

models.2.fc1.weight f4 [50, 2]
00000000: 27b8 01bf f96b 253f aa7a 3ebe 0f19 37be
00000010: 66fd 8abe a2b8 b13e 2426 183f fef7 713d
00000020: 7101 513c f822 143f 5989 943e e084 f6be
00000030: e59c 01bd dbf9 0d3f 5673 46bc eab0 31bf
00000040: 53f6 eb3e 2e5d cabe a432 26bf 293a e13e
00000050: dbdf 063f 88f4 bf3e db84 403e 0ad4 293f
00000060: f145 ee3e f92c ea3e 7a7d 8d3e 9f89 9ebe
00000070: 30b3 21bf 3369 da3d 0e7f 383e 4d4d af3e
00000080: 1851 27bf 95d9 96be 8668 2dbf 5edc e5bd
00000090: ec6f 1b3f 834c 40bc e0c7 0cbf a912 f33e
000000a0: a971 223e 3a02 1c3e 4512 24bf d2e6 11bf
000000b0: 77c9 41be 01cf 153f 2a1c 1cbe bc0c ebbe
000000c0: 55c5 3c3e 708f 1abf 2bbe f43e cb2e 8cbe
000000d0: e45f c1be 04c7 113f 615c 0c3f 3bd2 5bbd
000000e0: 3695 003f c520 a83e bbd1 1f3e bd64 e53e
000000f0: 8824 cc3d e882 233f fba6 2ebf 2b3b 6fbe
00000100: eb74 9e3e ebbb d5bd 27f9 b63d a65a 67bc
00000110: 8dd9 59be ff03 dc3e e48d 18bf ead8 4e3e
00000120: c80d 143f e520 183f c644 083f 6062 a4be
00000130: d4b2 613e 396c e83e 9b50 24bf 108e 88be
00000140: 5bed 0fbe 3ed7 273f 540b 0b3f 7fee 3ebf
00000150: eb6d d63e a8e5 f9be c198 a3bd 9292 2ebf
00000160: 58e6 02bd b429 35bf fb7a 39be 8237 7c3d
00000170: 63f7 213d 1b23 2abf 12c0 b8be 37c9 39bf
00000180: 8c24 b13e d670 283f 8b9b 83bd f9ec 13bf
-0.5067162 0.6461788 -0.1860148 -0.17880653 -0.27146453 0.34711176 0.594332 0.059074394
0.012756691 0.5786586 0.29011038 -0.4814825 -0.031643767 0.55459374 -0.012112459 -0.69410574
0.46086368 -0.39524215 -0.6492102 0.43989685 0.52685326 0.3749125 0.1880068 0.6633917
0.46537736 0.45737436 0.27634794 -0.30964372 -0.63164043 0.106645964 0.18017218 0.34238663
-0.65358114 -0.29462877 -0.67737615 -0.11223672 0.60717654 -0.011736992 -0.54992485 0.47475174
0.1586367 0.15235224 -0.6409038 -0.5699283 -0.18924509 0.5851899 -0.15245119 -0.45908153
0.18434651 -0.6037512 0.47801337 -0.2737945 -0.3776847 0.569443 0.5482846 -0.05366729
0.5022768 0.328375 0.1560735 0.4480342 0.09967905 0.6387162 -0.6822354 -0.23362415
0.30948576 -0.10436233 0.08934241 -0.014120733 -0.21274395 0.429718 -0.5959151 0.20199934
0.5783353 0.59425193 0.5322994 -0.32106304 0.22040874 0.45395067 -0.64185494 -0.26670885
-0.14055388 0.6556281 0.5431416 -0.74582666 0.41880736 -0.48808026 -0.0798812 -0.681924
-0.031957954 -0.7076676 -0.1811332 0.061576374 0.039542567 -0.66459817 -0.36084038 -0.72572654
0.34598196 0.65797174 -0.06426152 -0.57783467

models.2.fc1.bias f4 [50]
00000000: 746d 4cbe 9ceb 0ebf fbed 003f 91a2 993e
00000010: dbac 093f 9b81 8cbe f50d 3c3f 7c03 8b3e
00000020: e180 a2be f0a9 02bf 3f31 2d3c dfc7 b53e
00000030: 01cb 803c e535 0abf ff9b 44be 71ab 183f
00000040: a2e5 1abf 2479 193f 2ba3 6cbd 712d 64be
00000050: 7c72 b4bd 7ef4 82be 09fa 663e ffa0 203f
00000060: 0515 e13d 0cb6 c1bd 8c7b 80be e562 31be
00000070: 1bbf aebe 3a95 86be efc8 11bf 33ae be3e
00000080: 6e04 d8be 6281 51bc 0b28 eebe ad62 4d3e
00000090: e1a5 993e 1992 2f3f 34f5 d8be fc0e 7cbd
000000a0: 194b d2bc b95c 173f f0c8 3cbf aa64 18be
000000b0: 1160 18bf a195 0bbe e454 62bc 8dd4 783d
000000c0: d4b1 30be 6de5 a33e
-0.19963628 -0.5582826 0.5036313 0.3000684 0.5377938 -0.2744263 0.73458797 0.27151096
-0.31738952 -0.51040554 0.010570823 0.35504052 0.0157218 -0.53988487 -0.19200133 0.596366
-0.6050664 0.5995047 -0.057772797 -0.2228296 -0.08810899 -0.25577158 0.22556318 0.6274566
0.10990337 -0.09458551 -0.2509426 -0.17322882 -0.34130177 -0.26285726 -0.56947225 0.37242278
-0.4219088 -0.012787195 -0.46514925 0.20057173 0.30009368 0.685823 -0.42374575 -0.061537728
-0.025670575 0.5912586 -0.73744106 -0.1488215 -0.59521586 -0.13631298 -0.013814185 0.06074958
-0.17255336 0.32010975

models.2.fc2.weight f4 [5, 50]
00000000: 41fc 843b 44de 20be 6a1c 913d 5c6a 223e
00000010: 4163 5cbc cb76 c43a 2eb5 09be 6d8f 033b
00000020: 1a59 dfba 7983 b5bc 4d37 1cbd cd2a 6dbd
00000030: ad49 323e 9afa 5abd 5e24 9fbc d77e ff3d
00000040: a5cc 73bd ca2e a6bd 8abe 0e3e 8bfb 38be
00000050: 2e55 283e a563 30be 9f7b a8bc 321b 62bb
00000060: 0433 453d 69bd 033e 20c3 16be d8d4 633e
00000070: d142 753d b660 82bd 6ebb 25be 9c5a 873d
00000080: 1f4b 7a3d 265a 163e 031e 263d 1685 d2bd
00000090: 05a8 c1bc c618 2cbd 6af5 093c 73ae 1fbe
000000a0: 627f 45be 8728 5e3d e2cb 64bc 15c8 96bd
000000b0: 1827 d5bd 0745 dfbd 76a3 0abd 160f 35be
000000c0: a6e7 ac3d 1b80 83bd 0d71 56bd d926 a9bc
000000d0: a525 54ba 3234 bd3d 76c3 773d 8f71 993d
000000e0: f81e 083e a80e 39bd 159c 2fbe be94 19be
000000f0: e2ee 813d 2021 ca3d 4d40 763d 921d 963d
00000100: d3d5 88bc 817c 9abc 4918 bb3d 9ad3 093d
00000110: d711 00be fdcb a1bd 3f8b d33c 845d a03d
00000120: 9e4e ec3d 4ca3 b9bc a2ff 01be 5ffe c3bc
00000130: 938a 3a3d 7871 b73d 297c 00bd 410c 113d
00000140: df66 7ebd 86e5 29be 29c4 243d 9e5e 82bc
00000150: f261 b63d e986 afbd 1bda b33d d255 f2bd
00000160: bf09 c93d c78a 513d 3d03 0d3e 0cf4 8cbd
00000170: aad3 923d d9d0 1fbe cad9 913a da77 1ebe
00000180: 33a1 1fbd 5c10 7d3b 95fd 733d b42d 60bd
00000190: 1268 7e3d 246a fcbd dae3 91bc fe85 dd3c
000001a0: 0424 333d 4807 86bd 396f f53c 80d9 02bd
000001b0: 2dd5 8d3b c289 223e 0671 0abc c443 a7bd
000001c0: b539 ccbd f1bc 0e3d ac6f 883d 6b62 bd3c
000001d0: b2b8 cb3d c3fd bb3c b53f 833c f89f ef3c
000001e0: 613a 63bd 7cae 04bd 1238 64bc 12e8 37be
000001f0: ca92 fabc c773 01bd 3644 f03d 9777 41be
00000200: 8d69 f5bd 7389 89bd 4e16 d83d 48b3 4dbc
00000210: 4aac f6bd 0a05 ba3c b308 93bd 9ee3 d63d
00000220: 12a6 dfbd c0af e6bd 6425 23be 3c31 a5bd
00000230: 3f75 073d 83da 333d 1cab babc 2135 0ebe
00000240: 4669 68be 42e0 063e 9510 12be c284 42bd
00000250: 51b2 f23c 1b4d 533d e33e 583d dac5 bf3d
00000260: f326 983d 7986 35be 1622 c3bd 7e69 b83d
00000270: e855 edbc 5b9a 1e3d b3d8 093d 1b9f bfbc
00000280: 0d81 21bd fc1a cc3d 3033 933d 1b61 6d3d
00000290: 937d 133d 6dae 4abb c1a2 873d fb84 2cbd
000002a0: fc2c 36be 047a 933d 6d1a 33bd 6377 2cba
000002b0: 21be d33d 13ce ab3d cb5e ba3d 5219 823d
000002c0: 2092 d93d a4de 3abe f448 e2bd ebfc cbbd
000002d0: a106 343d 8511 123e 20f1 4e3d a45e f03b
000002e0: cbf7 8cbd 2c58 f5bd 52c9 cc3d dd33 26bd
000002f0: 1e04 abbd 3a7e f1b9 f25c 753d 3310 3e3d
00000300: 5ef5 f1bd 9adb 003e fb8a e6bd e833 82bc
00000310: b31d cabc 0ea8 8ebc 1df0 12be 2a55 9b3c
00000320: e8f2 8c3d b784 eb3d 0c47 0ebd b553 df3c
00000330: d6ca 0a3d ff83 ce3d 9ccf 43be da5f 8c3d
00000340: bf63 1b3e 0cff 793d b931 20be 10d6 e2bd
00000350: a642 97bd db27 f6bb 9344 c33d ba96 0cbd
00000360: 4f86 3e3c 41cf d1bd 4e5b 6fbc 6f43 6abc
00000370: fb4e 57bd 6f19 d13c 6f56 773c 8789 76bd
00000380: d5ec e63d ccb4 383c ca51 a3bd 82e5 f7bd
00000390: c12c 583d 438d 44be d119 bbbd 4b93 f7bd
000003a0: 5391 34bd 9a17 35bd 6af5 2bbe 8e32 b7bd
000003b0: f8f0 94ba 71ef 1e3d e9d9 283d 1dd0 e9bd
000003c0: 5b3e b9bd eeb1 993d 7d67 13bd 95ea 7b3d
000003d0: 5267 b53d cb74 82bd 1e8c b13d 1d1f 2b3e
000003e0: c54d 07be cb7c 713c
0.0040583913 -0.15709788 0.07085498 0.15860885 -0.013451398 0.0014989016 -0.13448021 0.0020074502
-0.0017040104 -0.022157418 -0.038138676 -0.057902146 0.17410918 -0.05346165 -0.01942652 0.12475365
-0.059521336 -0.08114393 0.13939872 -0.18064706 0.16438743 -0.17225511 -0.02056676 -0.0034501073
0.048144355 0.12865223 -0.14722872 0.22249162 0.059878174 -0.063661024 -0.1618478 0.06609079
0.061106797 0.14682826 0.040555965 -0.102792904 -0.023639688 -0.042015813 0.008420328 -0.15593891
-0.19286874 0.05423787 -0.013964625 -0.07362381 -0.10407847 -0.10901838 -0.033847295 -0.17681536
0.08442621 -0.064209186 -0.052353907 -0.020648407 -0.00080927677 0.09238471 0.06048914 0.07492363
0.13293064 -0.045179993 -0.17149384 -0.14998147 0.063443914 0.09869599 0.060119916 0.07329859
-0.016703522 -0.018858196 0.091354914 0.033649065 -0.12506805 -0.07900236 0.025823234 0.07830337
0.115384325 -0.022660874 -0.12695172 -0.023925005 0.04554231 0.08957189 -0.03136841 0.035412077
-0.062109824 -0.16591462 0.040226135 -0.015914258 0.089054 -0.08570654 0.08781835 -0.11832775
0.09816312 0.05115774 0.13770767 -0.06882486 0.07169278 -0.15607013 0.0011127528 -0.15475407
-0.03897209 0.0038614487 0.059568007 -0.054731086 0.062110968 -0.12324932 -0.017808843 0.027041432
0.04373552 -0.065443575 0.029960262 -0.031945705 0.004328391 0.15872863 -0.008449798 -0.08167222
-0.09971944 0.034848157 0.06661925 0.023118218 0.09947337 0.022948151 0.016021589 0.029251084
-0.055475596 -0.032392964 -0.013929384 -0.17959622 -0.030587573 -0.031604555 0.1173176 -0.18893276
-0.11983023 -0.067156695 0.10551129 -0.012554951 -0.1204458 0.022707481 -0.071793936 0.10492633
-0.10920347 -0.112639904 -0.15932232 -0.08066031 0.0330708 0.04390956 -0.02278667 -0.13887455
-0.22696409 0.13171485 -0.14264138 -0.04748989 0.029626044 0.051587205 0.05279435 0.09363909
0.07429304 -0.17727078 -0.09527986 0.09004496 -0.028971627 0.038721424 0.033653926 -0.023391297
-0.039429713 0.09966084 0.071874976 0.057953935 0.03600843 -0.003092672 0.0662284 -0.042119008
-0.17790598 0.07201007 -0.043726373 -0.00065790693 0.103389986 0.08388915 0.091001116 0.06352486
0.10623574 -0.18248993 -0.11049071 -0.0996035 0.043951634 0.14264496 0.050522923 0.007335501
-0.068832 -0.11979708 0.09999336 -0.040576804 -0.08350395 -0.00046061148 0.059903093 0.046402168
-0.11814378 0.12583771 -0.11256977 -0.015893891 -0.024672365 -0.01741412 -0.14349408 0.018961508
0.06882268 0.11499923 -0.034735724 0.027261594 0.033884846 0.1008377 -0.19122165 0.0685422
0.15174769 0.061034247 -0.15643968 -0.110759854 -0.07385759 -0.0075120754 0.09534564 -0.03432343
0.011628701 -0.10244609 -0.014609171 -0.014298304 -0.052565556 0.025524823 0.015096291 -0.06018975
0.11275641 0.011273574 -0.079745844 -0.12104322 0.052777056 -0.19194512 -0.091357835 -0.12088641
-0.044083904 -0.04421196 -0.16792837 -0.089451894 -0.0011363318 0.038802568 0.04122344 -0.114166476
-0.090450965 0.075046405 -0.035987366 0.06150301 0.088575974 -0.06369933 0.08669303 0.16711088
-0.1321326 0.014739226

models.2.fc2.bias f4 [5]
00000000: 73a4 953d afee 6c3d 962c cd3d d060 08be
00000010: 918c 2c3d
0.07306757 0.057844814 0.1001827 -0.13318181 0.042126242

models.3.fc1.weight f4 [50, 2]
00000000: 2d29 3e3f c8ac 1ebf 5061 063f b69e 303f
00000010: ca24 62be 9d79 f53e 9e97 b73e 5588 2e3e
00000020: b52f 343f 6c56 1d3f ccb1 4a3e 0d27 233f
00000030: db52 f03e bf93 e73e a769 2d3f 9ae5 26bf
00000040: c02b e9be 9739 37bf 34a3 ba3b 890d f2bc
00000050: 19ce 933e f1ba d0be f3ad 2abf ec18 1f3d
00000060: 6303 bcbe a223 ddbe 6ab8 903e 243c 86bd
00000070: 33cd 9b3c f027 a83e 7040 2abf cad7 a0bd
00000080: d7b6 f2be db58 c7bd 2801 94be ece2 0c3f
00000090: a20b 3f3c 4432 043f 6cf9 23bf 328b 013f
000000a0: 1def 863e 735c 22bf 8142 f13e 443d 803e
000000b0: 6191 b73e d054 e3be 03eb fcbe bae9 abbd
000000c0: 75e8 013f ff00 123f 5e73 b83e d65e 62be
000000d0: 51a4 0a3f e58a 01bf a894 b4bd 32fe e23d
000000e0: b307 d3be 3ac3 37be 7832 25bf 40a1 debd
000000f0: aeef b3bd f04b 133e c6e8 86be 99b8 6b3c
00000100: 01e3 bb3e 5a00 0b3f 31f0 073e 423a cd3e
00000110: 34a7 3abe 5d2c 26bf 1cd7 98be 332e 033f
00000120: 27e9 c73e e7ea 3e3e 538c 043f c829 0b3f
00000130: e288 85be 411e 263f 4203 a03e 2fc1 c5be
00000140: 3226 df3e f63c b83d 44e9 ba3e 7c2c 0fbf
00000150: 11a6 1dbf 6ad8 dc3e f209 c7bd 861d 5b3e
00000160: ccab 19be 65ba bb3d 142a 133f 350c 1d3f
00000170: 2601 ef3d 1c6c afbe 29d8 06bf 658d 833e
00000180: 1bbd de3c d1e4 5abd f73f 7f3e 1f3f 3fbe
0.7428158 -0.61982393 0.5249224 0.68992174 -0.22084346 0.47944346 0.35857862 0.17044194
0.70385295 0.61459994 0.19794387 0.6373146 0.46938214 0.4522991 0.6773934 -0.65194094
-0.4554119 -0.7157225 0.005695725 -0.02954747 0.28868178 -0.40767625 -0.66671675 0.038842127
-0.36721334 -0.43191248 0.28265697 -0.0655444 0.019018745 0.3284297 -0.66504574 -0.078536585
-0.4740512 -0.09733745 -0.28907132 0.55033755 0.011660488 0.516392 -0.6405246 0.5060302
0.26354304 -0.63422316 0.4712105 0.25046742 0.35853103 -0.44400644 -0.4939805 -0.08394189
0.50745326 0.5703277 0.36025518 -0.2210649 0.54156977 -0.5060256 -0.088174164 0.1108364
-0.41216812 -0.17945567 -0.64530134 -0.108706 -0.0878595 0.14384437 -0.26349467 0.014387273
0.36696628 0.5429741 0.1327522 0.4008351 -0.18227845 -0.64911443 -0.29851615 0.5124237
0.3904507 0.18644296 0.5177662 0.5436063 -0.26080996 0.64889914 0.31252486 -0.3862395
0.43583828 0.089960024 0.36506093 -0.5592725 -0.6158152 0.4313386 -0.09718694 0.21397981
-0.15006942 0.09166411 0.5748608 0.6134675 0.11670141 -0.34262168 -0.52673584 0.25693813
0.027189782 -0.053440873 0.24926744 -0.18676423

models.3.fc1.bias f4 [50]
00000000: 61ad 943e 2f79 7b3e 0202 0b3f 4069 efbe
00000010: e81c 45be 8f1a 5b3e f304 033f 273f e13d
00000020: f4ca 10bf cf37 16bf c28e 323f da9e 963e
00000030: 6ed7 fb3d 14ba a03e 4346 b3be c0ba 7abe
00000040: ac98 1abf 3da3 65be bcc6 e3be 37aa 00bf
00000050: 536e 1cbf a74c d83e 1acb 7f3e 9af7 b1be
00000060: 2dc6 d0be 3de0 853e c1fc ea3d c5bd 80be
00000070: d240 24bf 1f70 073f cfc1 ea3e 8ad9 0dbf
00000080: 1f74 323f 465c b0be 130b 923e c7d1 493e
00000090: 4ba6 af3e 3846 943e 6090 0f3f 7823 56be
000000a0: 6509 133d 6fe7 eb3e 756f 153f a384 9fbc
000000b0: f120 303f 45a4 283f 8cf1 8abe 465d c13d
000000c0: 3ccb d03e 9742 f4be
0.29038528 0.24557947 0.5429994 -0.46759987 -0.19249308 0.2139685 0.51179427 0.109983735
-0.5655968 -0.5867891 0.6974908 0.2941807 0.12296949 0.31391966 -0.35014543 -0.24485302
-0.6038921 -0.22425552 -0.4448756 -0.5025973 -0.6110584 0.4224598 0.24979821 -0.34759218
-0.40776196 0.26147643 0.1147399 -0.25144783 -0.6416141 0.5290546 0.4585099 -0.55410063
0.69708437 -0.344454 0.28524074 0.1970893 0.3430656 0.28959823 0.56079674 -0.20911968
0.03589763 0.46075007 0.58373195 -0.019472426 0.68800265 0.65875655 -0.2713741 0.094416186
0.40780056 -0.47707054

models.3.fc2.weight f4 [5, 50]
00000000: 57df d43d 1203 813d 27e3 fcbd 6069 91bd
00000010: 6da0 2d3e a83b c6bd 93dc f83d 13ac 3a3c
00000020: 9090 24be 8bc9 83bd e2f4 a8bd 2de0 babc
00000030: a868 623d c121 383e 4bac d6bc 92c5 d7bd
00000040: 12bc ddbd 7836 10be 845e 24be 4065 32be
00000050: f9a8 973d 1afa 3dbd 9514 44bd 646c 1c3d
00000060: 4cbd 133e a3b2 80bd 98e8 dc3c cd77 873c
00000070: d783 463d dfa8 99bd 33a0 03bc 99f6 dcbb
00000080: 8e78 763d 6d9c 94bc df3a cb3a 5ac4 2e3a
00000090: 743f ce3d bdb2 273d 960a b03d 6c24 7ebd
000000a0: 29d7 363e 020c a0bc de0d 17bd 81ba 883d
000000b0: fbcb f5bd d12f 98bd 5553 dcbd f4fb 08be
000000c0: 39a6 dbbd f1a9 203e de21 16be a71e cd3d
000000d0: 97d9 4bbd c612 d93c a1d6 0a3e 8990 523d
000000e0: b464 693c c969 c43d 3f6c 1fbd dc79 91bd
000000f0: 027f 20be dc4b 2abe 4eef ccbc 4821 813d
00000100: 378d 85bd 1518 423d de26 2bbe fc1a cb3c
00000110: fb0a b13d 3a9b 44bd d9e5 93bd 1a65 af3d
00000120: afd5 a73d e2f0 b7bd 246f a4bc 3b9c 253c
00000130: fd60 15be d6cd 84bd 9707 fbba 4a08 33be
00000140: 7748 043e c97f dbbd 1a1e 6b3d b53b b63d
00000150: 6901 12be 69a8 80bd b052 ea3d a03e 96bd
00000160: a3df 0a3d c58a 17be b57c 643c 09d0 25bd
00000170: e9bd dabd d7e8 24bc cac1 f83c dfa9 db3a
00000180: 3647 fbbc d18b 19bd 82ee 0dbd b331 b03c
00000190: d62f 2cbd 82ea c53d 4cd6 053e abb7 3b3d
000001a0: d44d e83d 745d 65bd 02fa d3bd 6b39 0ebe
000001b0: c5e0 b9bd 8600 343d 5a38 983d 6b0a 043e
000001c0: bf02 0e3d 3d9e 93bd c3ff a1bd a640 0ebc
000001d0: 4938 9d3d 4249 0e3d e264 afbc d169 463e
000001e0: 561b 0abe 78b4 22be cd85 e2bd cf44 f9bd
000001f0: 398d 873b 3aed ebbd 5034 af3d 8f64 c03d
00000200: 25b1 c7bd 9114 073e 9d89 a23d 685d 3cbd
00000210: fe6f b33d acf7 1a3d 8ca6 8ebd e6cd b9bb
00000220: 1ae7 0ebe a4ff 90bd 0bfd f93c 5c0a 2dbe
00000230: f867 1bbe f5b1 693d 7636 be3c a71d 68bb
00000240: 809b 1a3e 0972 99bc e40f 2a3d a4f6 dc3d
00000250: be7a 11be 7842 31be d46b 9b3d d9e1 4ebc
00000260: 6cd7 0cbe eaee 4dbd eb15 d43b fea5 17be
00000270: 80db 13be 8474 26be 98c4 9abd 413c 593b
00000280: a699 7b3c 465c 803d 6b57 4b3d 6e8e d43c
00000290: f825 0bbe 7bb7 ed3c 4d06 a53d bf36 2c3d
000002a0: b9c3 a33d 9e7c f8bb 2c5a 1fbd 369c c4bd
000002b0: bc34 20be eab2 ee3c 02ff 82bc 9567 dabd
000002c0: e2ce cd3d 3c6a 05be 0dfc b93d 26e4 283e
000002d0: 7b28 d33d 9137 86bd c02e 14be e684 573d
000002e0: c7e9 373d c49a a2bd 85f7 0bbe 4e5b 0cbe
000002f0: 7e81 2fbe 6fa7 01be aa7e 97bd 439d 2a3d
00000300: cf5e 153e 3550 08be 6e23 083e 3939 e0bd
00000310: 5b2a 6d3d 40bd 69bd 0a98 08bc b89c 09be
00000320: 2550 0e3c af3f 3dbe 9638 e1bd 9656 b73c
00000330: 2b3b a6bd 91de 953d b670 a0bd 290b c73c
00000340: ed60 693c a54f 9c3d 30b6 5e3d b639 5fbd
00000350: 214a 043e 5060 8ebd 2e72 d3bd cde0 193d
00000360: 6eff ffbd 1dfc 10bd 47a5 88bd f4fb b4bd
00000370: a245 bcbd 0ea3 1fbe 249a ba3d ea45 a83d
00000380: eb55 be3c e3d0 cebc dfc8 8b3d 2ad9 b13c
00000390: 1623 fdbd 2d27 16bd eb18 ebbd 5aaa b73d
000003a0: 93c0 53be c6fe bb3d 3de7 953d bfb2 50bd
000003b0: d872 2fbe 2c63 3fbd 3a1f 08be d12d a53d
000003c0: 3453 17be 537e e53d 904a 4bbe 220b 00be
000003d0: d73f 84bd 31a8 88bd ceb2 ed3d aa1a f63b
000003e0: f224 b13d 87a0 1b3d
0.10394161 0.06299414 -0.12348013 -0.07100177 0.16955729 -0.09679347 0.12151446 0.011393565
-0.16070771 -0.06434926 -0.08249833 -0.022811973 0.05527559 0.17981626 -0.026205203 -0.105357304
-0.10826887 -0.14083278 -0.1605168 -0.17421436 0.07405276 -0.046381094 -0.04787119 0.038189307
0.1442768 -0.06284072 0.026966378 0.016536618 0.048465576 -0.07502913 -0.0080338 -0.006743264
0.060173564 -0.018140996 0.0015505216 0.0006666832 0.100706965 0.040941942 0.08595769 -0.062046453
0.17855515 -0.019536976 -0.03687846 0.06676198 -0.12001797 -0.07430995 -0.10758082 -0.13377362
-0.10725064 0.15689828 -0.14661357 0.10015612 -0.049768057 0.02649821 0.13558437 0.05140737
0.014245201 0.095904894 -0.03892159 -0.07103321 -0.1567345 -0.166305 -0.025016453 0.06305176
-0.06521075 0.047386248 -0.16714045 0.02479314 0.086446725 -0.047999598 -0.07221574 0.085642055
0.08195054 -0.089814916 -0.020072527 0.010108049 -0.1458778 -0.064845726 -0.0019152042 -0.17483631
0.12918268 -0.107177325 0.057401754 0.08898107 -0.1425835 -0.06282122 0.11441553 -0.073361635
0.033904683 -0.1479903 0.013945748 -0.0404816 -0.10680754 -0.010065279 0.030365843 0.0016759
-0.030673604 -0.037486855 -0.034651287 0.021508073 -0.042037807 0.096638694 0.13070029 0.045829456
0.113429695 -0.055997327 -0.103504196 -0.1388909 -0.090760745 0.04394581 0.07432623 0.12894599
0.034670588 -0.07207916 -0.07910111 -0.008682406 0.07676751 0.034737833 -0.02141041 0.19376303
-0.1348699 -0.15889156 -0.11060677 -0.12171327 0.004136708 -0.11519857 0.085549 0.0939418
-0.097505845 0.13191439 0.07936404 -0.045987517 0.08761595 0.037833855 -0.0696536 -0.005670297
-0.13955346 -0.070800096 0.030516168 -0.16898483 -0.1517638 0.05705448 0.023219328 -0.0035418065
0.15098381 -0.018731134 0.04151906 0.107892305 -0.14206979 -0.17310512 0.07588926 -0.012627088
-0.13754052 -0.050276674 0.0064723394 -0.14809415 -0.14439201 -0.16255385 -0.075570285 0.0033147486
0.015356457 0.062676 0.049643915 0.025946822 -0.13588703 0.029018154 0.080578424 0.042044397
0.079963155 -0.007583215 -0.038904354 -0.09600107 -0.15645117 0.029138047 -0.015990738 -0.10664288
0.100492254 -0.13028806 0.09081278 0.16493282 0.103104554 -0.06553567 -0.14470959 0.052616976
0.04490068 -0.079396755 -0.1366864 -0.13706705 -0.17139241 -0.12661527 -0.07397206 0.041653883
0.14586948 -0.13311847 0.13294765 -0.10948414 0.05790172 -0.05706525 -0.00833703 -0.1343869
0.0086861 -0.18481325 -0.10997121 0.022380155 -0.08116754 0.07317842 -0.07833998 0.024297314
0.0142443 0.076323785 0.054372966 -0.054498397 0.12918903 -0.06951964 -0.103245124 0.037567902
-0.12499891 -0.035396684 -0.06672149 -0.08837119 -0.09192969 -0.15589544 0.09111431 0.0821646
0.023234328 -0.02524609 0.068254225 0.021709997 -0.12360208 -0.036658455 -0.11479362 0.08968039
-0.2067893 0.091794536 0.07319496 -0.050951716 -0.17133653 -0.046725437 -0.13293162 0.080653794
-0.14777833 0.11205735 -0.19852662 -0.12504247 -0.06457489 -0.06672705 0.1160637 0.007510503
0.08649625 0.037994888

models.3.fc2.bias f4 [5]
00000000: d09a 233d 097d 283a 66c9 debd f465 88bd
00000010: 7afc d0bd
0.039942563 0.0006427323 -0.108782575 -0.06660071 -0.10204406

models.4.fc1.weight f4 [50, 2]
00000000: 3f5c b93e 2c68 0f3f 2021 3a3f 94ab a4bd
00000010: a19a 293f d598 9e3e 8cdf e3bd 33cb 203f
00000020: 3dd0 1d3f ecbb e53e dce8 0e3f 845e 083f
00000030: ac7f 0e3e 9ed7 1a3f 73ec f83e f9c4 183f
00000040: b886 c43d e449 c3be 682a e23e a49c c6bd
00000050: 8d71 21bc b700 3bbe 2292 95be 9536 033f
00000060: f86a e53d afdf 32be 5ee1 1ebf c08c c23e
00000070: fce1 0cbf 2d4b f03d 583a 473e 8a74 cf3e
00000080: 6601 1ebf 727e bfbd 6ffe 133e ee9f 5fbe
00000090: 342a 053d 4c0f c73d 9c7a c03b 283b 06bf
000000a0: 8501 e1be 7b7c 003f fdad fd3e 9e66 b83e
000000b0: 9b50 b33e 309a 0c3d 483d 1fbf 92bd 2c3f
000000c0: ac7c a23e 5974 adbe 93bf 433e 0a47 203f
000000d0: 79b8 95be c573 86bc 6e95 f2be 9d62 0abe
000000e0: 3a96 aa3e 4986 08be 227d 37bf 97f8 27bf
000000f0: f6cf dbbe ce33 063e 179e 673e 8d76 0fbf
00000100: 324e 1cbf 3cc8 0ebf 8579 98be 9ee8 233c
00000110: 4976 3c3f e386 dfbd 9922 dd3a 7076 8b3d
00000120: 11ed 563e cd35 b73d 0df2 b93e 8a8c a23e
00000130: 0262 ff3e 535a eebe 365b a3bd 147f 69be
00000140: 07c9 033f 462a 9f3e a344 ca3d d63f e33d
00000150: e3f7 6abe f6be 71be 8348 dc3e 7f4d d3be
00000160: feeb 0f3f be3c c63d 3043 33be 18af 41bd
00000170: feb2 283f 992f a2be d872 2cbf d17c 12be
00000180: 83d6 213f 3921 ce3d ddd7 b23e 4396 e63e
0.3620319 0.5601833 0.72706795 -0.080405384 0.6625157 0.30975977 -0.111266226 0.6281006
0.6164587 0.44869936 0.55824065 0.5326922 0.1391589 0.60485256 0.48617896 0.59675556
0.09596008 -0.38142312 0.44172978 -0.096978456 -0.009853733 -0.18261991 -0.29213053 0.5125516
0.11202043 -0.17468141 -0.62062633 0.3799801 -0.55032325 0.11733089 0.1945585 0.405186
-0.61720884 -0.093502894 0.14452527 -0.21838352 0.03251095 0.097197145 0.005873991 -0.52434015
-0.43946472 0.5018994 0.49546805 0.3601579 0.35022435 0.034326732 -0.6220288 0.6747676
0.31735742 -0.3387783 0.19116049 0.62608397 -0.29242304 -0.016412625 -0.4737963 -0.1351418
0.3331774 -0.13332476 -0.7167531 -0.65613693 -0.429321 0.131057 0.226189 -0.5604027
-0.61056817 -0.55774283 -0.29780212 0.010004191 0.7361799 -0.109143995 0.0016871273 0.068096995
0.20988871 0.089458086 0.36317483 0.31747848 0.49879462 -0.46553287 -0.079763815 -0.22802383
0.5147862 0.3108694 0.09876373 0.1109616 -0.22946124 -0.23608002 0.43024072 -0.41270062
0.5621947 0.096795544 -0.17506099 -0.047286123 0.6589812 -0.3167694 -0.6736274 -0.14305426
0.63217944 0.100649305 0.34930316 0.45036516

models.4.fc1.bias f4 [50]
00000000: 91a2 1e3f 93c2 24bf 6702 153f 02c8 b13e
00000010: ee6b d93e f8de 4d3e 46cd 033f d5a9 ce3d
00000020: 523b 0abe 5242 283f 25eb fdbd b296 b1bd
00000030: 8388 ccbe 3d26 9a3e df6e 043e e467 24be
00000040: 3fda 183e d4f9 9aba 3820 803b e824 403e
00000050: ff07 a73e f8a3 03bf f3b7 153f 7a35 5f3e
00000060: bb0d 063f 6f8a 9b3e 3080 0dbf a92e 8d3e
00000070: d22b 5b3e e935 b83d b861 acbe 7dc9 4c3e
00000080: 8a1e 023f 4ea7 c33d ab12 053f 7db1 843d
00000090: db83 b83e 2022 13bf 14ff 31bf a161 ddbe
000000a0: 2e5e 84be c17b 87be a6f9 8b3e c5c6 15bd
000000b0: d837 0d3f 9606 01be 3c48 a2be 7f02 9e3e
000000c0: 9b70 75bc 46e7 e8be
0.61966807 -0.64359397 0.5820679 0.34722906 0.42465156 0.20104587 0.514851 0.10090987
-0.13499191 0.65726197 -0.12398366 -0.08671321 -0.399479 0.30107298 0.12932919 -0.16055256
0.14927004 -0.0011823722 0.003910091 0.18764079 0.32623288 -0.5142207 0.5848381 0.21797743
0.523647 0.30379054 -0.55273724 0.2757466 0.21403435 0.089946575 -0.33668303 0.19998737
0.5082785 0.09553395 0.5198161 0.06479166 0.36038098 -0.57473946 -0.69529843 -0.43238547
-0.25853103 -0.26461604 0.27338904 -0.036566515 0.55163336 -0.12600169 -0.31695735 0.3086128
-0.0149804605 -0.45488948

models.4.fc2.weight f4 [5, 50]
00000000: 8b47 013e ad0e 233e 1bfe f33c f72c 9dbc
00000010: 7127 abbd 4850 a73c 3dab 44bd 89b6 f6bc
00000020: 7e65 25be 3f48 e03d 2fe1 52be 8ff8 0dbe
00000030: 7417 e7bd 234c 81bd 8b65 3e3c 4a53 ddbd
00000040: 493d 3ebe d077 0bbd 905e bdbd 4b34 263d
00000050: a1aa a1bd d89a 1a3e 0544 babd 65ef 4fbe
00000060: 78f0 8a3d e56f 443d c8b9 813d b586 22bd
00000070: a6fc af3d 845d aebd 19ae 93bd 5dcb a03d
00000080: 65f2 6ebd d1e6 14be 4b9d 163e eebc ce3c
00000090: 064f 97bd 1cd7 df3d 8310 7dbb 2179 31bd
000000a0: 9fd9 033d c9ee 8a3d 9c29 443d 418a 453d
000000b0: 65d5 57bc 5b9a 8f3d 7469 d33c 061d 11be
000000c0: a7e4 fcbc e500 363e fddf 3d3d 3477 c3ba
000000d0: 0ad2 c13d 3107 493d 8ffe 283e 592e 533c
000000e0: f1b5 69bd b947 093e e9a2 4b3d c124 8bbd
000000f0: 2851 02bd 9b53 653c bae5 2abe a353 043e
00000100: 1634 e63b eb68 b5bd f859 19be 5b52 18be
00000110: 938a e43c 97f3 05be 845e da3d f490 d0bc
00000120: 4d60 f4bd 6818 c6bd 26d2 3cbe e547 1a3e
00000130: ce33 af3d 6f0b a5bd ef5b 19be cbaf 0fbe
00000140: 0516 a8bd 71b5 2fbe 5dc1 a0bc 322c 933d
00000150: ea59 de3c b73f 1dbd a9aa 023e 7bea 313e
00000160: 6bae cfbd 83a3 463d c976 653d 27fb 393e
00000170: 912c 05be bfff 12bd c45f d7bc de98 383d
00000180: eb95 47bd 02f1 9f3c 5c4f febd 04fc 783d
00000190: 8dc9 223c e304 7e3d f2c5 0ebe a152 4e3e
000001a0: 7dac 32be b0d0 c83c 3fd0 74bd 9055 163d
000001b0: 6772 823d 2a12 ff3b ca5e fcbd 88aa 0f3e
000001c0: 0522 1ebd 7baa d4bd 4821 ddba 6214 00be
000001d0: bffb f5bd 2a56 b43d ec0b 8abd 3b39 e33d
000001e0: e657 a8bd 980f a43d 8067 913d dd72 b43d
000001f0: 111d 10bd 3735 a5bd 9d93 3ebd adda 95bc
00000200: b670 30be 90b3 8b3d 05bd f73d 4d62 cc3d
00000210: c224 ec3d 565d a23d b7cd 46be 6513 89bc
00000220: 622e 473d 1067 f4bd 7d95 a2bd 0901 8c3d
00000230: 1ce1 ce3c 16d4 8dbd f6d6 973d 98d3 2bbd
00000240: 47eb 79bd 4175 873d 12d7 223d 73ab 89ba
00000250: 9e87 91bd 30b0 8abc 48f4 dbbd f8df 66be
00000260: bb08 04be ca0b 913d 17c6 e23c 2531 e63b
00000270: cde3 0dbe a9bb f5bc ca6c 91bd 67b5 373d
00000280: 26a6 57bd b655 763d dc48 e0bd 0985 5ebd
00000290: 3277 5a3c a783 d9bc a49e 32bc f080 e73c
000002a0: eeb3 acbd 53a7 18bd 143a 9abd f32b a33d
000002b0: 9156 0bbe 7a15 083c 9295 823d 14eb 4c3d
000002c0: 7106 343e ec8b e73d 3d94 76be e55a cb3d
000002d0: a224 173e 1272 fe3c 6e55 c83d 3370 a63d
000002e0: 33c3 173d 931c 143d 5335 00be 8c7f 043d
000002f0: a5df 12be a3b6 213d d993 183d 7c53 2fbe
00000300: bcb5 243e 29dd 05be ae8a 94bd 748b b73d
00000310: 6e05 1cbe 8d8b 273e 0743 40be 80da 16be
00000320: 7324 b4bd 474e b5bd 0c67 1e3d bd4c 1dbe
00000330: 6376 963c 0736 883d 963f 40bd 000f e7bc
00000340: 7c54 723d 7816 de3d 9d07 023e 181c 3b3d
00000350: 9ba3 183d 255f 17be ad70 e1bd 74ae 07be
00000360: 9a85 5fbd 5b7a 1b3e 4c71 97bd c07e e33d
00000370: aab6 00be 56cd 973d 2214 58bd 6e26 12be
00000380: ff27 993d a159 f13c 6b8c ad3c 8339 c33d
00000390: 2649 ac3d 531f bb3d bf4e 613c 242e 3e3e
000003a0: 006c 8cbd 64f7 34be 44aa a33d fb39 6ebd
000003b0: 3f04 aebd e71a 553d 3899 30bd 751f fe3b
000003c0: 433a 3ebd 94af fabd 2771 693d 3bba 45bc
000003d0: abc9 293c f505 b9bd 7a00 e43d 724b f2bd
000003e0: 8e19 c3bd e889 e7bd
0.12624948 0.15923567 0.029784253 -0.01918648 -0.08357132 0.020424023 -0.048014868 -0.030116336
-0.16151997 0.1095128 -0.20593713 -0.13864349 -0.1128377 -0.0631335 0.011620889 -0.10806902
-0.18578066 -0.03404981 -0.09246552 0.040577214 -0.07893873 0.1509813 -0.09095005 -0.20306166
0.06784147 0.047958273 0.06334263 -0.039679248 0.08593111 -0.085139304 -0.07210941 0.078512885
-0.058336634 -0.14541174 0.1470844 0.025236573 -0.073881194 0.10929701 -0.0038614578 -0.04332841
0.03218996 0.06783826 0.047891244 0.048227552 -0.013173436 0.07011863 0.02580712 -0.14171228
-0.030870749 0.17773779 0.04635619 -0.0014912845 0.0946389 0.049079124 0.16503356 0.012889468
-0.05705828 0.13406266 0.04971591 -0.067941196 -0.031815678 0.013996984 -0.16689196 0.1292253
0.007025252 -0.08857902 -0.14975727 -0.14875166 0.027898109 -0.13081203 0.10662559 -0.025459744
-0.119324304 -0.09672624 -0.1843954 0.15066488 0.08554803 -0.080588214 -0.14976476 -0.14031903
-0.08207325 -0.17159058 -0.019623453 0.07186164 0.027142484 -0.03839084 0.12760414 0.17374603
-0.101406895 0.04849578 0.056021485 0.18162213 -0.13005282 -0.03588843 -0.026290782 0.04506766
-0.048726957 0.019524101 -0.1241748 0.060787216 0.009935749 0.06201638 -0.13942698 0.20148708
-0.17448612 0.024513572 -0.05976891 0.036702693 0.06369477 0.0077841477 -0.12322767 0.14029896
-0.038606662 -0.10384079 -0.001687088 -0.12507775 -0.120109074 0.08805497 -0.06740555 0.110949
-0.0821989 0.08010787 0.07099819 0.08810971 -0.03518397 -0.080667906 -0.046527494 -0.01829275
-0.17230496 0.06821358 0.120965995 0.09979687 0.115304485 0.07927959 -0.19414411 -0.01673288
0.04862822 -0.1193372 -0.07938669 0.06836135 0.025253825 -0.06925218 0.074140474 -0.04194984
-0.061015394 0.06614161 0.03975589 -0.0010503366 -0.07105945 -0.016929716 -0.10739952 -0.22546375
-0.12893955 0.07082327 0.027682347 0.0070249015 -0.1385643 -0.02999671 -0.07100828 0.044850733
-0.052648686 0.060140334 -0.10951397 -0.05432609 0.013334082 -0.026552035 -0.010902081 0.028259724
-0.08432756 -0.037268948 -0.07530609 0.07967367 -0.13607241 0.008305902 0.063761845 0.050028875
0.17580582 0.11305985 -0.24079986 0.09929446 0.14760068 0.031060252 0.097819194 0.08126869
0.03705139 0.036160063 -0.12520342 0.0323482 -0.14343126 0.039480817 0.037250374 -0.1712169
0.16084951 -0.13072647 -0.072530136 0.089621454 -0.15236446 0.16361828 -0.18775569 -0.14731789
-0.08796015 -0.08852821 0.038672492 -0.15361305 0.018366998 0.0665093 -0.04693564 -0.028205395
0.0591626 0.10844129 0.12698217 0.04568109 0.0372654 -0.14782389 -0.11007819 -0.13250142
-0.05457077 0.15183394 -0.073946565 0.1110816 -0.12569681 0.074122116 -0.052753575 -0.14272472
0.07478332 0.029461684 0.02118512 0.09532454 0.084123895 0.09136834 0.013751685 0.18572289
-0.06856537 -0.17672497 0.0799146 -0.058160763 -0.08496904 0.05202761 -0.04311487 0.007755215
-0.04644228 -0.1224052 0.056992676 -0.012068327 0.010363023 -0.09034339 0.111329034 -0.11830796
-0.095263585 -0.113056004

models.4.fc2.bias f4 [5]
00000000: 3196 e3bd f066 c53d 23b5 39bd b160 edbd
00000010: 1a41 103d
-0.11112631 0.096387744 -0.04533876 -0.11590708 0.035218336
