experiments/classification/toy/gaussian_mixture/pretrained/2025-05-08_11-19-07/RepulsiveCrossEntropy_BatchEnsemble (rank 1).pt (torch, 70012 bytes, 8 tensors)

fc1.r_group f4 [100, 1, 2]
000000 b2 79 6f 3f 74 9d d0 3f 81 a8 3d 3f cc 95 87 3f
       0.9354507 1.6298051 0.7408524 1.0592589
000010 fc 28 85 3f 65 45 a1 3f dd c5 4c 3e d4 64 b9 3e
       1.0403132 1.2599303 0.19997354 0.36209738
000020 fa 6a ee 3f 88 6e d5 3f 52 be 16 40 d7 2f 9b 3f
       1.8626397 1.6674356 2.3553662 1.2123975
000030 c8 8a 93 3f 36 2b b9 3f a9 ff a1 3e 9b 3f 89 3f
       1.1526728 1.4466312 0.31640366 1.0722536
000040 f7 46 cb 3f 16 a3 0c 3f 1d c6 9e 3f 51 25 a8 3f
       1.5881032 0.5493635 1.2404209 1.3136388
000050 5c 87 8b 3f 1d 5a e6 3e 9d cd 4e 3f 87 06 e3 3f
       1.0900683 0.44990626 0.8078249 1.7736367
000060 11 27 9e 3e c5 99 b8 3e e0 7b 36 3f ce c2 6c 3f
       0.3088918 0.36054817 0.7128277 0.9248475
000070 15 4b 81 3f 9b a9 40 3f fc 8e 0b 3f 53 93 2d 3f
       1.0101038 0.752588 0.5451505 0.67802924
000080 d0 5f a9 3f 6e 8e 97 3f 5e 35 98 3f a9 bf 4b 3f
       1.3232365 1.1840341 1.1891286 0.79589325
000090 37 4f 0e 40 1b 8b 4f 3f f0 28 0e 3f 09 14 27 3f
       2.223585 0.81071633 0.55531216 0.65264946
0000a0 4c 8b b8 3f 2b ea 94 3f 62 51 dd 3f 7c 93 87 3f
       1.441751 1.1633962 1.7290461 1.0591884
0000b0 04 e0 d5 3f be e6 12 3e 8c 69 f0 3e 8c 30 0a 3f
       1.6708989 0.14345834 0.46955526 0.53980327
0000c0 4c f8 e7 3f 97 1f d5 3f 58 73 99 3f e1 ef ec 3e
       1.8122649 1.6650265 1.1988325 0.46276763
0000d0 f4 f6 74 3f 1d 35 7c 3f cb 5d 70 3f e9 15 18 3f
       0.9568932 0.98518544 0.93893117 0.5940843
0000e0 f6 05 55 3f 77 53 8e 3f a0 8f e1 3f 07 57 1d 40
       0.8321222 1.1119221 1.7621956 2.4584367
0000f0 09 f1 d0 3e 24 e1 b6 3f 52 35 b9 3f 3a 25 6e 3f
       0.40808895 1.4287457 1.4469397 0.93025553
000100 15 e1 7a 3f e1 7f 82 3f c3 d9 c1 3f 00 95 78 3f
       0.979997 1.0195276 1.5144581 0.97102356
000110 28 9b be 3f e0 ba 03 3f 78 43 41 3f 51 b8 db 3f
       1.48911 0.51457024 0.75493574 1.7165624
000120 06 27 8a 3f e9 94 68 3f 39 98 75 3f 5a c1 8d 3f
       1.0793159 0.9085222 0.959354 1.1074631
000130 4e e4 7a 3f 6e 94 ce 3f 06 1f 82 3e 80 b2 8e 3f
       0.98004615 1.6139047 0.25414294 1.1148224
000140 21 03 41 3f fc 13 80 3f 5b cc 18 40 ba 2e b2 3f
       0.753954 1.0006099 2.3874729 1.392051
000150 da 53 3b 3f 8a 10 13 3f d1 83 32 3f 17 e5 85 3f
       0.7317482 0.5744711 0.69732386 1.0460538
000160 74 c8 d4 3f 7b 4b d5 3f 53 cc 8a 3f 57 dc 10 3f
       1.6623673 1.666366 1.0843605 0.5658621
000170 e6 ed d5 3f be 5c 9a 3f f0 00 97 3f 51 ce 61 3f
       1.6713226 1.2059553 1.1797161 0.8820544
000180 13 a9 d1 3f 24 1a 8d 3f af 0f 9e 3f 82 80 cb 3e
       1.6379722 1.1023602 1.2348536 0.3974648
000190 a6 cf 8f 3f 40 4f 5d 3f d3 f4 8b 3f 56 ff 34 3f
       1.1235244 0.8644905 1.093409 0.7070211
0001a0 6d 80 86 3f 40 1e 3a 3f c0 22 38 3f b4 1c a7 3f
       1.0507942 0.7270241 0.71928024 1.3055634
0001b0 fb 8f 88 3f ac 42 80 3f b0 02 bb 3e f7 98 08 40
       1.0668939 1.0020347 0.36525488 2.1343362
0001c0 b6 f9 6d 3f cb 4d d3 3f 18 c7 2c 3f f9 3d 09 3f
       0.92959154 1.6508116 0.6749129 0.5361019
0001d0 f5 4b 8a 3e 2b 07 52 3f 29 ed 39 3f d4 ae 8e 3f
       0.27011076 0.8204219 0.726275 1.1147103
0001e0 0a 22 9c 3f 6e 58 43 3f 73 07 d0 3f 9d c0 cf 3f
       1.2197888 0.7630681 1.6252273 1.6230656
0001f0 ea 48 e5 3f 98 78 e0 3f 55 e3 94 3f eb 81 87 3f
       1.7912877 1.7536802 1.1631876 1.0586523
000200 26 1b 90 3f aa 93 30 3f 5b fc b6 3f 2e bd 31 3f
       1.1258285 0.6897532 1.4295763 0.6942929
000210 91 fe dc 3e 77 48 54 3f 93 cb b5 3f ba 19 02 3f
       0.4316297 0.8292307 1.4202751 0.50820506
000220 a7 2a 9a 3f ab 0a bd 3f c1 dd 45 3f 37 07 0b 3f
       1.2044266 1.4768881 0.77291495 0.54307884
000230 2d c7 d3 3f 02 7e 3e 3f d0 ae 99 3f 45 0e 58 3f
       1.6545159 0.7441102 1.2006474 0.84396774
000240 28 de c8 3f 7b 0f b0 3f 29 7f bb 3f a6 63 6d 3f
       1.5692797 1.3754724 1.4648181 0.92730176
000250 2b 5e 76 3f e4 95 0d 3f e6 3a 5b 3f 36 6b 85 3f
       0.9623744 0.5530684 0.85636747 1.0423343
000260 16 9f ff 3f 30 c7 cb 3f 92 0d 86 3f 3a f7 90 3f
       1.9970424 1.5920162 1.0472891 1.1325448
000270 68 c0 12 3f 61 af bf 3f 04 8d ab 3f 5e a0 b6 3f
       0.5732484 1.4975396 1.340241 1.426769
000280 df d9 9f 3f 0c b4 b3 3f de e1 94 3f 24 37 0c 3f
       1.2488364 1.4039321 1.1631429 0.5477164
000290 32 8b 68 3f 80 0f 28 3f 97 04 85 3f f4 44 a0 3f
       0.90837395 0.6564865 1.0392026 1.2521043
0002a0 96 94 8d 3e 3e 68 92 3f 11 cd 69 3f 01 b0 be 3f
       0.27652425 1.1438062 0.9132853 1.4897462
0002b0 ea 55 78 3f d9 a0 05 3f 23 7d a4 3f 86 f0 73 3f
       0.97006094 0.5219856 1.2850689 0.95288885
0002c0 dd d4 d9 3f 68 d5 0f 3f 94 a1 9b 3f 4c 84 c1 3e
       1.7018086 0.5618501 1.2158685 0.37796247
0002d0 76 42 94 3f 5b 03 ef 3f cd 2e c8 3e d8 20 8b 3f
       1.1582782 1.8672899 0.39098206 1.0869398
0002e0 19 ac 70 3f b5 08 72 3f a1 76 2a 3f 6f 2e b9 3e
       0.940126 0.94544536 0.66587263 0.3616824
0002f0 51 ec 35 3e 74 a8 e1 3f d0 54 80 3f be c6 e0 3f
       0.17765929 1.7629533 1.0025883 1.7560651
000300 0e 3e 04 3f 89 13 a9 3f a7 a7 a8 3f df a1 4b 3f
       0.5165719 1.3209087 1.3176163 0.7954387
000310 e6 41 bb 3f d9 86 9f 3f 21 6e 7d 3f bb 89 90 3f
       1.4629486 1.2463027 0.9899617 1.1292032

fc1.s_group f4 [100, 1, 50]
000000 5c 86 9a 3e ba 21 a2 3f 37 85 a1 be 93 6e 3f 3f
       0.30180633 1.2666543 -0.31546947 0.747781
000010 f8 2a 87 3f 45 4f ca 3f 20 79 54 3c 79 8b 40 3f
       1.0559988 1.5805441 0.012968332 0.7521282
000020 5d 23 9c 3f 5e a7 95 3f 6f 35 b0 3f 99 3d 60 3f
       1.2198292 1.1691701 1.3766307 0.8759399
000030 7f 35 6d 3f d8 d7 38 3e 13 3b 08 3f 09 e9 cb 3e
       0.92659754 0.18051088 0.5321514 0.3982623
000040 f7 85 b2 3f 90 69 85 3f 0f 6d b4 3f 04 bf 04 3f
       1.3947133 1.042284 1.4095782 0.51853967
000050 76 93 5a 3f d8 09 96 3f 40 bf 9f 3f 7b 6b 87 3f
       0.8538126 1.1721754 1.248024 1.0579675
000060 07 55 b9 3f 7d c2 65 3f 4b 17 07 3f 89 96 c6 3f
       1.4479073 0.8974989 0.5276992 1.551469
000070 2c ff a4 3f 25 0d c0 3f 84 e3 91 3f 10 15 94 3f
       1.2890372 1.5004011 1.1397557 1.1568928
000080 a2 4b da 3f 78 f1 9f 3f 09 50 8c 3b 4b 8b 4f 3f
       1.7054331 1.2495565 0.004282002 0.8107192
000090 5d 51 9c 3c a8 22 96 be 2d a3 19 3f fb 36 e1 3f
       0.019081766 -0.29323316 0.6001461 1.7594904
0000a0 d0 97 d5 3f e4 38 af 3f ff df f8 3f f1 e3 78 3f
       1.6686954 1.3689237 1.9443358 0.9722281
0000b0 d3 ee a8 3f b5 a8 08 40 eb f2 5f 3f b2 28 92 3e
       1.3197883 2.135297 0.8748004 0.28546673
0000c0 d3 f7 13 3f 32 c6 2a 3f ac 13 e7 3f 5c 33 64 3f
       0.57800025 0.6670867 1.8052878 0.8914087
0000d0 75 9b 20 3f 93 44 24 3f d2 09 72 3f 94 03 6f 3e
       0.6273721 0.64167136 0.94546235 0.23341209
0000e0 54 8e c2 3f f0 61 99 3f 14 2f 7a 3f 92 26 a0 3f
       1.5199685 1.1983013 0.97728086 1.2511771
0000f0 57 82 cb 3f e3 4b d9 3f d6 fe 58 3f 72 46 93 3f
       1.5899152 1.6976284 0.8476385 1.1505873
000100 60 08 9d 3f b1 4f 4e 3f 9e 17 49 3f a3 1a 8f 3f
       1.2268181 0.8059035 0.7855166 1.1180004
000110 1b e4 36 3f 65 dc a1 3f 0b 62 99 3f 10 41 57 3f
       0.7144181 1.2645384 1.1983045 0.8408365
000120 db 86 cb 3f 23 3f 98 3e e7 8e 0c 3f f4 0b 6a 3f
       1.590053 0.2973567 0.5490555 0.9142449
000130 ab ec f3 3e c0 3c 1e 3f ff fe 8a 3f 76 fd 92 3f
       0.476415 0.6181145 1.0859069 1.14836
000140 2c 26 81 3f 77 92 e0 3e 3f 70 b6 3f b0 ef 8a 3f
       1.0089774 0.43861744 1.4253005 1.0854397
000150 4e c8 40 3f bb fb 70 3f f8 68 c4 3f 7e 75 26 3f
       0.7530564 0.9413411 1.5344534 0.6502303
000160 eb 92 b4 3c eb 44 7a 3f cd 33 1f 3f 5c f8 11 40
       0.022042712 0.9776141 0.62188417 2.2807837
000170 68 73 e1 3e 8d e8 50 3f 59 49 56 3f 15 e3 d3 3f
       0.4403336 0.81604844 0.8370567 1.6553675
000180 c1 4c 5a 3f 62 4a c6 3f 43 ef 41 3f a1 5a 7b 3f
       0.8527337 1.549145 0.7575571 0.98185164
000190 d3 91 40 3f d3 e8 bf 3f 23 d3 25 3f fd 60 e8 3f
       0.7522251 1.4992927 0.64775294 1.8154598
0001a0 bb bf 9c 3f b7 9b cc 3f 91 bb a1 3f 4c 7c 4b 3f
       1.2246011 1.598502 1.2635366 0.79486537
0001b0 00 60 93 3f 2e 02 a8 3f e7 84 90 3f 35 8c 27 3f
       1.1513672 1.3125665 1.1290559 0.65448314
0001c0 c3 7d 3c 3f 9c d1 a1 3f f3 6d 66 3f 25 31 c6 3f
       0.736294 1.2642093 0.9001152 1.5483748
0001d0 f6 73 9d 3e a1 5d 9e 3f cc 2a 1c 3f 9b bb b0 3f
       0.30752534 1.2372323 0.610028 1.3807253
0001e0 bd f3 ab 3f 2b db bc 3f 37 02 d7 3e 0d f2 c3 3f
       1.3433758 1.4754385 0.41993877 1.5308243
0001f0 7f e3 37 3f 5f af c6 3f 91 42 96 3f e3 d3 a4 3f
       0.71831506 1.5522269 1.1739064 1.2877163
000200 c1 be 32 3e b7 5e 84 3f bd 62 94 3f 32 e5 c9 3f
       0.1745558 1.0341405 1.1592633 1.577307
000210 b0 76 76 3f 3a 83 a6 3f c8 0e d9 3f e4 c1 ba 3f
       0.9627485 1.3008797 1.6957636 1.4590421
000220 20 c7 c8 3f 21 74 77 3f 61 4d 88 3f de 8a 72 be
       1.5685768 0.96661574 1.0648614 -0.23685786
000230 19 d5 bb 3e df 97 f8 3f bb 7a 52 3f ca eb 2a 3f
       0.36686018 1.9421347 0.8221852 0.66766036
000240 c1 bc d7 3f 69 ad 67 3f a8 99 8b 3e 66 b1 92 3f
       1.6854478 0.9049898 0.27265668 1.1460388
000250 f9 c6 12 3f b0 90 95 3f 22 10 86 3f db b3 c7 3f
       0.5733486 1.168478 1.0473673 1.5601763
000260 23 f9 89 3f fb 2c 92 3f cc 4d 8f 3f 33 dd c1 3f
       1.0779155 1.1419977 1.1195617 1.514563
000270 92 56 14 40 b3 45 bd 3f 76 ef f5 3e b1 b7 c3 3f
       2.3177838 1.4786896 0.48034257 1.5290433
000280 dd 49 d7 3f 41 6b ba 3f 6a 82 d1 3f 75 3d 9b 3f
       1.6819416 1.4563981 1.6367924 1.212813
000290 29 5e 99 3f 56 3f 2d 3f e0 c7 4e 3f 0b 12 a1 3f
       1.198186 0.6767477 0.80773735 1.2583631
0002a0 2f ff 4b 3f d3 12 75 3f fd d3 b5 3f 0c 3f 50 3f
       0.79686254 0.9573185 1.4205319 0.813462
0002b0 a4 63 8e 3f 60 a0 a7 3f 04 73 11 3f 9c 87 a0 3e
       1.1124158 1.3095818 0.56816125 0.31353462
0002c0 49 e2 64 3f f6 f3 ad 3f 49 4a 7e 3e 4a 3c c6 3f
       0.89407784 1.3590076 0.24833025 1.5487149
0002d0 a6 e5 6b 3f 55 fd a2 3f 64 60 a0 3f 2c 0a 14 3e
       0.9214729 1.2733561 1.2529416 0.14457005
0002e0 07 82 69 3f 7e 87 89 3f 63 bb 31 3f 26 f4 f2 3e
       0.9121403 1.0744474 0.69426554 0.47451895
0002f0 e7 c2 1f 3e e1 9c a8 3f 36 7c 29 3f d1 6d cb 3f
       0.15601693 1.3172876 0.66205156 1.5892888
000300 00 b7 cc 3c c8 8d 98 3f fe ad cd 3f 8c 88 db 3f
       0.024989605 1.1918268 1.6068723 1.7151046
000310 4f 96 82 3f 67 57 c5 3f 87 e3 aa 3f dc c8 9a 3f
       1.020212 1.5417298 1.3350686 1.2092547
000320 74 f6 d1 3f 93 1d 7d 3f 6d fa aa 3f 5a 6a 94 3d
       1.6403337 0.9887325 1.3357674 0.072468475
000330 b0 50 f9 3d 8a 6a ac 3f c6 81 29 3f 49 66 74 3f
       0.12173593 1.3470013 0.66213644 0.95468575
000340 80 b2 2c 3f ec d5 9f 3f cc 2c a8 3f bb 85 f2 3f
       0.6745987 1.2487159 1.3138671 1.8947061
000350 9b 43 68 3f 61 46 a9 3e 0a e7 c1 3f 55 f0 3a 3f
       0.9072816 0.33061507 1.5148633 0.7302297
000360 4c 83 96 3f b8 ad 38 3f 47 af 35 3f ef 86 fd 3f
       1.1758819 0.72140074 0.70970577 1.9806803
000370 f3 5b 79 3f a7 53 ac 3f 09 77 85 3f d2 e6 b2 3f
       0.9740593 1.3463029 1.0426952 1.3976691
000380 5d f4 a1 3f 92 39 bc 3f 01 9d 86 3f d2 e5 f3 3e
       1.2652699 1.4705069 1.0516664 0.47636276
000390 4e 8a 89 3f be c5 b0 3d 69 28 84 3f 86 ae f8 3e
       1.0745332 0.08631466 1.0324832 0.4857065
0003a0 34 15 80 3f f7 4e 9a 3f 5f f9 cb 3e 22 bb e0 3f
       1.0006471 1.2055348 0.39838693 1.7557108
0003b0 e1 f7 53 3f ed 5a aa 3f 5d 50 53 3f 62 c7 ff 3e
       0.8280011 1.3308998 0.825445 0.49956805
0003c0 9e 35 90 3f 9c 73 88 3f 89 e7 b0 3f 45 e5 5a 3f
       1.1266363 1.0660281 1.3820659 0.8550609
0003d0 1e a3 87 3f 50 1c bd 3e 46 e2 b3 3f fb b7 d8 3e
       1.0596654 0.36935663 1.4053428 0.42327866
0003e0 05 34 24 3f f1 66 0c 3f 75 7b e9 3f 93 65 d4 3f
       0.64141876 0.54844576 1.8240801 1.6593498
0003f0 bc a1 68 3f 2c 40 fc 3e 59 5c 54 3f 8f 67 f3 3f
       0.9087179 0.4926771 0.8295341 1.9015979

fc1.bias f4 [100, 50]
000000 2a 97 55 3e 51 b6 b5 3e 7d 5f d8 bc ae f1 ac 3e
       0.20858446 0.3549066 -0.02641272 0.33778137
000010 f1 80 28 be 09 e9 3a bf 51 3d 8d bd 59 44 ed be
       -0.16455437 -0.73011833 -0.06896461 -0.46341208
000020 14 e2 26 bf 4a 1a bd bd 46 50 60 3d 7d 6c d5 bd
       -0.6518872 -0.0923353 0.054764055 -0.10421083
000030 21 97 0c bf be 08 4c bd 9f e4 64 3d 23 b0 d6 3e
       -0.54918104 -0.049813025 0.055882093 0.41931257
000040 41 27 31 be bd a4 8e be 4f 12 29 3f d6 5d 1c bf
       -0.1730013 -0.2786006 0.6604356 -0.6108068
000050 63 5c bd 3e f4 2b d0 3e 6d 39 1e bf 0e f1 52 3c
       0.36984548 0.40658534 -0.61806375 0.012874855
000060 80 d6 1d 3f 20 72 83 3e e8 88 22 3f 02 20 09 3f
       0.61655426 0.25673008 0.6349015 0.53564465
000070 19 0b 24 3f 58 73 3d be 87 c3 cd bd 6c 73 98 3d
       0.64079434 -0.18501031 -0.100470595 0.0744389
000080 16 94 10 bf c9 b2 0a be df c6 6c 3e 46 e8 d7 3d
       -0.5647596 -0.13544764 0.23122738 0.105423495
000090 68 de 75 3e 95 b6 0d bf b6 f2 e8 3e 73 71 3c bf
       0.24010623 -0.55356723 0.45497674 -0.7361061
0000a0 84 2b 5e be a3 66 0c bd 24 06 be be 33 05 79 3e
       -0.21696287 -0.03427757 -0.3711406 0.2431839
0000b0 65 3f e8 3e 27 31 f0 3e 57 60 18 bf 0a b3 0b bd
       0.45360866 0.469125 -0.59522 -0.03410629
0000c0 63 e4 fc be fd 6f a4 bd a0 a3 d8 be 0f 7c 13 bf
       -0.49392995 -0.080291726 -0.42312336 -0.57611173
0000d0 60 c1 4d 3d 5f d9 a4 be 6e 2d bb 3e 05 3e ea 3d
       0.050233245 -0.3219709 0.36558098 0.114376105
0000e0 59 9d 86 be a4 f8 6d 3d c8 ac 10 3f f2 a3 47 3e
       -0.26291922 0.05809845 0.56513643 0.19496134
0000f0 e2 fd b1 3d 91 80 e7 be cc 41 22 be fd a1 17 bf
       0.086910024 -0.45215276 -0.15845412 -0.5923155
000100 5f 5f 06 3f bc d2 16 3f 14 a3 d5 3e de d4 04 bd
       0.52489275 0.58915305 0.4172598 -0.03242957
000110 1d df 1f 3f 8a 5e 35 bf b9 c8 0b be dd ac b6 be
       0.6244982 -0.7084738 -0.13650788 -0.3567876
000120 60 20 34 bf 4f 64 91 3e e3 93 a5 3e 33 12 17 3e
       -0.703619 0.28396842 0.3233939 0.14753036
000130 0f a2 9b be ec a4 25 3f 4f 33 0c 3f 73 08 a9 3e
       -0.30397078 0.64704776 0.5476579 0.3301426
000140 5b 11 e3 be 18 67 20 3f 96 73 33 be b0 3f 27 3d
       -0.4434918 0.6265731 -0.17524561 0.04083222
000150 0a cd 1c 3f a0 0f 1d bf cc d5 2b 3e ba c8 5f 3e
       0.61250365 -0.61351967 0.16780776 0.21853915
000160 b3 57 b1 3e b8 e8 e0 3e 80 51 78 3e 06 f2 ff 3d
       0.34637222 0.4392755 0.2424984 0.12497334
000170 24 a6 19 3f d0 e3 e2 be 56 83 a9 3e ae 6f e7 3e
       0.60019135 -0.44314432 0.33108014 0.45202392
000180 92 88 48 3e 5a 41 ef 3e 72 00 8c 3d 6f 46 4d 3e
       0.19583347 0.46729547 0.068360224 0.200464
000190 77 a9 34 3d da 31 fe be f5 01 47 3e 1f e4 85 be
       0.044106927 -0.4964741 0.1943434 -0.26150605
0001a0 82 a4 41 3f 00 30 5f be d8 f7 08 3f 22 ef 80 3e
       0.75641644 -0.21795654 0.5350318 0.25182444
0001b0 99 c5 bc 3e ac d7 a9 be d2 4b 02 3f 73 60 a7 be
       0.36869505 -0.33172357 0.5089694 -0.32690772
0001c0 26 53 09 bf fa e4 0e 3f 6c aa 39 3f 06 3c 3a be
       -0.536425 0.5581814 0.7252567 -0.1818696
0001d0 b2 a2 1f bf 64 20 95 be 79 a4 03 bf 12 33 b1 bb
       -0.6235763 -0.29126275 -0.5142284 -0.0054076994
0001e0 89 5e 48 bd b0 a5 fc 3c e2 62 2c bf 46 a9 2b be
       -0.04891828 0.030840725 -0.67338383 -0.16763791
0001f0 ce f1 05 3f 19 a5 14 bf 58 32 ad 3e 6a 13 82 3e
       0.5232209 -0.5806442 0.33827472 0.25405437
000200 a5 ca 35 3e 57 65 f4 3e 6a 88 04 bf d8 88 30 3e
       0.17753084 0.47733566 -0.5177065 0.17239702
000210 8c aa 0c 3f 1d 63 69 bd 53 38 9f 3e 63 3b 45 3f
       0.54947734 -0.056979287 0.3109766 0.7704374
000220 7d 76 17 3e 29 3a 8d bd f8 fa cb 3e ad 7a 71 be
       0.14791293 -0.06895859 0.3983991 -0.23581953
000230 0c 70 ae be bc af 01 bf 08 de d6 3d f6 a8 69 3d
       -0.3406986 -0.50658774 0.10491568 0.0570459
000240 74 8b 82 be 01 6d 0d be b9 e3 49 3e 8d 79 1f bf
       -0.2549702 -0.13811113 0.19715776 -0.62294847
000250 2d 14 cb bd 11 3d 07 3f 6f 28 01 bf 92 ea 5e bd
       -0.099159576 0.52827555 -0.5045232 -0.054422922
000260 c6 71 31 3d 57 0c ce be 6c bf f3 be ac d9 c1 bd
       0.043321393 -0.4024379 -0.4760698 -0.09465346
000270 5d db e5 be 34 7d 0e bf 50 6b 36 3d d2 35 24 3f
       -0.44893923 -0.55659795 0.044535935 0.64144623
000280 42 b8 07 3f 75 18 15 bf ce 46 16 bf 0c 72 e8 3b
       0.5301553 -0.58240443 -0.5870179 0.0070936736
000290 44 d4 e2 3e d6 f8 a4 bd 33 51 08 bf 5a f4 99 be
       0.4430257 -0.08055274 -0.532489 -0.30069238
0002a0 ab 17 b6 3e 69 05 74 be 5d 90 d6 3e 93 d0 1e bf
       0.35564932 -0.23830189 0.41907015 -0.6203701
0002b0 3d ed 07 3f 6c 26 35 3e 85 d5 eb be 15 79 28 bf
       0.5309637 0.17690438 -0.4606134 -0.65809757
0002c0 a0 7b 03 3e 09 e5 a0 3e 4a 78 c8 3e f2 27 63 3e
       0.12840128 0.3142474 0.39154273 0.22183207
0002d0 1d 15 2b 3f 07 90 9c 3d ff b9 0d bf be 44 2a bf
       0.6682909 0.076446585 -0.5536193 -0.6651114
0002e0 f9 ca 26 3f b5 99 d0 3e c3 a3 b9 3e b9 f3 2e bf
       0.6515346 0.4074227 0.36257753 -0.6834064
0002f0 55 16 33 bd 78 b0 90 be 9e f3 64 be 78 a5 a1 3e
       -0.04372247 -0.28259635 -0.22358558 0.31571555
000300 d2 88 0f bf 97 7b 24 3f c6 68 a3 be ea ba de be
       -0.56068146 0.64251083 -0.31915873 -0.4350198
000310 3d 7f b5 be 4d 67 60 3e 44 ae d7 be fa 0c f7 be
       -0.35448638 0.21914406 -0.42125142 -0.48252088
000320 f7 07 fc be fc b3 13 bf ef 81 01 3f 35 74 ba 3e
       -0.49224827 -0.5769651 0.5058889 0.36416784
000330 ac 0d f1 be 60 b3 85 be 8c 3c 04 bf a9 8f dc 3d
       -0.47080743 -0.26113415 -0.5165489 0.107695885
000340 ff e9 0e bf e1 54 ca 3e a0 ac 80 3d 64 9d f9 be
       -0.558258 0.39517882 0.062829256 -0.48752892
000350 1b a2 65 3c e0 c3 d8 3d 88 f4 44 3f ed 3d 2b 3f
       0.0140157 0.10584235 0.76935625 0.66891366
000360 b5 fe a6 3d 31 5b 1e bf f1 25 9b be 1d a3 0f 3f
       0.0815405 -0.618579 -0.30302384 0.56108266
000370 1a e3 ef be 4f 81 a0 be b3 2e 98 3c 5f 23 74 3e
       -0.46852952 -0.31348655 0.018576955 0.23841618
000380 84 b3 49 bf 22 33 91 3e bd ac 24 3f 9d 85 23 3f
       -0.78789544 0.28359324 0.6432608 0.6387575
000390 a2 02 b5 3b f4 7d f4 3d 16 10 1b 3f b6 55 1f bf
       0.0055239955 0.11938086 0.6057142 -0.6224016
0003a0 a7 e2 9b 3c 1a 6f 27 3f 35 c7 3f 3e a4 56 e6 bc
       0.019028975 0.654039 0.18728335 -0.028117485
0003b0 0e 61 95 be 65 10 c8 be c6 fe 3d 3e 03 5c 85 3e
       -0.2917561 -0.39075008 0.1855422 0.26046762
0003c0 59 d0 e0 bc 25 62 ef 3d 8c b5 20 3d 8f 4c 38 3f
       -0.027443098 0.116886415 0.039235637 0.7199182
0003d0 fd 8b 77 3e 6f fd d8 3c 2b c2 11 bf dc cf 90 3e
       0.24174495 0.026488034 -0.569369 0.28283584
0003e0 86 03 d0 be 1b ad 99 3e 13 bb e9 be 93 ab 2e bf
       -0.40627688 0.30014881 -0.4565054 -0.6823055
0003f0 92 fd 98 3e dd 1d 25 3f a0 30 a2 be f1 10 6a be
       0.2988096 0.6449869 -0.31677723 -0.22858025

fc1.linear.weight f4 [50, 2]
000000 17 93 be be 2a da 26 3f 33 23 f4 3e b1 f2 c2 3c
       -0.37221596 0.6517664 0.47683105 0.023797365
000010 c0 d9 57 3e e3 35 c0 3d 75 45 eb be d6 a6 54 3e
       0.21079159 0.09385278 -0.4595143 0.20766768
000020 93 69 28 3e b8 9a 33 be 23 28 f5 be ed b2 bc 3e
       0.16446523 -0.1753949 -0.47882184 0.3685526
000030 f9 d6 0f bf 89 bc 82 3e 92 92 a0 bd 6c 79 3c 3e
       -0.561874 0.25534466 -0.07840456 0.18405694
000040 ee a1 a3 bd 28 cd f2 be 5b e7 14 3f a6 cf 2f bf
       -0.0798987 -0.47422147 0.5816552 -0.6867622
000050 75 d2 10 3f b0 7f 1c bf c5 fc 29 3f e5 f6 5e 3e
       0.5657113 -0.61132336 0.6640132 0.2177387
000060 30 ec ef 3c 17 52 bc be ba 21 03 3e de e1 18 3f
       0.029287428 -0.3678138 0.12805834 0.59719646
000070 52 ca 2e bf 59 1e 29 bd 65 81 03 3d 12 5b 2f bf
       -0.68277466 -0.041288707 0.032105822 -0.6849834
000080 4c da 82 bb f1 e3 64 bd 11 b6 c1 3e f3 84 b5 3e
       -0.003993308 -0.055881444 0.37834218 0.35452995
000090 ae 1d bc 3e 56 fc 5a be 41 b4 b9 bd 0b c1 9c 3e
       0.36741394 -0.21385321 -0.09067584 0.3061603
0000a0 78 30 6d be 16 88 00 3f c1 fd 1c 3f cf 63 0f bf
       -0.2316302 0.5020765 0.613247 -0.5601167
0000b0 e7 7a a4 be cd d3 37 3f 2a 04 4a be 97 29 00 bf
       -0.32125017 0.7180756 -0.19728151 -0.5006346
0000c0 2c f3 17 bf 1b 8d 01 bf 36 95 33 bf 59 80 b0 be
       -0.59355426 -0.50605935 -0.7014955 -0.34472921
0000d0 1d 61 3c bf 63 e5 98 be 7e a8 a5 3e 58 e2 d8 3e
       -0.73585683 -0.29862508 0.32355112 0.42360187
0000e0 71 91 13 bf 8b 02 f7 3e ba c0 05 3f 02 8f e0 be
       -0.576438 0.48244128 0.522472 -0.43859106
0000f0 eb 3e 30 3e d0 91 5a bd 2a 96 02 bf bd 68 8f bc
       0.17211501 -0.053361714 -0.5101038 -0.017505998
000100 3e 95 86 3e a6 96 90 3d 2d 99 14 bf 22 a9 31 3f
       0.26285738 0.07059984 -0.5804623 0.693987
000110 fd 04 a1 be 84 c4 d2 bb 95 92 3b bf 28 08 a7 3e
       -0.31449118 -0.006432118 -0.7327054 0.3262341
000120 32 1e 08 bf be 6d 15 bf e6 14 3f 3d ad 73 fc bd
       -0.53171074 -0.5837058 0.04665079 -0.12326751
000130 8e d9 a7 3e c9 a6 d2 be 48 a7 cf 3c ef 3c 49 bf
       0.3278317 -0.41142872 0.02534832 -0.786086
000140 74 a0 9e bd 33 d0 ed 3e 52 1f d7 bd e0 69 e6 be
       -0.07745448 0.46447906 -0.10504021 -0.4500265
000150 f3 16 a8 3e 86 67 4f be 53 54 0e 3e 74 06 d7 3e
       0.3283001 -0.20254335 0.13899355 0.4199711
000160 82 4c 29 3f b7 0b fa be b7 1c 04 bf c6 62 0f 3f
       0.66132367 -0.48837063 -0.51606315 0.5601009
000170 0e 30 f5 be fa 13 b5 3d 98 a5 45 3f fe a7 b2 3e
       -0.47888225 0.08841701 0.772058 0.34893793
000180 a7 31 2c be d3 c2 cf 3e c1 76 e8 be e7 b4 1a bf
       -0.16815816 0.40578327 -0.45403102 -0.60432285

fc2.r_group f4 [100, 1, 50]
000000 34 b8 cd 3f a2 17 54 3f 75 2a 77 3f e8 6c a0 3f
       1.6071839 0.8284856 0.9654916 1.2533236
000010 6a 25 69 3f 14 24 a4 3f 62 20 72 bd 40 7d 90 3f
       0.91072714 1.282351 -0.059112914 1.1288223
000020 e5 9e ee 3e 2f 58 0a 40 98 c7 eb 3e 9c 9a 2f 3f
       0.46605602 2.1616323 0.46050715 0.6859529
000030 fc 29 fa 3f a9 4c b7 3f b5 f4 20 3e 71 7d bb 3f
       1.9544063 1.432027 0.15718348 1.4647657
000040 d3 ab 08 40 14 94 ba 3e b4 09 a8 bd d1 e6 c3 3f
       2.1354873 0.364411 -0.08204976 1.5304815
000050 0e 59 15 3f 07 e7 7d 3f 67 ad 41 3f 8d 38 a2 3f
       0.5833901 0.99180645 0.75655216 1.2673508
000060 32 6c 77 3f 3b d7 1b 3f 5d e9 02 3f 05 d9 15 3e
       0.9664947 0.6087529 0.51137334 0.14633568
000070 eb 9e 65 3f 14 08 4c 3f ac 96 fd 3e b0 38 9d 3f
       0.89695615 0.79699826 0.49529016 1.2282925
000080 81 3d c1 3f 79 2c 6a 3f b2 ca a4 3f d3 af 27 3f
       1.5096895 0.9147411 1.2874358 0.6550266
000090 a4 26 c3 3f ee 7a 24 3f 3e c9 a1 3f 61 7f 32 3f
       1.5246167 0.64250076 1.2639539 0.69725615
0000a0 bc 8b 4d 3f fc 3b 90 3f 85 fd 07 3f fb 34 f4 bc
       0.8029134 1.1268306 0.53121215 -0.02981042
0000b0 9c c9 bb 3f 27 ec 94 3e f1 d5 8c 3f 53 86 80 3f
       1.4670901 0.2908642 1.100279 1.0040992
0000c0 c8 3c 31 3f 5b 84 b4 3f 35 c2 82 3c a2 5c f2 3f
       0.6923337 1.4102892 0.015961746 1.8934519
0000d0 56 79 39 3d 48 4d 7d 3f 20 e9 b4 3f b8 a0 01 3f
       0.04528173 0.98946047 1.4133644 0.5063586
0000e0 77 78 92 3f f5 51 0b 3f 52 3b a3 3f f3 5c 81 3f
       1.1443013 0.5442193 1.2752478 1.0106491
0000f0 d7 26 00 40 f8 76 2a 3e a3 1e 6d 3f 8d 37 5e 3f
       2.0023706 0.16646945 0.9262487 0.86803514
000100 b8 ed 9b 3f cc 9a 7c 3f 0d 1c d4 3e 17 c0 a8 3f
       1.2181921 0.986737 0.4142765 1.3183621
000110 7b 57 dc 3f b8 d2 35 3f 4d c8 a2 3f 12 e3 8a 3f
       1.7214197 0.71024656 1.2717377 1.0850546
000120 7c 0a bf 3f a9 5b c9 3e 5a 92 d8 3f de f9 fe 3f
       1.4925075 0.39327744 1.6919663 1.9920003
000130 cd 7f 32 3f c8 4e 19 3f 6d e1 8d be c6 51 a8 3f
       0.6972626 0.59885836 -0.2771105 1.3149955
000140 05 4f dd 3e 9f c6 ab 3f c4 a7 5e 3f fc c9 53 3f
       0.4322435 1.3419989 0.8697474 0.8273008
000150 68 cb 6b 3f af bc 96 3f b4 b5 a7 3f 69 a9 6d 3f
       0.9210725 1.1776332 1.3102326 0.92836624
000160 35 9a c3 3f 32 53 98 3f 94 57 70 3f 25 cd 63 3f
       1.5281435 1.1900389 0.93883634 0.889849
000170 ae 06 83 3f 0f 20 aa 3f ac 4e d1 3f 19 f1 02 3f
       1.0236413 1.3291034 1.6352134 0.51149136
000180 cf a8 ea 3f 43 f9 e7 3d 53 d8 cf 3e 14 b8 c7 3f
       1.8332766 0.1132684 0.4059473 1.5603051
000190 50 47 90 3f ba 2f 43 3f fa 1b 42 3f ac 38 76 3e
       1.1271763 0.762447 0.7582394 0.24045056
0001a0 83 ff 35 3f 7f 46 82 3e 24 68 20 3f 31 4f 46 3f
       0.71093005 0.2544441 0.62658906 0.77464586
0001b0 d3 f0 74 3f 34 a3 d5 3f 01 9d 84 3f 97 9f eb 3e
       0.9567997 1.6690431 1.0360414 0.46020195
0001c0 03 a8 a2 3f 04 43 17 3f c0 95 99 3f b4 5c 71 3f
       1.2707523 0.5908663 1.1998825 0.9428208
0001d0 b0 cb b9 3f b3 43 38 3f 96 d8 2c 3f 4e f8 b8 3e
       1.4515285 0.719783 0.67517984 0.3612694
0001e0 55 c8 1a 3f 15 f5 b2 3f 5e db 8d 3e ea a0 b8 3f
       0.6046193 1.3981043 0.27706426 1.4424107
0001f0 3e 22 03 3f d0 0b b2 3f 7f 62 b8 3f c0 06 ba 3f
       0.51224124 1.3909855 1.4405059 1.453331
000200 77 52 a6 3f 87 79 15 3f 3e 07 a2 3f eb 1f e5 3f
       1.2993916 0.5838856 1.265846 1.7900366
000210 4e 8c 9a 3f 8a a6 5d 3f b6 3a ab 3f 42 f1 82 3f
       1.2074068 0.86582243 1.3377292 1.0229876
000220 cd 23 59 3f 48 37 50 3f 0d 52 40 3f 61 40 8d 3f
       0.8482025 0.8133435 0.751252 1.1035272
000230 f4 66 4d 3f 5d f9 d2 3f 2f 27 01 3f 7f 90 8c 3f
       0.8023522 1.648235 0.50450414 1.0981597
000240 dc 14 55 3f ac cd 8d 3e 74 75 0c 3f 08 15 12 3f
       0.83234954 0.27695978 0.5486672 0.5706334
000250 0b 23 b1 3f 65 51 01 40 08 8b a9 3f 31 37 bf 3f
       1.3838819 2.020593 1.3245554 1.4938718
000260 48 5a 4e 3f 02 af e6 3e 75 7b 58 3f 60 7c d9 3e
       0.8060651 0.45055395 0.8456338 0.42477703
000270 0e f7 2d 3f 18 48 12 3f 50 1e 7a 3f e3 b3 45 3f
       0.679551 0.57141256 0.97702503 0.7722761
000280 9c 8a d4 3f 54 12 5c 3f 27 d4 5b 3f 90 4d af 3e
       1.66048 0.85965466 0.85870594 0.34238863
000290 eb 64 a0 3f c7 6f 13 40 fe 90 cd 3f f2 3a 71 3f
       1.2530798 2.3036973 1.6059873 0.9423057
0002a0 d8 01 ec 3f 49 7b 4e 3f 08 e8 d5 3f 00 c4 9e 3f
       1.8438063 0.8065687 1.6711435 1.2403564
0002b0 03 dc e0 3f 3f c8 82 3f e7 e7 74 3e ac 51 39 3e
       1.7567142 1.021736 0.23916589 0.18097562
0002c0 99 e1 90 3e 4d 38 89 3f 8e 90 dd 3f 0a 17 41 3f
       0.28297117 1.0720307 1.730974 0.7542578
0002d0 06 12 cd 3f 69 1f 45 3f 0e f6 7c 3f f0 f7 db 3e
       1.6021125 0.77001053 0.9881295 0.429626
0002e0 0d 5c 05 3f 18 45 97 3f 6e 12 9d 3f 88 07 a2 3f
       0.52093583 1.1817961 1.2271249 1.2658548
0002f0 be f4 07 3f e9 a1 84 3f 93 49 2e 3f 44 d9 aa 3f
       0.5310782 1.0361911 0.68081015 1.3347554
000300 91 1e af 3f ae cd c4 3f e7 98 17 3f 7f c3 8c 3f
       1.3681203 1.5375268 0.59217685 1.0997161
000310 c9 d8 1a 3f 2b f7 8f 3f 8a c5 85 3f e4 6e 84 3f
       0.6048704 1.1247305 1.0450909 1.0346341
000320 61 6b 81 3f 63 40 b2 3f 4c c1 90 3f c7 7a 9b 3f
       1.0110894 1.3925899 1.130899 1.2146844
000330 02 ab b1 3f 80 5b b5 3f 48 cb b6 3f a6 a6 ce 3f
       1.3880312 1.4168549 1.4280787 1.6144607
000340 f2 80 77 3f 6c 0c 0a 3f 82 d0 42 3f 13 8a 89 3f
       0.9668113 0.53925204 0.7609941 1.0745262
000350 51 3d 67 3e 6e 4a 69 3f 97 ea 82 3f 7f 6d fd 3f
       0.22581984 0.91129196 1.0227841 1.979904
000360 9a 49 61 3f 2c 0b 9b 3f 44 90 d2 3f 62 54 e4 3f
       0.8800293 1.2112784 1.6450276 1.7838252
000370 8a 07 48 3f 01 0e ae 3f 7a 1b c0 3f 3b fd dc 3f
       0.78136504 1.3598024 1.5008385 1.726478
000380 6d 84 86 3e 6b c6 79 3f 9f 76 ad 3f 1f 1b ad 3f
       0.26272908 0.97568387 1.3551825 1.3523902
000390 39 17 95 3f 76 c9 8b 3e 64 15 6f 3f e3 b1 bd 3f
       1.1647712 0.2730214 0.93392015 1.4819912
0003a0 ed 24 7c 3f 43 06 0d 40 e0 a3 b3 3f 57 9f 0a 3f
       0.98493844 2.2035072 1.4034386 0.54149383
0003b0 09 f8 8d 3d b4 b0 f2 3f 48 ea 8c 3e f2 54 5b 3f
       0.069320746 1.8960176 0.27522492 0.8567649
0003c0 a2 5e 8c 3f a8 6c 8e 3f cd 9b 97 3f ac 88 76 3f
       1.096638 1.1126909 1.1844422 0.96302295
0003d0 39 fd 14 3f 79 6c 4c 3e f4 5a 8b 3f 13 04 a8 3f
       0.5819889 0.19963254 1.0887132 1.3126243
0003e0 06 d6 8a 3f 94 26 e7 3f e3 6d 19 3d 2c 76 50 3f
       1.0846565 1.8058648 0.03745831 0.81430316
0003f0 84 25 38 3f 5f 87 ef 3e 13 9d 56 3f 90 d5 6b 3f
       0.71932244 0.46782967 0.83833426 0.92122746

fc2.s_group f4 [100, 1, 5]
000000 ae ff a7 3e e0 a8 3e 3f 10 b5 74 3e 08 8c a2 be
       0.32812256 0.7447643 0.23897195 -0.3174746
000010 ac e9 e8 3e 9f bb ab 3e 11 58 f6 3e c2 da a0 3e
       0.45490777 0.3354158 0.48114064 0.314169
000020 87 f4 ed 3f 32 fe ba 3f ea b3 8f 3f 27 91 57 3f
       1.8590249 1.4608824 1.122678 0.8420586
000030 63 c0 48 3f 19 91 48 3f 23 b1 7c 3f 92 1c c1 3f
       0.7841856 0.783464 0.9870779 1.5086844
000040 6b 5f 81 3f 50 ee 5c 3f 6a c7 8f bd 8d 79 ad 3f
       1.0107244 0.86301136 -0.07020457 1.3552719
000050 97 63 07 3f cd ef 4a 3f ac 4b ae 3f b0 16 39 3f
       0.5288634 0.79272157 1.3616843 0.72300243
000060 91 09 89 3f c2 e4 9a 3f 81 e9 ac 3f 93 b8 6e 3f
       1.0706044 1.2101061 1.350876 0.9325039
000070 52 ad 71 3f f4 39 c0 3f 01 8c 95 3f 94 42 e8 3f
       0.9440509 1.5017686 1.1683351 1.8145318
000080 93 18 94 3f 26 b3 69 3f 1d 13 43 3f 61 71 3a 3f
       1.157 0.91288984 0.7620104 0.7282925
000090 e9 ba e4 3f 3a 05 7f 3f 11 cd 33 3f bf f1 6a 3f
       1.786954 0.9961735 0.7023478 0.91775125
0000a0 1c 18 a2 3f bb e1 50 3f c1 0f 95 3f c0 37 62 3f
       1.2663608 0.8159444 1.1645433 0.8836632
0000b0 cf af 3e 3f 4e 49 46 3f e6 09 e8 3f 38 5e 3c 3f
       0.7448701 0.77455604 1.8128021 0.73581266
0000c0 24 e5 f7 3f d1 78 cb 3f 5c 05 dd 3f 79 36 a7 3f
       1.9366803 1.5896245 1.726726 1.3063499
0000d0 e4 25 c2 3f 59 0a 2d 3f ee 54 80 3f a5 d1 b0 3f
       1.5167813 0.67593914 1.0025918 1.3813978
0000e0 fa 05 90 3f 65 d9 98 3f 97 f9 94 3f 51 b2 07 3f
       1.1251824 1.1941344 1.1638669 0.53006464
0000f0 8b 36 53 3f 61 23 c0 3f a4 79 98 3f 99 e6 55 3f
       0.825051 1.5010797 1.1912122 0.8355499
000100 d3 17 83 3f e3 5f 12 40 75 49 85 3f 07 88 7e 3f
       1.0241646 2.2871025 1.0413042 0.9942631
000110 98 5d df 3f 3a d7 fe 3f 25 5c 30 3f 33 c1 c4 3f
       1.7450438 1.9909432 0.688906 1.537146
000120 35 46 38 3f 5f cc 74 3f 31 ed ae 3f 38 bc c3 3f
       0.7198213 0.95624346 1.3666135 1.5291815
000130 7b ea 2a 3d cc 71 80 3f 14 92 48 3f 26 cc fd 3f
       0.041727524 1.0034728 0.783479 1.9827926
000140 10 19 d1 3f 8d 54 2e 3f d6 90 bf 3f fa 63 95 3f
       1.6335773 0.68097764 1.4966075 1.1671135
000150 ae 4a 88 3f 25 0f 80 3f 9a 88 44 3f c7 29 2b 3f
       1.064779 1.0004622 0.7677094 0.6686062
000160 cc a3 61 3f fa 4d 2c 3f f0 76 a1 3f 58 99 95 3f
       0.8814056 0.6730648 1.2614422 1.1687422
000170 cd 26 7c 3f d7 f6 a4 3f e8 55 9b 3f 2e 44 db 3e
       0.98496705 1.288783 1.2135592 0.42825454
000180 c1 3e fa 3f 52 fd cc 3e 95 10 aa 3f 45 5c bc 3f
       1.9550401 0.40037018 1.328631 1.4715658
000190 34 2d 00 3f 09 8e 9c 3f 29 43 96 3f 61 c8 98 3f
       0.50068974 1.2230846 1.1739246 1.1936151
0001a0 f0 89 af 3f e1 93 7c 3f cc 0b 82 3f 26 ed f8 3f
       1.371397 0.98663145 1.015985 1.9447372
0001b0 eb bd 82 3f f3 16 01 3f c2 6e a5 3f 7d b9 c2 3f
       1.0214208 0.5042564 1.2924426 1.5212857
0001c0 28 0f 8a 3f f5 98 aa 3f 1b 4c 52 3d 03 6f 83 3f
       1.0785875 1.3327929 0.05134211 1.0268253
0001d0 fa e7 d6 3f c5 6a ad 3f 32 48 2c 3f d5 34 6b 3f
       1.6789544 1.3548208 0.6729766 0.9187749
0001e0 df 1b 82 3e 92 9d 80 3f 9b 2f 94 3f a3 5f 8b 3f
       0.2541189 1.0048087 1.1577028 1.0888561
0001f0 59 a5 72 3f be 5f eb 3f a9 06 40 3f db 76 c9 3f
       0.9478355 1.8388593 0.7501016 1.5739397
000200 31 51 a1 3e 36 a1 1b 3f 26 fc 2a 3e 98 33 0c 40
       0.31507257 0.60792863 0.1669775 2.190649
000210 21 5a 07 40 56 0a 87 3f 10 3b 19 3e 32 29 59 3f
       2.114876 1.0550029 0.14963937 0.84828484
000220 49 20 01 40 26 c9 32 3f cf da 94 3f 91 0e a8 3f
       2.0175955 0.6983818 1.1629275 1.3129445
000230 fd 5a 09 40 67 4f 3e 3f f1 f7 01 be 78 08 cd 3f
       2.1461785 0.7433991 -0.12692238 1.601821
000240 8a 93 77 3f 39 18 1c 3f 81 61 99 3e ff 8b 4f 3f
       0.967095 0.6097446 0.29957202 0.8107299
000250 25 02 3c 3f c7 eb a8 3e 30 5e 5e 3f 72 8f c1 3f
       0.7344077 0.32992384 0.8686247 1.5121901
000260 85 79 32 3f 14 2a 92 3e 48 80 07 3e 16 f2 9a 3f
       0.69716674 0.28547728 0.13232529 1.2105129
000270 ae 6e 91 3f 3c f9 ae 3e f7 a2 99 3f d8 8f b6 3f
       1.1361902 0.34174526 1.2002858 1.4262648
000280 21 4a 8e 3f ad a3 0a 3f c0 4e 85 3f b6 e8 68 3f
       1.1116372 0.54156 1.0414658 0.9098009
000290 7d 0f 0f 3f 6f d3 2a 3f c9 cb b9 3e 91 6e 92 3f
       0.5588301 0.6672887 0.36288288 1.1439992
0002a0 09 db c6 3f 62 2b d5 3f fb 21 de 3f e5 b9 83 3f
       1.5535594 1.6653864 1.735412 1.0291106
0002b0 e8 47 c2 3f bd 52 ba 3e 96 d2 a9 3f 9a 2f a2 3f
       1.5178194 0.3639125 1.3267391 1.2670777
0002c0 f2 fd 3b 3f 98 ab a5 3f cd 47 f0 3e be 42 e1 3e
       0.73434365 1.2942991 0.4692978 0.43996233
0002d0 3e ce c5 3f 17 7a bc 3f 82 04 60 3f bc 53 47 3f
       1.5453565 1.4724759 0.8750688 0.77862144
0002e0 18 f6 b7 3d b9 d2 e6 3f be 0f 4d 3f 1a f7 d1 3f
       0.089824855 1.8033057 0.80102146 1.6403534
0002f0 76 03 c1 3f e8 e6 a3 3e 7b 5f 87 3f 67 b0 18 3f
       1.5079181 0.32012105 1.0576013 0.5964417
000300 67 7c 53 3f a3 66 7a 3f 71 94 fb 3d 9b ca 8f 3f
       0.826117 0.9781286 0.12284172 1.1233705
000310 d5 1f 1a 3f 9d 5c 89 3f a3 92 2c 3f 34 c6 5a 3f
       0.6020482 1.0731388 0.6741125 0.85458684
000320 f9 fa cb 3f dd a5 8f 3f 01 6e 9e 3f 1d e4 e4 3d
       1.5935966 1.1222492 1.237732 0.11176322
000330 ed af 9c 3f f1 74 5a 3f a5 30 91 3f 2f a4 db 3e
       1.2241188 0.8533469 1.134297 0.428987
000340 c0 e2 01 40 41 bb 05 40 ab 27 8d 3f e8 b6 1d 3f
       2.0294647 2.089554 1.1027731 0.6160722
000350 97 de cc 3e d3 bf 8b 3f fa 5a 78 3f 25 fc 95 3f
       0.40013573 1.0917915 0.9701382 1.1717573
000360 16 68 ce 3f d5 f6 a5 3f 64 1a b2 3f 59 49 ad 3f
       1.6125515 1.2965952 1.3914304 1.3538009
000370 7b db 83 3f bc 0c 80 3f a9 93 d2 3e 54 d1 a5 3f
       1.0301355 1.0003886 0.4112828 1.2954507
000380 61 2e a8 3f e4 88 e7 3e 05 40 77 3f f2 b5 d3 3e
       1.3139154 0.45221627 0.9658206 0.4134975
000390 95 82 4c 3f 0e d6 8d 3f b3 c1 89 3f 67 e1 81 3f
       0.7988675 1.1080949 1.0762237 1.0146912
0003a0 02 d1 23 3e 01 99 97 3f d9 f6 85 3f ec 77 bb 3f
       0.15997699 1.1843568 1.0465957 1.4645972
0003b0 ef 45 cf 3f 9d 45 bf 3f bb 85 86 3f 1b fc b8 3e
       1.6193217 1.4943119 1.0509561 0.3612984
0003c0 2b c0 c5 3f 19 6b 16 40 8a 7c b3 3f 74 77 8d 3f
       1.544927 2.3502867 1.4022381 1.1052079
0003d0 89 ff d2 3f 45 6f 34 3f 5b a2 a2 3f 8a 60 93 3f
       1.6484233 0.70482284 1.2705797 1.1513836
0003e0 45 82 e7 ba 4f 1e 93 3f 69 b7 67 3f 1e 7f 98 3f
       -0.0017662725 1.1493624 0.90514237 1.1913793
0003f0 10 ba 54 3f c6 bb 90 3f d1 ee a4 3f 0c ef 81 3f
       0.8309641 1.1307304 1.2885381 1.0151076

fc2.bias f4 [100, 5]
000000 12 51 27 bd b4 73 87 bd c9 af 0c bd e0 19 d0 3d
       -0.0408488 -0.066138655 -0.03434733 0.10161185
000010 b0 b2 d8 bc f9 a6 08 3e bf 22 14 3c e4 10 af 3b
       -0.026452392 0.13344945 0.009041487 0.0053425897
000020 b0 32 10 be 04 53 8c bd b4 8d 1f 3e 40 b2 ad 3d
       -0.14081836 -0.068517715 0.15581399 0.08481264
000030 93 8b e0 3b b7 47 20 be 3b 39 a4 3d 00 24 39 3d
       0.006852576 -0.15652357 0.08018728 0.045200348
000040 9e e5 1f 3c 1f 20 ab bd 8f 84 ee 3c ab c9 ec bd
       0.009759335 -0.08355736 0.029115943 -0.115619026
000050 02 1c 91 3d 15 be 39 3e 8c 51 a3 bd 5a 95 b7 3d
       0.0708542 0.18138917 -0.07974538 0.089640334
000060 2c 6b 0e 3b 5c 03 2b 3e 9e be 8b 3d 9d 07 ea 3c
       0.002173136 0.167005 0.06823467 0.028568083
000070 41 1c ab 3d f8 9c f8 bd c1 74 05 be 18 54 46 3c
       0.083549984 -0.121393144 -0.1303282 0.01210501
000080 1d 85 db 3c 95 99 de bd 99 73 a9 bd a1 10 b5 3d
       0.026796872 -0.10869137 -0.08274002 0.08841062
000090 d8 5f 84 bb 59 4f 4f 3d 94 8e 18 be 0f f9 50 be
       -0.004039746 0.05061278 -0.14898139 -0.20407508
0000a0 7a b3 e0 3d c8 cd 76 bd 7c 21 ad bd 0a 76 f7 bb
       0.109717324 -0.060254842 -0.08453652 -0.007551913
0000b0 8f 45 1d be 17 40 80 bc dd 7c 13 3e b3 13 7e be
       -0.15358566 -0.01565556 0.144031 -0.24812202
0000c0 ca 98 03 3e 3b 80 ed 3d 93 2b 85 bd 34 92 8c 3a
       0.12851253 0.11596724 -0.06502452 0.0010724724
0000d0 14 fc d4 3d 69 4b 20 be b6 43 ee 3c 7d d1 71 3d
       0.103996426 -0.15653767 0.029085021 0.059037674
0000e0 bc e1 99 3d 14 00 ae 3d c4 33 66 3d 87 5e ea 3d
       0.075137585 0.08496109 0.05620171 0.11443811
0000f0 23 fc b6 3d d5 30 19 3e af 42 66 3d c9 38 86 3d
       0.0893481 0.14960034 0.05621594 0.065538
000100 03 dd 42 3d 37 4f c7 3d c8 d9 cb 3d b5 e5 45 3d
       0.047574054 0.09731906 0.09953648 0.04831477
000110 a0 fa b9 3b 40 3c ee bd ef c3 ab bb ea 07 b0 3d
       0.005675629 -0.116325855 -0.005241863 0.085952595
000120 b0 b8 24 3e 7c cc f4 bd 8d fd 78 bd 34 a3 3f 3e
       0.16086078 -0.11953065 -0.06078868 0.18714601
000130 9c d0 1b bd 6b a0 cc 3d 03 84 85 b9 a9 1c c6 3d
       -0.038040742 0.09991535 -0.00025466093 0.09673435
000140 82 41 08 3e 60 4d c7 3d b7 f0 2e be 91 4e d4 bd
       0.13306239 0.09731555 -0.17084013 -0.10366548
000150 b3 05 0c 3e b4 14 16 3d 5e 32 b2 3c 6a 74 c6 bd
       0.13674049 0.036640838 0.021752533 -0.09690173
000160 93 6f a2 3d 08 c9 34 be 3b e8 06 3e 2e fd a5 3d
       0.07931437 -0.17654812 0.13174526 0.08104931
000170 67 24 6d 3d e9 f9 c5 bd 2e d9 bf 3c a4 54 11 be
       0.057896044 -0.09666807 0.023418989 -0.14192444
000180 50 9b 21 bd 86 6a 6c bd 8b 31 2f be 2e a4 ca bd
       -0.03945476 -0.057718776 -0.17108743 -0.09894596
000190 47 28 36 3d ec 44 c6 3c 1b db e3 3d 45 6a 23 3e
       0.044472005 0.024202786 0.111257754 0.15958507
0001a0 6d 73 be bc 08 a5 3f bd 8d e5 24 3e d5 23 1a be
       -0.023248399 -0.046788245 0.16103192 -0.15052731
0001b0 b5 d7 53 bd fc dc e4 bd 6e 55 13 bd 1b e8 2b 3d
       -0.051719386 -0.11174962 -0.035970144 0.0419694
0001c0 77 40 12 3d 9d 83 52 be 05 b8 2a 3e 16 74 4b bd
       0.03570601 -0.20558019 0.1667176 -0.049671255
0001d0 17 01 86 3d c5 0b 45 bd 23 fc 52 be b2 34 69 be
       0.065431766 -0.048106927 -0.20603995 -0.22774008
0001e0 2a 21 04 3d 6c c6 4f bd 4f 3d 33 3e cb 79 73 bc
       0.03225819 -0.05072634 0.17503856 -0.014860581
0001f0 14 b9 94 3d 7e ec 58 3b 78 c4 b7 3d fc 70 dd bc
       0.07261863 0.0033099945 0.0897302 -0.027031414
000200 98 63 0c 3e dc aa 12 bd 36 03 77 3d 6a 08 c0 3c
       0.13709867 -0.035807475 0.060305797 0.023441512
000210 ff eb 20 bc 89 38 96 bd a1 76 0b 3d a8 b3 ec bc
       -0.009821891 -0.07335002 0.03404868 -0.02889426
000220 fa 44 66 bd 9a 06 07 3e c2 9c 8d bd f8 ab 0b 3e
       -0.056218125 0.13186112 -0.06914665 0.1363982
000230 b8 09 38 3e 52 4b 9d bd 7a 5b b5 bc 9e 2e 2d bd
       0.17972457 -0.07680382 -0.022138346 -0.042280786
000240 14 a7 91 bd 70 8a a3 bd 1d 7e 87 3c 00 c6 ad 3d
       -0.07111946 -0.07985389 0.016539628 0.08485031
000250 85 f1 79 bd e3 24 94 3d aa 13 83 3c 99 e6 a6 bd
       -0.061021347 0.07233598 0.016000587 -0.08149452
000260 2a df 32 bc a6 00 db 3c 9c e6 a8 bd 0a 1a 25 bb
       -0.010917464 0.026733708 -0.0824711 -0.0025192522
000270 c1 39 13 bd d7 8b af 3d 15 32 43 be e4 40 48 3d
       -0.03594375 0.08571594 -0.19062074 0.04889001
000280 8e 88 0a bc 68 00 27 3d 78 c0 65 bd 7b cb fb 3d
       -0.008455409 0.04077187 -0.056091756 0.1229467
000290 8f e0 1b be 0b d6 85 bd 47 aa 8e 3d ca f5 60 bc
       -0.15222381 -0.06534966 0.069660716 -0.013730476
0002a0 fe 36 a9 3d d2 14 75 3d 4b 88 17 3e e6 86 0a bd
       0.08262442 0.05983431 0.14798085 -0.033820055
0002b0 0e 04 c6 3c 62 01 41 bb 16 fc 30 bd 26 20 b5 3c
       0.024171855 -0.0029450287 -0.043209158 0.022110056
0002c0 b5 65 84 3b d8 1f 1e 3c e3 cd 83 bd 91 58 19 3c
       0.0040404447 0.009651147 -0.06435754 0.009359495
0002d0 af 0b 1b bd 4c c7 04 3c 43 7f 01 be db 1e a5 bd
       -0.03785294 0.008104157 -0.12646203 -0.08062526
0002e0 d4 b3 9e bd 50 f6 2c 3e da 5b af 3d 0d 42 1f be
       -0.07749143 0.16890836 0.08562441 -0.1555254
0002f0 20 9a a3 3d 9c 7d 09 bd 4d 8e ba bd 0a 8f 3c 3d
       0.079883814 -0.033567056 -0.09109173 0.04603485
000300 c0 3d 7e bd a5 85 a2 3d da cb 88 3d 84 f6 a2 bd
       -0.06207061 0.07935647 0.066795066 -0.079571754
000310 70 49 71 3d 2c 59 c4 bd 2d 90 af bd 74 53 85 3c
       0.058907926 -0.09587321 -0.08572421 0.016275145
000320 61 85 b0 3d a9 5d 0c 3e 8c 9d c5 3d 0f d5 54 bd
       0.0861919 0.13707604 0.0964919 -0.051961
000330 34 08 7a 3d 3a 99 04 be 7c 80 d0 bc 2d 91 fd 3a
       0.06104298 -0.12949076 -0.025451891 0.0019345634
000340 ee 00 19 be 92 b3 0e 3d 59 61 42 3d 3d b4 58 bd
       -0.14941761 0.03483922 0.04745612 -0.052906264
000350 fd 26 5f 3c 2a 54 79 3d c1 69 76 3d 9a 0f a2 3d
       0.013620135 0.06087128 0.06015945 0.07913132
000360 b2 5f 23 3e 65 9c 01 3e db 3e fe bc 5b 11 68 be
       0.15954474 0.12657316 -0.031035831 -0.2266287
000370 fc 20 0c 3d 2d a3 84 3d 20 29 9f bc 45 2a a9 bb
       0.034211144 0.06476436 -0.01942879 -0.0051625096
000380 62 06 fe bd 24 6a 85 bd d6 d4 0c 3d 93 f3 59 bd
       -0.12403561 -0.06514385 0.034382664 -0.053210806
000390 67 73 0d be 07 3d 1a bd be 7d 80 bd d4 ee 7f 3c
       -0.13813554 -0.037655856 -0.062739834 0.015620906
0003a0 ac 08 fb 3c f1 d4 5b bd b1 2c 0d 3e 7d 00 d3 3c
       0.030643784 -0.053669874 0.1378658 0.025757069
0003b0 2f d1 86 3c b1 1c fd bd b4 07 e0 3d 74 88 c3 bd
       0.016457168 -0.12358988 0.10938969 -0.09547511
0003c0 e5 a8 a9 3d 06 92 0a 3e 96 10 23 be 8d fd 77 3d
       0.08284167 0.13532266 -0.15924296 0.06054454
0003d0 d3 b3 fe bc ca e1 9b 3d 7a 1f 2e 3e e4 5d 73 3c
       -0.031091606 0.07611425 0.17004195 0.014853928
0003e0 0d 57 bb bd 56 20 e0 bc f9 2f 1b 3d 7e 68 34 3c
       -0.09147463 -0.027359169 0.037887547 0.011011241
0003f0 f3 67 df bd c6 b9 85 bc 01 7b 07 be 71 25 7d bd
       -0.109084986 -0.016323935 -0.13230516 -0.061803285

fc2.linear.weight f4 [5, 50]
000000 bf 19 42 be 64 f0 68 3d e5 64 18 bb c4 fc 2d be
       -0.18955134 0.05686988 -0.0023253497 -0.16990954
000010 b7 80 ae 3d 62 b0 e3 bd 60 db 36 bc a4 26 a4 bd
       0.08520644 -0.11117627 -0.0111607015 -0.080151826
000020 c0 46 9a bc 9d 41 93 bd 3f 26 5b bd ad a0 48 bc
       -0.018832564 -0.07190249 -0.05350327 -0.012245339
000030 34 f6 08 be fc 65 2f bc f2 15 a7 bd 75 6c d0 3c
       -0.13375169 -0.010705467 -0.081584826 0.025442341
000040 a4 10 bc bc 1e 63 75 3b 34 0a e7 3d 57 b0 0d be
       -0.022957154 0.0037443112 0.11281243 -0.138368
000050 d5 43 79 be cc 93 3e 3d 13 33 b9 bd 76 17 3c 3d
       -0.24342282 0.04652767 -0.09042945 0.04592081
000060 e1 5e fb 3c e2 ec 6e be 40 ca 13 bd b3 0e 19 3c
       0.03068489 -0.23332551 -0.036081553 0.0093418835
000070 9e 19 2f be 3f f0 e8 3d a0 86 28 3e 66 06 ab bb
       -0.17099616 0.11373948 0.16457605 -0.0052192686
000080 a0 7f cf 3c fa 42 dc bd 60 d5 71 bd 86 74 2e be
       0.025329411 -0.10754962 -0.05904138 -0.17036638
000090 7d f1 9d bd f6 2d 96 3d d0 99 13 bd f5 a3 d6 bd
       -0.07712076 0.07332985 -0.03603536 -0.10480491
0000a0 71 fd 25 bd 6c 9d 8c be aa f0 2d 3e 2a a5 67 3e
       -0.040524904 -0.27463853 0.16986337 0.22621599
0000b0 ad 38 ba 3d 75 15 77 bd 19 10 01 be f1 8e 09 3e
       0.09092841 -0.060323197 -0.12603797 0.13433434
0000c0 65 df 07 be 34 87 81 bd ee 61 e7 3c de e1 c1 3d
       -0.13268812 -0.06324616 0.028244939 0.09466909
0000d0 19 ce 10 bd 57 2a 98 3d c4 96 0c be 69 4b b7 bd
       -0.0353528 0.07429951 -0.13729388 -0.0894993
0000e0 d2 2a 32 be fa bf 10 3e 7a 80 2d be 8a 8b 59 be
       -0.17399147 0.14135733 -0.16943541 -0.21244636
0000f0 df bc 5b bd fd 09 53 3c ba 45 3a 3d 2f fc 47 3e
       -0.05364692 0.012880799 0.045476653 0.19529794
000100 be 0a 07 bd ea 06 85 bd af b8 d8 3c 03 5e f3 3d
       -0.03296923 -0.064954594 0.026455252 0.11883166
000110 da 59 26 3d b0 69 b4 3c 78 bd 91 3d a6 1b b6 bd
       0.040613033 0.022023052 0.071162164 -0.08891992
000120 16 81 c2 3d ff 7f 72 bd db 53 e9 bd 49 c4 10 bd
       0.094972774 -0.059204098 -0.11392947 -0.035343442
000130 cf 54 4d be 8d 88 0a 3e fd b0 cd bb a9 f0 2e be
       -0.20051883 0.13528652 -0.006277202 -0.17083992
000140 9c 74 99 bd 55 58 b0 bd 94 61 ae bc 06 c9 c5 3c
       -0.074929446 -0.08610598 -0.021286763 0.024143707
000150 b7 98 8a be 27 79 f6 bc 14 37 56 be c7 56 d7 3d
       -0.27069637 -0.030087067 -0.20919448 0.10514598
000160 80 a0 3a be f4 74 2c be e4 96 5b 3d 34 8b 51 be
       -0.18225288 -0.16841489 0.053610697 -0.20463258
000170 e5 4e 97 bd 46 6f fb 3d c4 51 8a be 36 93 78 3c
       -0.07388095 0.12277083 -0.27015507 0.015171817
000180 b1 22 d2 bc 5e 5d 02 3e 33 df 0c 3d 2a 3c 17 be
       -0.025651308 0.1273093 0.034392547 -0.14769045
000190 2f 12 73 3d 29 0c 1d 3d 3c 3b 78 be 72 1a 12 3e
       0.059343513 0.038341675 -0.24241346 0.142679
0001a0 94 f8 22 be 58 96 01 3e c2 09 e5 3d 7e 13 89 3a
       -0.15915138 0.12655008 0.11183502 0.001045808
0001b0 76 34 a3 3c d6 2e 0a 3d af a2 57 be 6b db 28 be
       0.019922476 0.033736072 -0.21058153 -0.16489951
0001c0 23 9e 3c 3c df 44 b7 3d b1 0e 16 3e d5 43 73 bd
       0.011512312 0.08948683 0.14654042 -0.05939086
0001d0 4b db 63 3d 31 92 1e bd ac 1f a1 bd 7f 49 29 bd
       0.055629056 -0.038713638 -0.07867369 -0.041329857
0001e0 d2 fc 8d 3d 1b ad 92 bd e0 d1 47 bc b9 a8 f1 bd
       0.06932987 -0.071619235 -0.012196034 -0.117997594
0001f0 a7 21 88 bd 05 c7 97 bc b4 bf 39 bd f5 f5 d6 bd
       -0.06647044 -0.018527517 -0.045348838 -0.10496131
000200 3b d6 01 3d 49 fa f0 bb 2e a4 2a 3d 7a e3 36 bb
       0.031698447 -0.007354055 0.04166048 -0.0027906583
000210 13 bb 77 be ea 18 03 3e 0f 44 45 bd b0 8b 6c 3d
       -0.24192457 0.12802473 -0.04816061 0.057750404
000220 13 66 09 be 8d f2 a5 bd 1e 98 c0 3d 9e c5 9b bd
       -0.13417844 -0.081029035 0.09404014 -0.07606052
000230 c0 6e 84 3c 34 f2 34 be 53 26 4b bd 38 b0 b6 bd
       0.016166091 -0.17670518 -0.049597096 -0.0892033
000240 ec 05 e0 bd 75 d6 8b 3d 8d 3e d4 3d 4b 13 8f be
       -0.109386295 0.06828014 0.10363493 -0.27944407
000250 d7 68 29 3d 51 1c 3c be 8a e9 93 bd f0 11 ba 3c
       0.04135975 -0.18370177 -0.072222784 0.022713631
000260 ae e4 6c bc 0f ea 3d bd fe dc 3e be 04 28 aa 3b
       -0.014458818 -0.046365794 -0.1863899 0.0051927585
000270 af d9 dc bd fb 81 2b 3c 7b 2b 80 3d 87 70 55 bd
       -0.10783707 0.0104680015 0.06258293 -0.052109268
000280 fd 63 1d be 96 a0 4f 3b 4b 0d fc bd f6 3e 17 bd
       -0.15370174 0.003168141 -0.12307223 -0.03692528
000290 74 a3 18 3e fe 58 d0 3d 36 e2 d3 bc 1c 11 08 3d
       0.14906102 0.10173224 -0.025864702 0.03321944
0002a0 f5 5a 10 be f3 d5 12 3d bb 74 ae 3c db 4c 97 bd
       -0.14097197 0.03584857 0.021295896 -0.07387706
0002b0 c9 eb 03 bd e1 60 4c bc 17 2b ab 3a 2c a2 d8 3d
       -0.032207284 -0.01247427 0.0013059106 0.10577807
0002c0 ee 50 96 3d a6 cb 37 bd 9c a5 7d bb 20 b3 40 bd
       0.07339655 -0.04487195 -0.0038703447 -0.047045827
0002d0 8c 59 47 be ef c3 d7 3c 1a 26 26 3d 47 0c 3b be
       -0.19467753 0.026338546 0.04056368 -0.18266402
0002e0 aa 87 cd 3b b2 b6 4b bd 64 3b 05 3e cc 41 3d bd
       0.006272276 -0.04973478 0.13010937 -0.046205327
0002f0 3f 0f 6e bd 74 14 a6 3d a5 ff 41 3d ec ec 25 3e
       -0.05812001 0.0810937 0.047362942 0.1620366
000300 1f f4 10 bd ad 26 2d be fa 0c 5d be 2c 23 9c 3c
       -0.035389062 -0.16909285 -0.21586981 0.01905974
000310 79 0e 7b bd 84 d9 e4 3c 2e 0a 0f 3d 02 0d 9b 3d
       -0.0612931 0.02793575 0.034921817 0.075708404
000320 14 4b a0 3c da f5 18 bd d3 f0 16 be cb 8c 1a bc
       0.01956705 -0.037343837 -0.14740305 -0.009432982
000330 0c f5 0b 3e 93 94 d8 3c fe d2 44 3d fa fd 1a bd
       0.13667697 0.026438033 0.04805278 -0.037839867
000340 51 a8 be 3d 84 c9 45 3c 8f 5a c9 bc 8c df 72 be
       0.093094476 0.012071971 -0.024579315 -0.23718089
000350 31 03 2a 3d 46 80 c5 bd 92 3b 07 be 15 23 2c 3e
       0.04150695 -0.09643607 -0.13206318 0.16810258
000360 b1 39 9e 3c a8 7a 81 be 3e 1a ba 3d 69 63 8d 3c
       0.019314619 -0.25288892 0.090870366 0.017259317
000370 ac 13 31 bd 3c 70 98 3d 31 49 e4 bd cc 1c 8d 3d
       -0.04323165 0.07443282 -0.11146773 0.06890258
000380 cf 99 97 bd 58 02 14 be c3 a2 9f bd d3 d2 7a 3c
       -0.074023835 -0.14454019 -0.07794716 0.0153090535
000390 43 f9 4b 3d dd e5 f0 bb 4e 03 ef 3c 7e 46 db bd
       0.04979826 -0.0073516206 0.02917638 -0.10706805
0003a0 d3 21 2c be 4b 21 d0 bd 96 5a f2 bd 40 31 c7 bd
       -0.16809778 -0.101626 -0.11833684 -0.097261906
0003b0 56 50 83 3d 41 51 14 3e 5a f5 c2 bc 97 bc ba 3d
       0.06411807 0.14484121 -0.023798633 0.09118002
0003c0 df c1 32 bd a5 8a 04 3d b9 99 b9 bc d8 f1 83 bd
       -0.04364192 0.032358784 -0.022656308 -0.064426124
0003d0 dc 21 f6 3d 22 82 cb 39 ed c5 68 be 5b 4c 83 bc
       0.12018177 0.00038816134 -0.22731753 -0.01602762
0003e0 6e ae ab 3d 47 07 f0 3c
       0.08382879 0.029300345
